{"format": "layers-model", "generatedBy": "keras v2.4.0", "convertedBy": "TensorFlow.js Converter v2.3.0", "modelTopology": {"keras_version": "2.4.0", "backend": "tensorflow", "model_config": {"class_name": "Functional", "config": {"name": "functional_3", "layers": [{"class_name": "InputLayer", "config": {"batch_input_shape": [null, 128, 128, 3], "dtype": "float32", "sparse": false, "ragged": false, "name": "input_1"}, "name": "input_1", "inbound_nodes": []}, {"class_name": "Conv2D", "config": {"name": "conv2d", "trainable": true, "dtype": "float32", "filters": 24, "kernel_size": [5, 5], "strides": [2, 2], "padding": "same", "data_format": "channels_last", "dilation_rate": [1, 1], "groups": 1, "activation": "linear", "use_bias": true, "kernel_initializer": {"class_name": "GlorotUniform", "config": {"seed": null}}, "bias_initializer": {"class_name": "Zeros", "config": {}}, "kernel_regularizer": null, "bias_regularizer": null, "activity_regularizer": null, "kernel_constraint": null, "bias_constraint": null}, "name": "conv2d", "inbound_nodes": [[["input_1", 0, 0, {}]]]}, {"class_name": "BatchNormalization", "config": {"name": "batch_normalization", "trainable": true, "dtype": "float32", "axis": [3], "momentum": 0.99, "epsilon": 0.001, "center": true, "scale": true, "beta_initializer": {"class_name": "Zeros", "config": {}}, "gamma_initializer": {"class_name": "Ones", "config": {}}, "moving_mean_initializer": {"class_name": "Zeros", "config": {}}, "moving_variance_initializer": {"class_name": "Ones", "config": {}}, "beta_regularizer": null, "gamma_regularizer": null, "beta_constraint": null, "gamma_constraint": null}, "name": "batch_normalization", "inbound_nodes": [[["conv2d", 0, 0, {}]]]}, {"class_name": "Activation", "config": {"name": "activation", "trainable": true, "dtype": "float32", "activation": "relu"}, "name": "activation", "inbound_nodes": [[["batch_normalization", 0, 0, {}]]]}, {"class_name": "Sequential", "config": {"name": "sequential", "layers": [{"class_name": "InputLayer", "config": {"batch_input_shape": [null, 64, 64, 24], "dtype": "float32", "sparse": false, "ragged": false, "name": "separable_conv2d_input"}}, {"class_name": "SeparableConv2D", "config": {"name": "separable_conv2d", "trainable": true, "dtype": "float32", "filters": 24, "kernel_size": [5, 5], "strides": [1, 1], "padding": "same", "data_format": "channels_last", "dilation_rate": [1, 1], "groups": 1, "activation": "linear", "use_bias": true, "kernel_initializer": {"class_name": "GlorotUniform", "config": {"seed": null}}, "bias_initializer": {"class_name": "Zeros", "config": {}}, "kernel_regularizer": null, "bias_regularizer": null, "activity_regularizer": null, "kernel_constraint": null, "bias_constraint": null, "depth_multiplier": 1, "depthwise_initializer": {"class_name": "GlorotUniform", "config": {"seed": null}}, "pointwise_initializer": {"class_name": "GlorotUniform", "config": {"seed": null}}, "depthwise_regularizer": null, "pointwise_regularizer": null, "depthwise_constraint": null, "pointwise_constraint": null}}, {"class_name": "BatchNormalization", "config": {"name": "batch_normalization_1", "trainable": true, "dtype": "float32", "axis": [3], "momentum": 0.99, "epsilon": 0.001, "center": true, "scale": true, "beta_initializer": {"class_name": "Zeros", "config": {}}, "gamma_initializer": {"class_name": "Ones", "config": {}}, "moving_mean_initializer": {"class_name": "Zeros", "config": {}}, "moving_variance_initializer": {"class_name": "Ones", "config": {}}, "beta_regularizer": null, "gamma_regularizer": null, "beta_constraint": null, "gamma_constraint": null}}]}, "name": "sequential", "inbound_nodes": [[["activation", 0, 0, {}]]]}, {"class_name": "Activation", "config": {"name": "activation_1", "trainable": true, "dtype": "float32", "activation": "relu"}, "name": "activation_1", "inbound_nodes": [[["sequential", 1, 0, {}]]]}, {"class_name": "Sequential", "config": {"name": "sequential_1", "layers": [{"class_name": "InputLayer", "config": {"batch_input_shape": [null, 64, 64, 24], "dtype": "float32", "sparse": false, "ragged": false, "name": "separable_conv2d_1_input"}}, {"class_name": "SeparableConv2D", "config": {"name": "separable_conv2d_1", "trainable": true, "dtype": "float32", "filters": 24, "kernel_size": [5, 5], "strides": [1, 1], "padding": "same", "data_format": "channels_last", "dilation_rate": [1, 1], "groups": 1, "activation": "linear", "use_bias": true, "kernel_initializer": {"class_name": "GlorotUniform", "config": {"seed": null}}, "bias_initializer": {"class_name": "Zeros", "config": {}}, "kernel_regularizer": null, "bias_regularizer": null, "activity_regularizer": null, "kernel_constraint": null, "bias_constraint": null, "depth_multiplier": 1, "depthwise_initializer": {"class_name": "GlorotUniform", "config": {"seed": null}}, "pointwise_initializer": {"class_name": "GlorotUniform", "config": {"seed": null}}, "depthwise_regularizer": null, "pointwise_regularizer": null, "depthwise_constraint": null, "pointwise_constraint": null}}, {"class_name": "BatchNormalization", "config": {"name": "batch_normalization_2", "trainable": true, "dtype": "float32", "axis": [3], "momentum": 0.99, "epsilon": 0.001, "center": true, "scale": true, "beta_initializer": {"class_name": "Zeros", "config": {}}, "gamma_initializer": {"class_name": "Ones", "config": {}}, "moving_mean_initializer": {"class_name": "Zeros", "config": {}}, "moving_variance_initializer": {"class_name": "Ones", "config": {}}, "beta_regularizer": null, "gamma_regularizer": null, "beta_constraint": null, "gamma_constraint": null}}]}, "name": "sequential_1", "inbound_nodes": [[["activation_1", 0, 0, {}]]]}, {"class_name": "Activation", "config": {"name": "activation_2", "trainable": true, "dtype": "float32", "activation": "relu"}, "name": "activation_2", "inbound_nodes": [[["sequential_1", 1, 0, {}]]]}, {"class_name": "Sequential", "config": {"name": "sequential_2", "layers": [{"class_name": "InputLayer", "config": {"batch_input_shape": [null, 64, 64, 24], "dtype": "float32", "sparse": false, "ragged": false, "name": "separable_conv2d_2_input"}}, {"class_name": "SeparableConv2D", "config": {"name": "separable_conv2d_2", "trainable": true, "dtype": "float32", "filters": 24, "kernel_size": [5, 5], "strides": [2, 2], "padding": "same", "data_format": "channels_last", "dilation_rate": [1, 1], "groups": 1, "activation": "linear", "use_bias": true, "kernel_initializer": {"class_name": "GlorotUniform", "config": {"seed": null}}, "bias_initializer": {"class_name": "Zeros", "config": {}}, "kernel_regularizer": null, "bias_regularizer": null, "activity_regularizer": null, "kernel_constraint": null, "bias_constraint": null, "depth_multiplier": 1, "depthwise_initializer": {"class_name": "GlorotUniform", "config": {"seed": null}}, "pointwise_initializer": {"class_name": "GlorotUniform", "config": {"seed": null}}, "depthwise_regularizer": null, "pointwise_regularizer": null, "depthwise_constraint": null, "pointwise_constraint": null}}, {"class_name": "BatchNormalization", "config": {"name": "batch_normalization_3", "trainable": true, "dtype": "float32", "axis": [3], "momentum": 0.99, "epsilon": 0.001, "center": true, "scale": true, "beta_initializer": {"class_name": "Zeros", "config": {}}, "gamma_initializer": {"class_name": "Ones", "config": {}}, "moving_mean_initializer": {"class_name": "Zeros", "config": {}}, "moving_variance_initializer": {"class_name": "Ones", "config": {}}, "beta_regularizer": null, "gamma_regularizer": null, "beta_constraint": null, "gamma_constraint": null}}]}, "name": "sequential_2", "inbound_nodes": [[["activation_2", 0, 0, {}]]]}, {"class_name": "MaxPooling2D", "config": {"name": "max_pooling2d", "trainable": true, "dtype": "float32", "pool_size": [2, 2], "padding": "valid", "strides": [2, 2], "data_format": "channels_last"}, "name": "max_pooling2d", "inbound_nodes": [[["activation_2", 0, 0, {}]]]}, {"class_name": "Add", "config": {"name": "add", "trainable": true, "dtype": "float32"}, "name": "add", "inbound_nodes": [[["sequential_2", 1, 0, {}], ["max_pooling2d", 0, 0, {}]]]}, {"class_name": "Activation", "config": {"name": "activation_3", "trainable": true, "dtype": "float32", "activation": "relu"}, "name": "activation_3", "inbound_nodes": [[["add", 0, 0, {}]]]}, {"class_name": "Sequential", "config": {"name": "sequential_3", "layers": [{"class_name": "InputLayer", "config": {"batch_input_shape": [null, 32, 32, 24], "dtype": "float32", "sparse": false, "ragged": false, "name": "separable_conv2d_3_input"}}, {"class_name": "SeparableConv2D", "config": {"name": "separable_conv2d_3", "trainable": true, "dtype": "float32", "filters": 48, "kernel_size": [5, 5], "strides": [1, 1], "padding": "same", "data_format": "channels_last", "dilation_rate": [1, 1], "groups": 1, "activation": "linear", "use_bias": true, "kernel_initializer": {"class_name": "GlorotUniform", "config": {"seed": null}}, "bias_initializer": {"class_name": "Zeros", "config": {}}, "kernel_regularizer": null, "bias_regularizer": null, "activity_regularizer": null, "kernel_constraint": null, "bias_constraint": null, "depth_multiplier": 1, "depthwise_initializer": {"class_name": "GlorotUniform", "config": {"seed": null}}, "pointwise_initializer": {"class_name": "GlorotUniform", "config": {"seed": null}}, "depthwise_regularizer": null, "pointwise_regularizer": null, "depthwise_constraint": null, "pointwise_constraint": null}}, {"class_name": "BatchNormalization", "config": {"name": "batch_normalization_4", "trainable": true, "dtype": "float32", "axis": [3], "momentum": 0.99, "epsilon": 0.001, "center": true, "scale": true, "beta_initializer": {"class_name": "Zeros", "config": {}}, "gamma_initializer": {"class_name": "Ones", "config": {}}, "moving_mean_initializer": {"class_name": "Zeros", "config": {}}, "moving_variance_initializer": {"class_name": "Ones", "config": {}}, "beta_regularizer": null, "gamma_regularizer": null, "beta_constraint": null, "gamma_constraint": null}}]}, "name": "sequential_3", "inbound_nodes": [[["activation_3", 0, 0, {}]]]}, {"class_name": "Activation", "config": {"name": "activation_4", "trainable": true, "dtype": "float32", "activation": "relu"}, "name": "activation_4", "inbound_nodes": [[["sequential_3", 1, 0, {}]]]}, {"class_name": "Sequential", "config": {"name": "sequential_4", "layers": [{"class_name": "InputLayer", "config": {"batch_input_shape": [null, 32, 32, 48], "dtype": "float32", "sparse": false, "ragged": false, "name": "separable_conv2d_4_input"}}, {"class_name": "SeparableConv2D", "config": {"name": "separable_conv2d_4", "trainable": true, "dtype": "float32", "filters": 48, "kernel_size": [5, 5], "strides": [1, 1], "padding": "same", "data_format": "channels_last", "dilation_rate": [1, 1], "groups": 1, "activation": "linear", "use_bias": true, "kernel_initializer": {"class_name": "GlorotUniform", "config": {"seed": null}}, "bias_initializer": {"class_name": "Zeros", "config": {}}, "kernel_regularizer": null, "bias_regularizer": null, "activity_regularizer": null, "kernel_constraint": null, "bias_constraint": null, "depth_multiplier": 1, "depthwise_initializer": {"class_name": "GlorotUniform", "config": {"seed": null}}, "pointwise_initializer": {"class_name": "GlorotUniform", "config": {"seed": null}}, "depthwise_regularizer": null, "pointwise_regularizer": null, "depthwise_constraint": null, "pointwise_constraint": null}}, {"class_name": "BatchNormalization", "config": {"name": "batch_normalization_5", "trainable": true, "dtype": "float32", "axis": [3], "momentum": 0.99, "epsilon": 0.001, "center": true, "scale": true, "beta_initializer": {"class_name": "Zeros", "config": {}}, "gamma_initializer": {"class_name": "Ones", "config": {}}, "moving_mean_initializer": {"class_name": "Zeros", "config": {}}, "moving_variance_initializer": {"class_name": "Ones", "config": {}}, "beta_regularizer": null, "gamma_regularizer": null, "beta_constraint": null, "gamma_constraint": null}}]}, "name": "sequential_4", "inbound_nodes": [[["activation_4", 0, 0, {}]]]}, {"class_name": "Activation", "config": {"name": "activation_5", "trainable": true, "dtype": "float32", "activation": "relu"}, "name": "activation_5", "inbound_nodes": [[["sequential_4", 1, 0, {}]]]}, {"class_name": "MaxPooling2D", "config": {"name": "max_pooling2d_1", "trainable": true, "dtype": "float32", "pool_size": [2, 2], "padding": "valid", "strides": [2, 2], "data_format": "channels_last"}, "name": "max_pooling2d_1", "inbound_nodes": [[["activation_5", 0, 0, {}]]]}, {"class_name": "Sequential", "config": {"name": "sequential_5", "layers": [{"class_name": "InputLayer", "config": {"batch_input_shape": [null, 32, 32, 48], "dtype": "float32", "sparse": false, "ragged": false, "name": "separable_conv2d_5_input"}}, {"class_name": "SeparableConv2D", "config": {"name": "separable_conv2d_5", "trainable": true, "dtype": "float32", "filters": 24, "kernel_size": [5, 5], "strides": [2, 2], "padding": "same", "data_format": "channels_last", "dilation_rate": [1, 1], "groups": 1, "activation": "linear", "use_bias": true, "kernel_initializer": {"class_name": "GlorotUniform", "config": {"seed": null}}, "bias_initializer": {"class_name": "Zeros", "config": {}}, "kernel_regularizer": null, "bias_regularizer": null, "activity_regularizer": null, "kernel_constraint": null, "bias_constraint": null, "depth_multiplier": 1, "depthwise_initializer": {"class_name": "GlorotUniform", "config": {"seed": null}}, "pointwise_initializer": {"class_name": "GlorotUniform", "config": {"seed": null}}, "depthwise_regularizer": null, "pointwise_regularizer": null, "depthwise_constraint": null, "pointwise_constraint": null}}, {"class_name": "BatchNormalization", "config": {"name": "batch_normalization_6", "trainable": true, "dtype": "float32", "axis": [3], "momentum": 0.99, "epsilon": 0.001, "center": true, "scale": true, "beta_initializer": {"class_name": "Zeros", "config": {}}, "gamma_initializer": {"class_name": "Ones", "config": {}}, "moving_mean_initializer": {"class_name": "Zeros", "config": {}}, "moving_variance_initializer": {"class_name": "Ones", "config": {}}, "beta_regularizer": null, "gamma_regularizer": null, "beta_constraint": null, "gamma_constraint": null}}]}, "name": "sequential_5", "inbound_nodes": [[["activation_5", 0, 0, {}]]]}, {"class_name": "TensorFlowOpLayer", "config": {"name": "ZerosLike", "trainable": true, "dtype": "float32", "node_def": {"name": "ZerosLike", "op": "ZerosLike", "input": ["max_pooling2d_1/MaxPool"], "attr": {"T": {"type": "DT_FLOAT"}}}, "constants": {}}, "name": "tf_op_layer_ZerosLike", "inbound_nodes": [[["max_pooling2d_1", 0, 0, {}]]]}, {"class_name": "Activation", "config": {"name": "activation_6", "trainable": true, "dtype": "float32", "activation": "relu"}, "name": "activation_6", "inbound_nodes": [[["sequential_5", 1, 0, {}]], [["add_1", 0, 0, {}]]]}, {"class_name": "TensorFlowOpLayer", "config": {"name": "strided_slice", "trainable": true, "dtype": "float32", "node_def": {"name": "strided_slice", "op": "StridedSlice", "input": ["ZerosLike", "strided_slice/begin", "strided_slice/end", "strided_slice/strides"], "attr": {"shrink_axis_mask": {"i": "0"}, "new_axis_mask": {"i": "0"}, "begin_mask": {"i": "2"}, "ellipsis_mask": {"i": "1"}, "T": {"type": "DT_FLOAT"}, "end_mask": {"i": "0"}, "Index": {"type": "DT_INT32"}}}, "constants": {"1": [0, 0], "2": [0, 48], "3": [1, 1]}}, "name": "tf_op_layer_strided_slice", "inbound_nodes": [[["tf_op_layer_ZerosLike", 0, 0, {}]]]}, {"class_name": "Sequential", "config": {"name": "sequential_6", "layers": [{"class_name": "InputLayer", "config": {"batch_input_shape": [null, 16, 16, 24], "dtype": "float32", "sparse": false, "ragged": false, "name": "separable_conv2d_6_input"}}, {"class_name": "SeparableConv2D", "config": {"name": "separable_conv2d_6", "trainable": true, "dtype": "float32", "filters": 96, "kernel_size": [5, 5], "strides": [1, 1], "padding": "same", "data_format": "channels_last", "dilation_rate": [1, 1], "groups": 1, "activation": "linear", "use_bias": true, "kernel_initializer": {"class_name": "GlorotUniform", "config": {"seed": null}}, "bias_initializer": {"class_name": "Zeros", "config": {}}, "kernel_regularizer": null, "bias_regularizer": null, "activity_regularizer": null, "kernel_constraint": null, "bias_constraint": null, "depth_multiplier": 1, "depthwise_initializer": {"class_name": "GlorotUniform", "config": {"seed": null}}, "pointwise_initializer": {"class_name": "GlorotUniform", "config": {"seed": null}}, "depthwise_regularizer": null, "pointwise_regularizer": null, "depthwise_constraint": null, "pointwise_constraint": null}}, {"class_name": "BatchNormalization", "config": {"name": "batch_normalization_7", "trainable": true, "dtype": "float32", "axis": [3], "momentum": 0.99, "epsilon": 0.001, "center": true, "scale": true, "beta_initializer": {"class_name": "Zeros", "config": {}}, "gamma_initializer": {"class_name": "Ones", "config": {}}, "moving_mean_initializer": {"class_name": "Zeros", "config": {}}, "moving_variance_initializer": {"class_name": "Ones", "config": {}}, "beta_regularizer": null, "gamma_regularizer": null, "beta_constraint": null, "gamma_constraint": null}}]}, "name": "sequential_6", "inbound_nodes": [[["activation_6", 0, 0, {}]]]}, {"class_name": "TensorFlowOpLayer", "config": {"name": "concat", "trainable": true, "dtype": "float32", "node_def": {"name": "concat", "op": "ConcatV2", "input": ["max_pooling2d_1/MaxPool", "strided_slice", "concat/axis"], "attr": {"T": {"type": "DT_FLOAT"}, "N": {"i": "2"}, "Tidx": {"type": "DT_INT32"}}}, "constants": {"2": -1}}, "name": "tf_op_layer_concat", "inbound_nodes": [[["max_pooling2d_1", 0, 0, {}], ["tf_op_layer_strided_slice", 0, 0, {}]]]}, {"class_name": "Add", "config": {"name": "add_1", "trainable": true, "dtype": "float32"}, "name": "add_1", "inbound_nodes": [[["sequential_6", 1, 0, {}], ["tf_op_layer_concat", 0, 0, {}]]]}, {"class_name": "Sequential", "config": {"name": "sequential_7", "layers": [{"class_name": "InputLayer", "config": {"batch_input_shape": [null, 16, 16, 96], "dtype": "float32", "sparse": false, "ragged": false, "name": "separable_conv2d_7_input"}}, {"class_name": "SeparableConv2D", "config": {"name": "separable_conv2d_7", "trainable": true, "dtype": "float32", "filters": 24, "kernel_size": [5, 5], "strides": [1, 1], "padding": "same", "data_format": "channels_last", "dilation_rate": [1, 1], "groups": 1, "activation": "linear", "use_bias": true, "kernel_initializer": {"class_name": "GlorotUniform", "config": {"seed": null}}, "bias_initializer": {"class_name": "Zeros", "config": {}}, "kernel_regularizer": null, "bias_regularizer": null, "activity_regularizer": null, "kernel_constraint": null, "bias_constraint": null, "depth_multiplier": 1, "depthwise_initializer": {"class_name": "GlorotUniform", "config": {"seed": null}}, "pointwise_initializer": {"class_name": "GlorotUniform", "config": {"seed": null}}, "depthwise_regularizer": null, "pointwise_regularizer": null, "depthwise_constraint": null, "pointwise_constraint": null}}, {"class_name": "BatchNormalization", "config": {"name": "batch_normalization_8", "trainable": true, "dtype": "float32", "axis": [3], "momentum": 0.99, "epsilon": 0.001, "center": true, "scale": true, "beta_initializer": {"class_name": "Zeros", "config": {}}, "gamma_initializer": {"class_name": "Ones", "config": {}}, "moving_mean_initializer": {"class_name": "Zeros", "config": {}}, "moving_variance_initializer": {"class_name": "Ones", "config": {}}, "beta_regularizer": null, "gamma_regularizer": null, "beta_constraint": null, "gamma_constraint": null}}]}, "name": "sequential_7", "inbound_nodes": [[["activation_6", 1, 0, {}]]]}, {"class_name": "Activation", "config": {"name": "activation_7", "trainable": true, "dtype": "float32", "activation": "relu"}, "name": "activation_7", "inbound_nodes": [[["sequential_7", 1, 0, {}]], [["sequential_8", 1, 0, {}]]]}, {"class_name": "Sequential", "config": {"name": "sequential_8", "layers": [{"class_name": "InputLayer", "config": {"batch_input_shape": [null, 16, 16, 24], "dtype": "float32", "sparse": false, "ragged": false, "name": "separable_conv2d_8_input"}}, {"class_name": "SeparableConv2D", "config": {"name": "separable_conv2d_8", "trainable": true, "dtype": "float32", "filters": 96, "kernel_size": [5, 5], "strides": [1, 1], "padding": "same", "data_format": "channels_last", "dilation_rate": [1, 1], "groups": 1, "activation": "linear", "use_bias": true, "kernel_initializer": {"class_name": "GlorotUniform", "config": {"seed": null}}, "bias_initializer": {"class_name": "Zeros", "config": {}}, "kernel_regularizer": null, "bias_regularizer": null, "activity_regularizer": null, "kernel_constraint": null, "bias_constraint": null, "depth_multiplier": 1, "depthwise_initializer": {"class_name": "GlorotUniform", "config": {"seed": null}}, "pointwise_initializer": {"class_name": "GlorotUniform", "config": {"seed": null}}, "depthwise_regularizer": null, "pointwise_regularizer": null, "depthwise_constraint": null, "pointwise_constraint": null}}, {"class_name": "BatchNormalization", "config": {"name": "batch_normalization_9", "trainable": true, "dtype": "float32", "axis": [3], "momentum": 0.99, "epsilon": 0.001, "center": true, "scale": true, "beta_initializer": {"class_name": "Zeros", "config": {}}, "gamma_initializer": {"class_name": "Ones", "config": {}}, "moving_mean_initializer": {"class_name": "Zeros", "config": {}}, "moving_variance_initializer": {"class_name": "Ones", "config": {}}, "beta_regularizer": null, "gamma_regularizer": null, "beta_constraint": null, "gamma_constraint": null}}]}, "name": "sequential_8", "inbound_nodes": [[["activation_7", 0, 0, {}]]]}, {"class_name": "Sequential", "config": {"name": "sequential_9", "layers": [{"class_name": "InputLayer", "config": {"batch_input_shape": [null, 16, 16, 96], "dtype": "float32", "sparse": false, "ragged": false, "name": "separable_conv2d_9_input"}}, {"class_name": "SeparableConv2D", "config": {"name": "separable_conv2d_9", "trainable": true, "dtype": "float32", "filters": 24, "kernel_size": [5, 5], "strides": [1, 1], "padding": "same", "data_format": "channels_last", "dilation_rate": [1, 1], "groups": 1, "activation": "linear", "use_bias": true, "kernel_initializer": {"class_name": "GlorotUniform", "config": {"seed": null}}, "bias_initializer": {"class_name": "Zeros", "config": {}}, "kernel_regularizer": null, "bias_regularizer": null, "activity_regularizer": null, "kernel_constraint": null, "bias_constraint": null, "depth_multiplier": 1, "depthwise_initializer": {"class_name": "GlorotUniform", "config": {"seed": null}}, "pointwise_initializer": {"class_name": "GlorotUniform", "config": {"seed": null}}, "depthwise_regularizer": null, "pointwise_regularizer": null, "depthwise_constraint": null, "pointwise_constraint": null}}, {"class_name": "BatchNormalization", "config": {"name": "batch_normalization_10", "trainable": true, "dtype": "float32", "axis": [3], "momentum": 0.99, "epsilon": 0.001, "center": true, "scale": true, "beta_initializer": {"class_name": "Zeros", "config": {}}, "gamma_initializer": {"class_name": "Ones", "config": {}}, "moving_mean_initializer": {"class_name": "Zeros", "config": {}}, "moving_variance_initializer": {"class_name": "Ones", "config": {}}, "beta_regularizer": null, "gamma_regularizer": null, "beta_constraint": null, "gamma_constraint": null}}]}, "name": "sequential_9", "inbound_nodes": [[["activation_7", 1, 0, {}]]]}, {"class_name": "Activation", "config": {"name": "activation_8", "trainable": true, "dtype": "float32", "activation": "relu"}, "name": "activation_8", "inbound_nodes": [[["sequential_9", 1, 0, {}]], [["sequential_10", 1, 0, {}]]]}, {"class_name": "Sequential", "config": {"name": "sequential_10", "layers": [{"class_name": "InputLayer", "config": {"batch_input_shape": [null, 16, 16, 24], "dtype": "float32", "sparse": false, "ragged": false, "name": "separable_conv2d_10_input"}}, {"class_name": "SeparableConv2D", "config": {"name": "separable_conv2d_10", "trainable": true, "dtype": "float32", "filters": 96, "kernel_size": [5, 5], "strides": [1, 1], "padding": "same", "data_format": "channels_last", "dilation_rate": [1, 1], "groups": 1, "activation": "linear", "use_bias": true, "kernel_initializer": {"class_name": "GlorotUniform", "config": {"seed": null}}, "bias_initializer": {"class_name": "Zeros", "config": {}}, "kernel_regularizer": null, "bias_regularizer": null, "activity_regularizer": null, "kernel_constraint": null, "bias_constraint": null, "depth_multiplier": 1, "depthwise_initializer": {"class_name": "GlorotUniform", "config": {"seed": null}}, "pointwise_initializer": {"class_name": "GlorotUniform", "config": {"seed": null}}, "depthwise_regularizer": null, "pointwise_regularizer": null, "depthwise_constraint": null, "pointwise_constraint": null}}, {"class_name": "BatchNormalization", "config": {"name": "batch_normalization_11", "trainable": true, "dtype": "float32", "axis": [3], "momentum": 0.99, "epsilon": 0.001, "center": true, "scale": true, "beta_initializer": {"class_name": "Zeros", "config": {}}, "gamma_initializer": {"class_name": "Ones", "config": {}}, "moving_mean_initializer": {"class_name": "Zeros", "config": {}}, "moving_variance_initializer": {"class_name": "Ones", "config": {}}, "beta_regularizer": null, "gamma_regularizer": null, "beta_constraint": null, "gamma_constraint": null}}]}, "name": "sequential_10", "inbound_nodes": [[["activation_8", 0, 0, {}]]]}, {"class_name": "Sequential", "config": {"name": "sequential_11", "layers": [{"class_name": "InputLayer", "config": {"batch_input_shape": [null, 16, 16, 96], "dtype": "float32", "sparse": false, "ragged": false, "name": "separable_conv2d_11_input"}}, {"class_name": "SeparableConv2D", "config": {"name": "separable_conv2d_11", "trainable": true, "dtype": "float32", "filters": 24, "kernel_size": [5, 5], "strides": [2, 2], "padding": "same", "data_format": "channels_last", "dilation_rate": [1, 1], "groups": 1, "activation": "linear", "use_bias": true, "kernel_initializer": {"class_name": "GlorotUniform", "config": {"seed": null}}, "bias_initializer": {"class_name": "Zeros", "config": {}}, "kernel_regularizer": null, "bias_regularizer": null, "activity_regularizer": null, "kernel_constraint": null, "bias_constraint": null, "depth_multiplier": 1, "depthwise_initializer": {"class_name": "GlorotUniform", "config": {"seed": null}}, "pointwise_initializer": {"class_name": "GlorotUniform", "config": {"seed": null}}, "depthwise_regularizer": null, "pointwise_regularizer": null, "depthwise_constraint": null, "pointwise_constraint": null}}, {"class_name": "BatchNormalization", "config": {"name": "batch_normalization_12", "trainable": true, "dtype": "float32", "axis": [3], "momentum": 0.99, "epsilon": 0.001, "center": true, "scale": true, "beta_initializer": {"class_name": "Zeros", "config": {}}, "gamma_initializer": {"class_name": "Ones", "config": {}}, "moving_mean_initializer": {"class_name": "Zeros", "config": {}}, "moving_variance_initializer": {"class_name": "Ones", "config": {}}, "beta_regularizer": null, "gamma_regularizer": null, "beta_constraint": null, "gamma_constraint": null}}]}, "name": "sequential_11", "inbound_nodes": [[["activation_8", 1, 0, {}]]]}, {"class_name": "Activation", "config": {"name": "activation_9", "trainable": true, "dtype": "float32", "activation": "relu"}, "name": "activation_9", "inbound_nodes": [[["sequential_11", 1, 0, {}]], [["add_2", 0, 0, {}]]]}, {"class_name": "Sequential", "config": {"name": "sequential_12", "layers": [{"class_name": "InputLayer", "config": {"batch_input_shape": [null, 8, 8, 24], "dtype": "float32", "sparse": false, "ragged": false, "name": "separable_conv2d_12_input"}}, {"class_name": "SeparableConv2D", "config": {"name": "separable_conv2d_12", "trainable": true, "dtype": "float32", "filters": 96, "kernel_size": [5, 5], "strides": [1, 1], "padding": "same", "data_format": "channels_last", "dilation_rate": [1, 1], "groups": 1, "activation": "linear", "use_bias": true, "kernel_initializer": {"class_name": "GlorotUniform", "config": {"seed": null}}, "bias_initializer": {"class_name": "Zeros", "config": {}}, "kernel_regularizer": null, "bias_regularizer": null, "activity_regularizer": null, "kernel_constraint": null, "bias_constraint": null, "depth_multiplier": 1, "depthwise_initializer": {"class_name": "GlorotUniform", "config": {"seed": null}}, "pointwise_initializer": {"class_name": "GlorotUniform", "config": {"seed": null}}, "depthwise_regularizer": null, "pointwise_regularizer": null, "depthwise_constraint": null, "pointwise_constraint": null}}, {"class_name": "BatchNormalization", "config": {"name": "batch_normalization_13", "trainable": true, "dtype": "float32", "axis": [3], "momentum": 0.99, "epsilon": 0.001, "center": true, "scale": true, "beta_initializer": {"class_name": "Zeros", "config": {}}, "gamma_initializer": {"class_name": "Ones", "config": {}}, "moving_mean_initializer": {"class_name": "Zeros", "config": {}}, "moving_variance_initializer": {"class_name": "Ones", "config": {}}, "beta_regularizer": null, "gamma_regularizer": null, "beta_constraint": null, "gamma_constraint": null}}]}, "name": "sequential_12", "inbound_nodes": [[["activation_9", 0, 0, {}]]]}, {"class_name": "MaxPooling2D", "config": {"name": "max_pooling2d_2", "trainable": true, "dtype": "float32", "pool_size": [2, 2], "padding": "valid", "strides": [2, 2], "data_format": "channels_last"}, "name": "max_pooling2d_2", "inbound_nodes": [[["activation_8", 1, 0, {}]]]}, {"class_name": "Add", "config": {"name": "add_2", "trainable": true, "dtype": "float32"}, "name": "add_2", "inbound_nodes": [[["sequential_12", 1, 0, {}], ["max_pooling2d_2", 0, 0, {}]]]}, {"class_name": "Sequential", "config": {"name": "sequential_13", "layers": [{"class_name": "InputLayer", "config": {"batch_input_shape": [null, 8, 8, 96], "dtype": "float32", "sparse": false, "ragged": false, "name": "separable_conv2d_13_input"}}, {"class_name": "SeparableConv2D", "config": {"name": "separable_conv2d_13", "trainable": true, "dtype": "float32", "filters": 24, "kernel_size": [5, 5], "strides": [1, 1], "padding": "same", "data_format": "channels_last", "dilation_rate": [1, 1], "groups": 1, "activation": "linear", "use_bias": true, "kernel_initializer": {"class_name": "GlorotUniform", "config": {"seed": null}}, "bias_initializer": {"class_name": "Zeros", "config": {}}, "kernel_regularizer": null, "bias_regularizer": null, "activity_regularizer": null, "kernel_constraint": null, "bias_constraint": null, "depth_multiplier": 1, "depthwise_initializer": {"class_name": "GlorotUniform", "config": {"seed": null}}, "pointwise_initializer": {"class_name": "GlorotUniform", "config": {"seed": null}}, "depthwise_regularizer": null, "pointwise_regularizer": null, "depthwise_constraint": null, "pointwise_constraint": null}}, {"class_name": "BatchNormalization", "config": {"name": "batch_normalization_14", "trainable": true, "dtype": "float32", "axis": [3], "momentum": 0.99, "epsilon": 0.001, "center": true, "scale": true, "beta_initializer": {"class_name": "Zeros", "config": {}}, "gamma_initializer": {"class_name": "Ones", "config": {}}, "moving_mean_initializer": {"class_name": "Zeros", "config": {}}, "moving_variance_initializer": {"class_name": "Ones", "config": {}}, "beta_regularizer": null, "gamma_regularizer": null, "beta_constraint": null, "gamma_constraint": null}}]}, "name": "sequential_13", "inbound_nodes": [[["activation_9", 1, 0, {}]]]}, {"class_name": "Activation", "config": {"name": "activation_10", "trainable": true, "dtype": "float32", "activation": "relu"}, "name": "activation_10", "inbound_nodes": [[["sequential_13", 1, 0, {}]], [["sequential_14", 1, 0, {}]]]}, {"class_name": "Sequential", "config": {"name": "sequential_14", "layers": [{"class_name": "InputLayer", "config": {"batch_input_shape": [null, 8, 8, 24], "dtype": "float32", "sparse": false, "ragged": false, "name": "separable_conv2d_14_input"}}, {"class_name": "SeparableConv2D", "config": {"name": "separable_conv2d_14", "trainable": true, "dtype": "float32", "filters": 96, "kernel_size": [5, 5], "strides": [1, 1], "padding": "same", "data_format": "channels_last", "dilation_rate": [1, 1], "groups": 1, "activation": "linear", "use_bias": true, "kernel_initializer": {"class_name": "GlorotUniform", "config": {"seed": null}}, "bias_initializer": {"class_name": "Zeros", "config": {}}, "kernel_regularizer": null, "bias_regularizer": null, "activity_regularizer": null, "kernel_constraint": null, "bias_constraint": null, "depth_multiplier": 1, "depthwise_initializer": {"class_name": "GlorotUniform", "config": {"seed": null}}, "pointwise_initializer": {"class_name": "GlorotUniform", "config": {"seed": null}}, "depthwise_regularizer": null, "pointwise_regularizer": null, "depthwise_constraint": null, "pointwise_constraint": null}}, {"class_name": "BatchNormalization", "config": {"name": "batch_normalization_15", "trainable": true, "dtype": "float32", "axis": [3], "momentum": 0.99, "epsilon": 0.001, "center": true, "scale": true, "beta_initializer": {"class_name": "Zeros", "config": {}}, "gamma_initializer": {"class_name": "Ones", "config": {}}, "moving_mean_initializer": {"class_name": "Zeros", "config": {}}, "moving_variance_initializer": {"class_name": "Ones", "config": {}}, "beta_regularizer": null, "gamma_regularizer": null, "beta_constraint": null, "gamma_constraint": null}}]}, "name": "sequential_14", "inbound_nodes": [[["activation_10", 0, 0, {}]]]}, {"class_name": "Sequential", "config": {"name": "sequential_15", "layers": [{"class_name": "InputLayer", "config": {"batch_input_shape": [null, 8, 8, 96], "dtype": "float32", "sparse": false, "ragged": false, "name": "separable_conv2d_15_input"}}, {"class_name": "SeparableConv2D", "config": {"name": "separable_conv2d_15", "trainable": true, "dtype": "float32", "filters": 24, "kernel_size": [5, 5], "strides": [1, 1], "padding": "same", "data_format": "channels_last", "dilation_rate": [1, 1], "groups": 1, "activation": "linear", "use_bias": true, "kernel_initializer": {"class_name": "GlorotUniform", "config": {"seed": null}}, "bias_initializer": {"class_name": "Zeros", "config": {}}, "kernel_regularizer": null, "bias_regularizer": null, "activity_regularizer": null, "kernel_constraint": null, "bias_constraint": null, "depth_multiplier": 1, "depthwise_initializer": {"class_name": "GlorotUniform", "config": {"seed": null}}, "pointwise_initializer": {"class_name": "GlorotUniform", "config": {"seed": null}}, "depthwise_regularizer": null, "pointwise_regularizer": null, "depthwise_constraint": null, "pointwise_constraint": null}}, {"class_name": "BatchNormalization", "config": {"name": "batch_normalization_16", "trainable": true, "dtype": "float32", "axis": [3], "momentum": 0.99, "epsilon": 0.001, "center": true, "scale": true, "beta_initializer": {"class_name": "Zeros", "config": {}}, "gamma_initializer": {"class_name": "Ones", "config": {}}, "moving_mean_initializer": {"class_name": "Zeros", "config": {}}, "moving_variance_initializer": {"class_name": "Ones", "config": {}}, "beta_regularizer": null, "gamma_regularizer": null, "beta_constraint": null, "gamma_constraint": null}}]}, "name": "sequential_15", "inbound_nodes": [[["activation_10", 1, 0, {}]]]}, {"class_name": "Activation", "config": {"name": "activation_11", "trainable": true, "dtype": "float32", "activation": "relu"}, "name": "activation_11", "inbound_nodes": [[["sequential_15", 1, 0, {}]], [["sequential_16", 1, 0, {}]]]}, {"class_name": "Sequential", "config": {"name": "sequential_16", "layers": [{"class_name": "InputLayer", "config": {"batch_input_shape": [null, 8, 8, 24], "dtype": "float32", "sparse": false, "ragged": false, "name": "separable_conv2d_16_input"}}, {"class_name": "SeparableConv2D", "config": {"name": "separable_conv2d_16", "trainable": true, "dtype": "float32", "filters": 96, "kernel_size": [5, 5], "strides": [1, 1], "padding": "same", "data_format": "channels_last", "dilation_rate": [1, 1], "groups": 1, "activation": "linear", "use_bias": true, "kernel_initializer": {"class_name": "GlorotUniform", "config": {"seed": null}}, "bias_initializer": {"class_name": "Zeros", "config": {}}, "kernel_regularizer": null, "bias_regularizer": null, "activity_regularizer": null, "kernel_constraint": null, "bias_constraint": null, "depth_multiplier": 1, "depthwise_initializer": {"class_name": "GlorotUniform", "config": {"seed": null}}, "pointwise_initializer": {"class_name": "GlorotUniform", "config": {"seed": null}}, "depthwise_regularizer": null, "pointwise_regularizer": null, "depthwise_constraint": null, "pointwise_constraint": null}}, {"class_name": "BatchNormalization", "config": {"name": "batch_normalization_17", "trainable": true, "dtype": "float32", "axis": [3], "momentum": 0.99, "epsilon": 0.001, "center": true, "scale": true, "beta_initializer": {"class_name": "Zeros", "config": {}}, "gamma_initializer": {"class_name": "Ones", "config": {}}, "moving_mean_initializer": {"class_name": "Zeros", "config": {}}, "moving_variance_initializer": {"class_name": "Ones", "config": {}}, "beta_regularizer": null, "gamma_regularizer": null, "beta_constraint": null, "gamma_constraint": null}}]}, "name": "sequential_16", "inbound_nodes": [[["activation_11", 0, 0, {}]]]}, {"class_name": "Conv2D", "config": {"name": "conv2d_1", "trainable": true, "dtype": "float32", "filters": 2, "kernel_size": [3, 3], "strides": [1, 1], "padding": "same", "data_format": "channels_last", "dilation_rate": [1, 1], "groups": 1, "activation": "sigmoid", "use_bias": true, "kernel_initializer": {"class_name": "GlorotUniform", "config": {"seed": null}}, "bias_initializer": {"class_name": "Zeros", "config": {}}, "kernel_regularizer": null, "bias_regularizer": null, "activity_regularizer": null, "kernel_constraint": null, "bias_constraint": null}, "name": "conv2d_1", "inbound_nodes": [[["activation_8", 1, 0, {}]]]}, {"class_name": "Conv2D", "config": {"name": "conv2d_2", "trainable": true, "dtype": "float32", "filters": 6, "kernel_size": [3, 3], "strides": [1, 1], "padding": "same", "data_format": "channels_last", "dilation_rate": [1, 1], "groups": 1, "activation": "sigmoid", "use_bias": true, "kernel_initializer": {"class_name": "GlorotUniform", "config": {"seed": null}}, "bias_initializer": {"class_name": "Zeros", "config": {}}, "kernel_regularizer": null, "bias_regularizer": null, "activity_regularizer": null, "kernel_constraint": null, "bias_constraint": null}, "name": "conv2d_2", "inbound_nodes": [[["activation_11", 1, 0, {}]]]}, {"class_name": "Conv2D", "config": {"name": "conv2d_3", "trainable": true, "dtype": "float32", "filters": 8, "kernel_size": [3, 3], "strides": [1, 1], "padding": "same", "data_format": "channels_last", "dilation_rate": [1, 1], "groups": 1, "activation": "linear", "use_bias": true, "kernel_initializer": {"class_name": "GlorotUniform", "config": {"seed": null}}, "bias_initializer": {"class_name": "Zeros", "config": {}}, "kernel_regularizer": null, "bias_regularizer": null, "activity_regularizer": null, "kernel_constraint": null, "bias_constraint": null}, "name": "conv2d_3", "inbound_nodes": [[["activation_8", 1, 0, {}]]]}, {"class_name": "Conv2D", "config": {"name": "conv2d_4", "trainable": true, "dtype": "float32", "filters": 24, "kernel_size": [3, 3], "strides": [1, 1], "padding": "same", "data_format": "channels_last", "dilation_rate": [1, 1], "groups": 1, "activation": "linear", "use_bias": true, "kernel_initializer": {"class_name": "GlorotUniform", "config": {"seed": null}}, "bias_initializer": {"class_name": "Zeros", "config": {}}, "kernel_regularizer": null, "bias_regularizer": null, "activity_regularizer": null, "kernel_constraint": null, "bias_constraint": null}, "name": "conv2d_4", "inbound_nodes": [[["activation_11", 1, 0, {}]]]}, {"class_name": "Reshape", "config": {"name": "reshape", "trainable": true, "dtype": "float32", "target_shape": [512, 1]}, "name": "reshape", "inbound_nodes": [[["conv2d_1", 0, 0, {}]]]}, {"class_name": "Reshape", "config": {"name": "reshape_1", "trainable": true, "dtype": "float32", "target_shape": [384, 1]}, "name": "reshape_1", "inbound_nodes": [[["conv2d_2", 0, 0, {}]]]}, {"class_name": "Reshape", "config": {"name": "reshape_2", "trainable": true, "dtype": "float32", "target_shape": [512, 4]}, "name": "reshape_2", "inbound_nodes": [[["conv2d_3", 0, 0, {}]]]}, {"class_name": "Reshape", "config": {"name": "reshape_3", "trainable": true, "dtype": "float32", "target_shape": [384, 4]}, "name": "reshape_3", "inbound_nodes": [[["conv2d_4", 0, 0, {}]]]}, {"class_name": "TensorFlowOpLayer", "config": {"name": "concat_1", "trainable": true, "dtype": "float32", "node_def": {"name": "concat_1", "op": "ConcatV2", "input": ["reshape/Reshape", "reshape_1/Reshape", "concat_1/axis"], "attr": {"Tidx": {"type": "DT_INT32"}, "N": {"i": "2"}, "T": {"type": "DT_FLOAT"}}}, "constants": {"2": 1}}, "name": "tf_op_layer_concat_1", "inbound_nodes": [[["reshape", 0, 0, {}], ["reshape_1", 0, 0, {}]]]}, {"class_name": "TensorFlowOpLayer", "config": {"name": "concat_2", "trainable": true, "dtype": "float32", "node_def": {"name": "concat_2", "op": "ConcatV2", "input": ["reshape_2/Reshape", "reshape_3/Reshape", "concat_2/axis"], "attr": {"Tidx": {"type": "DT_INT32"}, "T": {"type": "DT_FLOAT"}, "N": {"i": "2"}}}, "constants": {"2": 1}}, "name": "tf_op_layer_concat_2", "inbound_nodes": [[["reshape_2", 0, 0, {}], ["reshape_3", 0, 0, {}]]]}, {"class_name": "TensorFlowOpLayer", "config": {"name": "concat_3", "trainable": true, "dtype": "float32", "node_def": {"name": "concat_3", "op": "ConcatV2", "input": ["concat_1", "concat_2", "concat_3/axis"], "attr": {"T": {"type": "DT_FLOAT"}, "N": {"i": "2"}, "Tidx": {"type": "DT_INT32"}}}, "constants": {"2": -1}}, "name": "tf_op_layer_concat_3", "inbound_nodes": [[["tf_op_layer_concat_1", 0, 0, {}], ["tf_op_layer_concat_2", 0, 0, {}]]]}], "input_layers": [["input_1", 0, 0]], "output_layers": [["tf_op_layer_concat_3", 0, 0]]}}}, "weightsManifest": [{"paths": ["group1-shard1of1.bin"], "weights": [{"name": "batch_normalization/gamma", "shape": [24], "dtype": "float32"}, {"name": "batch_normalization/beta", "shape": [24], "dtype": "float32"}, {"name": "batch_normalization/moving_mean", "shape": [24], "dtype": "float32"}, {"name": "batch_normalization/moving_variance", "shape": [24], "dtype": "float32"}, {"name": "conv2d/kernel", "shape": [5, 5, 3, 24], "dtype": "float32"}, {"name": "conv2d/bias", "shape": [24], "dtype": "float32"}, {"name": "conv2d_1/kernel", "shape": [3, 3, 96, 2], "dtype": "float32"}, {"name": "conv2d_1/bias", "shape": [2], "dtype": "float32"}, {"name": "conv2d_2/kernel", "shape": [3, 3, 96, 6], "dtype": "float32"}, {"name": "conv2d_2/bias", "shape": [6], "dtype": "float32"}, {"name": "conv2d_3/kernel", "shape": [3, 3, 96, 8], "dtype": "float32"}, {"name": "conv2d_3/bias", "shape": [8], "dtype": "float32"}, {"name": "conv2d_4/kernel", "shape": [3, 3, 96, 24], "dtype": "float32"}, {"name": "conv2d_4/bias", "shape": [24], "dtype": "float32"}, {"name": "separable_conv2d/depthwise_kernel", "shape": [5, 5, 24, 1], "dtype": "float32"}, {"name": "separable_conv2d/pointwise_kernel", "shape": [1, 1, 24, 24], "dtype": "float32"}, {"name": "separable_conv2d/bias", "shape": [24], "dtype": "float32"}, {"name": "batch_normalization_1/gamma", "shape": [24], "dtype": "float32"}, {"name": "batch_normalization_1/beta", "shape": [24], "dtype": "float32"}, {"name": "batch_normalization_1/moving_mean", "shape": [24], "dtype": "float32"}, {"name": "batch_normalization_1/moving_variance", "shape": [24], "dtype": "float32"}, {"name": "separable_conv2d_1/depthwise_kernel", "shape": [5, 5, 24, 1], "dtype": "float32"}, {"name": "separable_conv2d_1/pointwise_kernel", "shape": [1, 1, 24, 24], "dtype": "float32"}, {"name": "separable_conv2d_1/bias", "shape": [24], "dtype": "float32"}, {"name": "batch_normalization_2/gamma", "shape": [24], "dtype": "float32"}, {"name": "batch_normalization_2/beta", "shape": [24], "dtype": "float32"}, {"name": "batch_normalization_2/moving_mean", "shape": [24], "dtype": "float32"}, {"name": "batch_normalization_2/moving_variance", "shape": [24], "dtype": "float32"}, {"name": "separable_conv2d_10/depthwise_kernel", "shape": [5, 5, 24, 1], "dtype": "float32"}, {"name": "separable_conv2d_10/pointwise_kernel", "shape": [1, 1, 24, 96], "dtype": "float32"}, {"name": "separable_conv2d_10/bias", "shape": [96], "dtype": "float32"}, {"name": "batch_normalization_11/gamma", "shape": [96], "dtype": "float32"}, {"name": "batch_normalization_11/beta", "shape": [96], "dtype": "float32"}, {"name": "batch_normalization_11/moving_mean", "shape": [96], "dtype": "float32"}, {"name": "batch_normalization_11/moving_variance", "shape": [96], "dtype": "float32"}, {"name": "separable_conv2d_11/depthwise_kernel", "shape": [5, 5, 96, 1], "dtype": "float32"}, {"name": "separable_conv2d_11/pointwise_kernel", "shape": [1, 1, 96, 24], "dtype": "float32"}, {"name": "separable_conv2d_11/bias", "shape": [24], "dtype": "float32"}, {"name": "batch_normalization_12/gamma", "shape": [24], "dtype": "float32"}, {"name": "batch_normalization_12/beta", "shape": [24], "dtype": "float32"}, {"name": "batch_normalization_12/moving_mean", "shape": [24], "dtype": "float32"}, {"name": "batch_normalization_12/moving_variance", "shape": [24], "dtype": "float32"}, {"name": "separable_conv2d_12/depthwise_kernel", "shape": [5, 5, 24, 1], "dtype": "float32"}, {"name": "separable_conv2d_12/pointwise_kernel", "shape": [1, 1, 24, 96], "dtype": "float32"}, {"name": "separable_conv2d_12/bias", "shape": [96], "dtype": "float32"}, {"name": "batch_normalization_13/gamma", "shape": [96], "dtype": "float32"}, {"name": "batch_normalization_13/beta", "shape": [96], "dtype": "float32"}, {"name": "batch_normalization_13/moving_mean", "shape": [96], "dtype": "float32"}, {"name": "batch_normalization_13/moving_variance", "shape": [96], "dtype": "float32"}, {"name": "separable_conv2d_13/depthwise_kernel", "shape": [5, 5, 96, 1], "dtype": "float32"}, {"name": "separable_conv2d_13/pointwise_kernel", "shape": [1, 1, 96, 24], "dtype": "float32"}, {"name": "separable_conv2d_13/bias", "shape": [24], "dtype": "float32"}, {"name": "batch_normalization_14/gamma", "shape": [24], "dtype": "float32"}, {"name": "batch_normalization_14/beta", "shape": [24], "dtype": "float32"}, {"name": "batch_normalization_14/moving_mean", "shape": [24], "dtype": "float32"}, {"name": "batch_normalization_14/moving_variance", "shape": [24], "dtype": "float32"}, {"name": "separable_conv2d_14/depthwise_kernel", "shape": [5, 5, 24, 1], "dtype": "float32"}, {"name": "separable_conv2d_14/pointwise_kernel", "shape": [1, 1, 24, 96], "dtype": "float32"}, {"name": "separable_conv2d_14/bias", "shape": [96], "dtype": "float32"}, {"name": "batch_normalization_15/gamma", "shape": [96], "dtype": "float32"}, {"name": "batch_normalization_15/beta", "shape": [96], "dtype": "float32"}, {"name": "batch_normalization_15/moving_mean", "shape": [96], "dtype": "float32"}, {"name": "batch_normalization_15/moving_variance", "shape": [96], "dtype": "float32"}, {"name": "separable_conv2d_15/depthwise_kernel", "shape": [5, 5, 96, 1], "dtype": "float32"}, {"name": "separable_conv2d_15/pointwise_kernel", "shape": [1, 1, 96, 24], "dtype": "float32"}, {"name": "separable_conv2d_15/bias", "shape": [24], "dtype": "float32"}, {"name": "batch_normalization_16/gamma", "shape": [24], "dtype": "float32"}, {"name": "batch_normalization_16/beta", "shape": [24], "dtype": "float32"}, {"name": "batch_normalization_16/moving_mean", "shape": [24], "dtype": "float32"}, {"name": "batch_normalization_16/moving_variance", "shape": [24], "dtype": "float32"}, {"name": "separable_conv2d_16/depthwise_kernel", "shape": [5, 5, 24, 1], "dtype": "float32"}, {"name": "separable_conv2d_16/pointwise_kernel", "shape": [1, 1, 24, 96], "dtype": "float32"}, {"name": "separable_conv2d_16/bias", "shape": [96], "dtype": "float32"}, {"name": "batch_normalization_17/gamma", "shape": [96], "dtype": "float32"}, {"name": "batch_normalization_17/beta", "shape": [96], "dtype": "float32"}, {"name": "batch_normalization_17/moving_mean", "shape": [96], "dtype": "float32"}, {"name": "batch_normalization_17/moving_variance", "shape": [96], "dtype": "float32"}, {"name": "separable_conv2d_2/depthwise_kernel", "shape": [5, 5, 24, 1], "dtype": "float32"}, {"name": "separable_conv2d_2/pointwise_kernel", "shape": [1, 1, 24, 24], "dtype": "float32"}, {"name": "separable_conv2d_2/bias", "shape": [24], "dtype": "float32"}, {"name": "batch_normalization_3/gamma", "shape": [24], "dtype": "float32"}, {"name": "batch_normalization_3/beta", "shape": [24], "dtype": "float32"}, {"name": "batch_normalization_3/moving_mean", "shape": [24], "dtype": "float32"}, {"name": "batch_normalization_3/moving_variance", "shape": [24], "dtype": "float32"}, {"name": "separable_conv2d_3/depthwise_kernel", "shape": [5, 5, 24, 1], "dtype": "float32"}, {"name": "separable_conv2d_3/pointwise_kernel", "shape": [1, 1, 24, 48], "dtype": "float32"}, {"name": "separable_conv2d_3/bias", "shape": [48], "dtype": "float32"}, {"name": "batch_normalization_4/gamma", "shape": [48], "dtype": "float32"}, {"name": "batch_normalization_4/beta", "shape": [48], "dtype": "float32"}, {"name": "batch_normalization_4/moving_mean", "shape": [48], "dtype": "float32"}, {"name": "batch_normalization_4/moving_variance", "shape": [48], "dtype": "float32"}, {"name": "separable_conv2d_4/depthwise_kernel", "shape": [5, 5, 48, 1], "dtype": "float32"}, {"name": "separable_conv2d_4/pointwise_kernel", "shape": [1, 1, 48, 48], "dtype": "float32"}, {"name": "separable_conv2d_4/bias", "shape": [48], "dtype": "float32"}, {"name": "batch_normalization_5/gamma", "shape": [48], "dtype": "float32"}, {"name": "batch_normalization_5/beta", "shape": [48], "dtype": "float32"}, {"name": "batch_normalization_5/moving_mean", "shape": [48], "dtype": "float32"}, {"name": "batch_normalization_5/moving_variance", "shape": [48], "dtype": "float32"}, {"name": "separable_conv2d_5/depthwise_kernel", "shape": [5, 5, 48, 1], "dtype": "float32"}, {"name": "separable_conv2d_5/pointwise_kernel", "shape": [1, 1, 48, 24], "dtype": "float32"}, {"name": "separable_conv2d_5/bias", "shape": [24], "dtype": "float32"}, {"name": "batch_normalization_6/gamma", "shape": [24], "dtype": "float32"}, {"name": "batch_normalization_6/beta", "shape": [24], "dtype": "float32"}, {"name": "batch_normalization_6/moving_mean", "shape": [24], "dtype": "float32"}, {"name": "batch_normalization_6/moving_variance", "shape": [24], "dtype": "float32"}, {"name": "separable_conv2d_6/depthwise_kernel", "shape": [5, 5, 24, 1], "dtype": "float32"}, {"name": "separable_conv2d_6/pointwise_kernel", "shape": [1, 1, 24, 96], "dtype": "float32"}, {"name": "separable_conv2d_6/bias", "shape": [96], "dtype": "float32"}, {"name": "batch_normalization_7/gamma", "shape": [96], "dtype": "float32"}, {"name": "batch_normalization_7/beta", "shape": [96], "dtype": "float32"}, {"name": "batch_normalization_7/moving_mean", "shape": [96], "dtype": "float32"}, {"name": "batch_normalization_7/moving_variance", "shape": [96], "dtype": "float32"}, {"name": "separable_conv2d_7/depthwise_kernel", "shape": [5, 5, 96, 1], "dtype": "float32"}, {"name": "separable_conv2d_7/pointwise_kernel", "shape": [1, 1, 96, 24], "dtype": "float32"}, {"name": "separable_conv2d_7/bias", "shape": [24], "dtype": "float32"}, {"name": "batch_normalization_8/gamma", "shape": [24], "dtype": "float32"}, {"name": "batch_normalization_8/beta", "shape": [24], "dtype": "float32"}, {"name": "batch_normalization_8/moving_mean", "shape": [24], "dtype": "float32"}, {"name": "batch_normalization_8/moving_variance", "shape": [24], "dtype": "float32"}, {"name": "separable_conv2d_8/depthwise_kernel", "shape": [5, 5, 24, 1], "dtype": "float32"}, {"name": "separable_conv2d_8/pointwise_kernel", "shape": [1, 1, 24, 96], "dtype": "float32"}, {"name": "separable_conv2d_8/bias", "shape": [96], "dtype": "float32"}, {"name": "batch_normalization_9/gamma", "shape": [96], "dtype": "float32"}, {"name": "batch_normalization_9/beta", "shape": [96], "dtype": "float32"}, {"name": "batch_normalization_9/moving_mean", "shape": [96], "dtype": "float32"}, {"name": "batch_normalization_9/moving_variance", "shape": [96], "dtype": "float32"}, {"name": "separable_conv2d_9/depthwise_kernel", "shape": [5, 5, 96, 1], "dtype": "float32"}, {"name": "separable_conv2d_9/pointwise_kernel", "shape": [1, 1, 96, 24], "dtype": "float32"}, {"name": "separable_conv2d_9/bias", "shape": [24], "dtype": "float32"}, {"name": "batch_normalization_10/gamma", "shape": [24], "dtype": "float32"}, {"name": "batch_normalization_10/beta", "shape": [24], "dtype": "float32"}, {"name": "batch_normalization_10/moving_mean", "shape": [24], "dtype": "float32"}, {"name": "batch_normalization_10/moving_variance", "shape": [24], "dtype": "float32"}]}]}