{"format": "graph-model", "generatedBy": "2.3.0", "convertedBy": "TensorFlow.js Converter v2.3.0", "userDefinedMetadata": {"signature": {"inputs": {"input_1:0": {"name": "input_1:0", "dtype": "DT_FLOAT", "tensorShape": {"dim": [{"size": "-1"}, {"size": "128"}, {"size": "128"}, {"size": "3"}]}}}, "outputs": {"Identity:0": {"name": "Identity:0", "dtype": "DT_FLOAT", "tensorShape": {"dim": [{"size": "-1"}, {"size": "896"}, {"size": "5"}]}}}}}, "modelTopology": {"node": [{"name": "unknown_130", "op": "Const", "attr": {"dtype": {"type": "DT_FLOAT"}, "value": {"tensor": {"dtype": "DT_FLOAT", "tensorShape": {"dim": [{"size": "3"}, {"size": "3"}, {"size": "96"}, {"size": "2"}]}}}}}, {"name": "unknown_131", "op": "Const", "attr": {"dtype": {"type": "DT_FLOAT"}, "value": {"tensor": {"dtype": "DT_FLOAT", "tensorShape": {"dim": [{"size": "2"}]}}}}}, {"name": "StatefulPartitionedCall/functional_3/reshape/strided_slice/stack", "op": "Const", "attr": {"value": {"tensor": {"dtype": "DT_INT32", "tensorShape": {"dim": [{"size": "1"}]}}}, "dtype": {"type": "DT_INT32"}}}, {"name": "StatefulPartitionedCall/functional_3/reshape/strided_slice/stack_1", "op": "Const", "attr": {"dtype": {"type": "DT_INT32"}, "value": {"tensor": {"dtype": "DT_INT32", "tensorShape": {"dim": [{"size": "1"}]}}}}}, {"name": "StatefulPartitionedCall/functional_3/reshape/strided_slice/stack_2", "op": "Const", "attr": {"dtype": {"type": "DT_INT32"}, "value": {"tensor": {"dtype": "DT_INT32", "tensorShape": {"dim": [{"size": "1"}]}}}}}, {"name": "StatefulPartitionedCall/functional_3/reshape/Reshape/shape/1", "op": "Const", "attr": {"dtype": {"type": "DT_INT32"}, "value": {"tensor": {"dtype": "DT_INT32", "tensorShape": {}}}}}, {"name": "StatefulPartitionedCall/functional_3/reshape/Reshape/shape/2", "op": "Const", "attr": {"value": {"tensor": {"dtype": "DT_INT32", "tensorShape": {}}}, "dtype": {"type": "DT_INT32"}}}, {"name": "unknown_128", "op": "Const", "attr": {"dtype": {"type": "DT_FLOAT"}, "value": {"tensor": {"dtype": "DT_FLOAT", "tensorShape": {"dim": [{"size": "3"}, {"size": "3"}, {"size": "96"}, {"size": "6"}]}}}}}, {"name": "unknown_129", "op": "Const", "attr": {"value": {"tensor": {"dtype": "DT_FLOAT", "tensorShape": {"dim": [{"size": "6"}]}}}, "dtype": {"type": "DT_FLOAT"}}}, {"name": "StatefulPartitionedCall/functional_3/reshape_1/strided_slice/stack", "op": "Const", "attr": {"dtype": {"type": "DT_INT32"}, "value": {"tensor": {"dtype": "DT_INT32", "tensorShape": {"dim": [{"size": "1"}]}}}}}, {"name": "StatefulPartitionedCall/functional_3/reshape_1/strided_slice/stack_1", "op": "Const", "attr": {"value": {"tensor": {"dtype": "DT_INT32", "tensorShape": {"dim": [{"size": "1"}]}}}, "dtype": {"type": "DT_INT32"}}}, {"name": "StatefulPartitionedCall/functional_3/reshape_1/strided_slice/stack_2", "op": "Const", "attr": {"dtype": {"type": "DT_INT32"}, "value": {"tensor": {"dtype": "DT_INT32", "tensorShape": {"dim": [{"size": "1"}]}}}}}, {"name": "StatefulPartitionedCall/functional_3/reshape_1/Reshape/shape/1", "op": "Const", "attr": {"dtype": {"type": "DT_INT32"}, "value": {"tensor": {"dtype": "DT_INT32", "tensorShape": {}}}}}, {"name": "StatefulPartitionedCall/functional_3/reshape_1/Reshape/shape/2", "op": "Const", "attr": {"dtype": {"type": "DT_INT32"}, "value": {"tensor": {"dtype": "DT_INT32", "tensorShape": {}}}}}, {"name": "StatefulPartitionedCall/functional_3/tf_op_layer_concat_1/concat_1/axis", "op": "Const", "attr": {"dtype": {"type": "DT_INT32"}, "value": {"tensor": {"dtype": "DT_INT32", "tensorShape": {}}}}}, {"name": "unknown_126", "op": "Const", "attr": {"dtype": {"type": "DT_FLOAT"}, "value": {"tensor": {"dtype": "DT_FLOAT", "tensorShape": {"dim": [{"size": "3"}, {"size": "3"}, {"size": "96"}, {"size": "8"}]}}}}}, {"name": "unknown_127", "op": "Const", "attr": {"value": {"tensor": {"dtype": "DT_FLOAT", "tensorShape": {"dim": [{"size": "8"}]}}}, "dtype": {"type": "DT_FLOAT"}}}, {"name": "StatefulPartitionedCall/functional_3/reshape_2/strided_slice/stack", "op": "Const", "attr": {"value": {"tensor": {"dtype": "DT_INT32", "tensorShape": {"dim": [{"size": "1"}]}}}, "dtype": {"type": "DT_INT32"}}}, {"name": "StatefulPartitionedCall/functional_3/reshape_2/strided_slice/stack_1", "op": "Const", "attr": {"value": {"tensor": {"dtype": "DT_INT32", "tensorShape": {"dim": [{"size": "1"}]}}}, "dtype": {"type": "DT_INT32"}}}, {"name": "StatefulPartitionedCall/functional_3/reshape_2/strided_slice/stack_2", "op": "Const", "attr": {"value": {"tensor": {"dtype": "DT_INT32", "tensorShape": {"dim": [{"size": "1"}]}}}, "dtype": {"type": "DT_INT32"}}}, {"name": "StatefulPartitionedCall/functional_3/reshape_2/Reshape/shape/1", "op": "Const", "attr": {"dtype": {"type": "DT_INT32"}, "value": {"tensor": {"dtype": "DT_INT32", "tensorShape": {}}}}}, {"name": "StatefulPartitionedCall/functional_3/reshape_2/Reshape/shape/2", "op": "Const", "attr": {"value": {"tensor": {"dtype": "DT_INT32", "tensorShape": {}}}, "dtype": {"type": "DT_INT32"}}}, {"name": "unknown_82", "op": "Const", "attr": {"dtype": {"type": "DT_FLOAT"}, "value": {"tensor": {"dtype": "DT_FLOAT", "tensorShape": {"dim": [{"size": "5"}, {"size": "5"}, {"size": "96"}, {"size": "1"}]}}}}}, {"name": "unknown_89", "op": "Const", "attr": {"value": {"tensor": {"dtype": "DT_FLOAT", "tensorShape": {"dim": [{"size": "5"}, {"size": "5"}, {"size": "24"}, {"size": "1"}]}}}, "dtype": {"type": "DT_FLOAT"}}}, {"name": "unknown_40", "op": "Const", "attr": {"dtype": {"type": "DT_FLOAT"}, "value": {"tensor": {"dtype": "DT_FLOAT", "tensorShape": {"dim": [{"size": "5"}, {"size": "5"}, {"size": "48"}, {"size": "1"}]}}}}}, {"name": "unknown_47", "op": "Const", "attr": {"value": {"tensor": {"dtype": "DT_FLOAT", "tensorShape": {"dim": [{"size": "5"}, {"size": "5"}, {"size": "24"}, {"size": "1"}]}}}, "dtype": {"type": "DT_FLOAT"}}}, {"name": "unknown_19", "op": "Const", "attr": {"value": {"tensor": {"dtype": "DT_FLOAT", "tensorShape": {"dim": [{"size": "5"}, {"size": "5"}, {"size": "24"}, {"size": "1"}]}}}, "dtype": {"type": "DT_FLOAT"}}}, {"name": "unknown_5", "op": "Const", "attr": {"dtype": {"type": "DT_FLOAT"}, "value": {"tensor": {"dtype": "DT_FLOAT", "tensorShape": {"dim": [{"size": "5"}, {"size": "5"}, {"size": "24"}, {"size": "1"}]}}}}}, {"name": "unknown_12", "op": "Const", "attr": {"dtype": {"type": "DT_FLOAT"}, "value": {"tensor": {"dtype": "DT_FLOAT", "tensorShape": {"dim": [{"size": "5"}, {"size": "5"}, {"size": "24"}, {"size": "1"}]}}}}}, {"name": "unknown_26", "op": "Const", "attr": {"value": {"tensor": {"dtype": "DT_FLOAT", "tensorShape": {"dim": [{"size": "5"}, {"size": "5"}, {"size": "24"}, {"size": "1"}]}}}, "dtype": {"type": "DT_FLOAT"}}}, {"name": "unknown_33", "op": "Const", "attr": {"value": {"tensor": {"dtype": "DT_FLOAT", "tensorShape": {"dim": [{"size": "5"}, {"size": "5"}, {"size": "48"}, {"size": "1"}]}}}, "dtype": {"type": "DT_FLOAT"}}}, {"name": "StatefulPartitionedCall/functional_3/tf_op_layer_strided_slice/strided_slice/begin", "op": "Const", "attr": {"value": {"tensor": {"dtype": "DT_INT32", "tensorShape": {"dim": [{"size": "2"}]}}}, "dtype": {"type": "DT_INT32"}}}, {"name": "StatefulPartitionedCall/functional_3/tf_op_layer_strided_slice/strided_slice/end", "op": "Const", "attr": {"value": {"tensor": {"dtype": "DT_INT32", "tensorShape": {"dim": [{"size": "2"}]}}}, "dtype": {"type": "DT_INT32"}}}, {"name": "StatefulPartitionedCall/functional_3/tf_op_layer_strided_slice/strided_slice/strides", "op": "Const", "attr": {"value": {"tensor": {"dtype": "DT_INT32", "tensorShape": {"dim": [{"size": "2"}]}}}, "dtype": {"type": "DT_INT32"}}}, {"name": "StatefulPartitionedCall/functional_3/tf_op_layer_concat/concat/axis", "op": "Const", "attr": {"dtype": {"type": "DT_INT32"}, "value": {"tensor": {"dtype": "DT_INT32", "tensorShape": {}}}}}, {"name": "unknown_54", "op": "Const", "attr": {"value": {"tensor": {"dtype": "DT_FLOAT", "tensorShape": {"dim": [{"size": "5"}, {"size": "5"}, {"size": "96"}, {"size": "1"}]}}}, "dtype": {"type": "DT_FLOAT"}}}, {"name": "unknown_61", "op": "Const", "attr": {"value": {"tensor": {"dtype": "DT_FLOAT", "tensorShape": {"dim": [{"size": "5"}, {"size": "5"}, {"size": "24"}, {"size": "1"}]}}}, "dtype": {"type": "DT_FLOAT"}}}, {"name": "unknown_68", "op": "Const", "attr": {"value": {"tensor": {"dtype": "DT_FLOAT", "tensorShape": {"dim": [{"size": "5"}, {"size": "5"}, {"size": "96"}, {"size": "1"}]}}}, "dtype": {"type": "DT_FLOAT"}}}, {"name": "unknown_75", "op": "Const", "attr": {"value": {"tensor": {"dtype": "DT_FLOAT", "tensorShape": {"dim": [{"size": "5"}, {"size": "5"}, {"size": "24"}, {"size": "1"}]}}}, "dtype": {"type": "DT_FLOAT"}}}, {"name": "unknown_96", "op": "Const", "attr": {"dtype": {"type": "DT_FLOAT"}, "value": {"tensor": {"dtype": "DT_FLOAT", "tensorShape": {"dim": [{"size": "5"}, {"size": "5"}, {"size": "96"}, {"size": "1"}]}}}}}, {"name": "unknown_103", "op": "Const", "attr": {"dtype": {"type": "DT_FLOAT"}, "value": {"tensor": {"dtype": "DT_FLOAT", "tensorShape": {"dim": [{"size": "5"}, {"size": "5"}, {"size": "24"}, {"size": "1"}]}}}}}, {"name": "unknown_110", "op": "Const", "attr": {"dtype": {"type": "DT_FLOAT"}, "value": {"tensor": {"dtype": "DT_FLOAT", "tensorShape": {"dim": [{"size": "5"}, {"size": "5"}, {"size": "96"}, {"size": "1"}]}}}}}, {"name": "unknown_117", "op": "Const", "attr": {"dtype": {"type": "DT_FLOAT"}, "value": {"tensor": {"dtype": "DT_FLOAT", "tensorShape": {"dim": [{"size": "5"}, {"size": "5"}, {"size": "24"}, {"size": "1"}]}}}}}, {"name": "unknown_124", "op": "Const", "attr": {"value": {"tensor": {"dtype": "DT_FLOAT", "tensorShape": {"dim": [{"size": "3"}, {"size": "3"}, {"size": "96"}, {"size": "24"}]}}}, "dtype": {"type": "DT_FLOAT"}}}, {"name": "unknown_125", "op": "Const", "attr": {"value": {"tensor": {"dtype": "DT_FLOAT", "tensorShape": {"dim": [{"size": "24"}]}}}, "dtype": {"type": "DT_FLOAT"}}}, {"name": "StatefulPartitionedCall/functional_3/reshape_3/strided_slice/stack", "op": "Const", "attr": {"dtype": {"type": "DT_INT32"}, "value": {"tensor": {"dtype": "DT_INT32", "tensorShape": {"dim": [{"size": "1"}]}}}}}, {"name": "StatefulPartitionedCall/functional_3/reshape_3/strided_slice/stack_1", "op": "Const", "attr": {"dtype": {"type": "DT_INT32"}, "value": {"tensor": {"dtype": "DT_INT32", "tensorShape": {"dim": [{"size": "1"}]}}}}}, {"name": "StatefulPartitionedCall/functional_3/reshape_3/strided_slice/stack_2", "op": "Const", "attr": {"dtype": {"type": "DT_INT32"}, "value": {"tensor": {"dtype": "DT_INT32", "tensorShape": {"dim": [{"size": "1"}]}}}}}, {"name": "StatefulPartitionedCall/functional_3/reshape_3/Reshape/shape/1", "op": "Const", "attr": {"value": {"tensor": {"dtype": "DT_INT32", "tensorShape": {}}}, "dtype": {"type": "DT_INT32"}}}, {"name": "StatefulPartitionedCall/functional_3/reshape_3/Reshape/shape/2", "op": "Const", "attr": {"value": {"tensor": {"dtype": "DT_INT32", "tensorShape": {}}}, "dtype": {"type": "DT_INT32"}}}, {"name": "StatefulPartitionedCall/functional_3/tf_op_layer_concat_2/concat_2/axis", "op": "Const", "attr": {"value": {"tensor": {"dtype": "DT_INT32", "tensorShape": {}}}, "dtype": {"type": "DT_INT32"}}}, {"name": "StatefulPartitionedCall/functional_3/tf_op_layer_concat_3/concat_3/axis", "op": "Const", "attr": {"dtype": {"type": "DT_INT32"}, "value": {"tensor": {"dtype": "DT_INT32", "tensorShape": {}}}}}, {"name": "input_1", "op": "Placeholder", "attr": {"shape": {"shape": {"dim": [{"size": "-1"}, {"size": "128"}, {"size": "128"}, {"size": "3"}]}}, "dtype": {"type": "DT_FLOAT"}}}, {"name": "StatefulPartitionedCall/functional_3/conv2d/Conv2D_weights", "op": "Const", "attr": {"value": {"tensor": {"dtype": "DT_FLOAT", "tensorShape": {"dim": [{"size": "5"}, {"size": "5"}, {"size": "3"}, {"size": "24"}]}}}, "dtype": {"type": "DT_FLOAT"}}}, {"name": "StatefulPartitionedCall/functional_3/conv2d/Conv2D_bn_offset", "op": "Const", "attr": {"value": {"tensor": {"dtype": "DT_FLOAT", "tensorShape": {"dim": [{"size": "24"}]}}}, "dtype": {"type": "DT_FLOAT"}}}, {"name": "StatefulPartitionedCall/functional_3/sequential/separable_conv2d/separable_conv2d_weights", "op": "Const", "attr": {"dtype": {"type": "DT_FLOAT"}, "value": {"tensor": {"dtype": "DT_FLOAT", "tensorShape": {"dim": [{"size": "1"}, {"size": "1"}, {"size": "24"}, {"size": "24"}]}}}}}, {"name": "StatefulPartitionedCall/functional_3/sequential/separable_conv2d/separable_conv2d_bn_offset", "op": "Const", "attr": {"dtype": {"type": "DT_FLOAT"}, "value": {"tensor": {"dtype": "DT_FLOAT", "tensorShape": {"dim": [{"size": "24"}]}}}}}, {"name": "StatefulPartitionedCall/functional_3/sequential_14/separable_conv2d_14/separable_conv2d_weights", "op": "Const", "attr": {"value": {"tensor": {"dtype": "DT_FLOAT", "tensorShape": {"dim": [{"size": "1"}, {"size": "1"}, {"size": "24"}, {"size": "96"}]}}}, "dtype": {"type": "DT_FLOAT"}}}, {"name": "StatefulPartitionedCall/functional_3/sequential_1/separable_conv2d_1/separable_conv2d_weights", "op": "Const", "attr": {"value": {"tensor": {"dtype": "DT_FLOAT", "tensorShape": {"dim": [{"size": "1"}, {"size": "1"}, {"size": "24"}, {"size": "24"}]}}}, "dtype": {"type": "DT_FLOAT"}}}, {"name": "StatefulPartitionedCall/functional_3/sequential_1/separable_conv2d_1/separable_conv2d_bn_offset", "op": "Const", "attr": {"dtype": {"type": "DT_FLOAT"}, "value": {"tensor": {"dtype": "DT_FLOAT", "tensorShape": {"dim": [{"size": "24"}]}}}}}, {"name": "StatefulPartitionedCall/functional_3/sequential_14/separable_conv2d_14/separable_conv2d_bn_offset", "op": "Const", "attr": {"dtype": {"type": "DT_FLOAT"}, "value": {"tensor": {"dtype": "DT_FLOAT", "tensorShape": {"dim": [{"size": "96"}]}}}}}, {"name": "StatefulPartitionedCall/functional_3/sequential_2/separable_conv2d_2/separable_conv2d_weights", "op": "Const", "attr": {"dtype": {"type": "DT_FLOAT"}, "value": {"tensor": {"dtype": "DT_FLOAT", "tensorShape": {"dim": [{"size": "1"}, {"size": "1"}, {"size": "24"}, {"size": "24"}]}}}}}, {"name": "StatefulPartitionedCall/functional_3/sequential_2/separable_conv2d_2/separable_conv2d_bn_offset", "op": "Const", "attr": {"value": {"tensor": {"dtype": "DT_FLOAT", "tensorShape": {"dim": [{"size": "24"}]}}}, "dtype": {"type": "DT_FLOAT"}}}, {"name": "StatefulPartitionedCall/functional_3/sequential_3/separable_conv2d_3/separable_conv2d_weights", "op": "Const", "attr": {"value": {"tensor": {"dtype": "DT_FLOAT", "tensorShape": {"dim": [{"size": "1"}, {"size": "1"}, {"size": "24"}, {"size": "48"}]}}}, "dtype": {"type": "DT_FLOAT"}}}, {"name": "StatefulPartitionedCall/functional_3/sequential_3/separable_conv2d_3/separable_conv2d_bn_offset", "op": "Const", "attr": {"value": {"tensor": {"dtype": "DT_FLOAT", "tensorShape": {"dim": [{"size": "48"}]}}}, "dtype": {"type": "DT_FLOAT"}}}, {"name": "StatefulPartitionedCall/functional_3/sequential_4/separable_conv2d_4/separable_conv2d_weights", "op": "Const", "attr": {"value": {"tensor": {"dtype": "DT_FLOAT", "tensorShape": {"dim": [{"size": "1"}, {"size": "1"}, {"size": "48"}, {"size": "48"}]}}}, "dtype": {"type": "DT_FLOAT"}}}, {"name": "StatefulPartitionedCall/functional_3/sequential_15/separable_conv2d_15/separable_conv2d_weights", "op": "Const", "attr": {"value": {"tensor": {"dtype": "DT_FLOAT", "tensorShape": {"dim": [{"size": "1"}, {"size": "1"}, {"size": "96"}, {"size": "24"}]}}}, "dtype": {"type": "DT_FLOAT"}}}, {"name": "StatefulPartitionedCall/functional_3/sequential_4/separable_conv2d_4/separable_conv2d_bn_offset", "op": "Const", "attr": {"dtype": {"type": "DT_FLOAT"}, "value": {"tensor": {"dtype": "DT_FLOAT", "tensorShape": {"dim": [{"size": "48"}]}}}}}, {"name": "StatefulPartitionedCall/functional_3/sequential_5/separable_conv2d_5/separable_conv2d_weights", "op": "Const", "attr": {"value": {"tensor": {"dtype": "DT_FLOAT", "tensorShape": {"dim": [{"size": "1"}, {"size": "1"}, {"size": "48"}, {"size": "24"}]}}}, "dtype": {"type": "DT_FLOAT"}}}, {"name": "StatefulPartitionedCall/functional_3/sequential_15/separable_conv2d_15/separable_conv2d_bn_offset", "op": "Const", "attr": {"dtype": {"type": "DT_FLOAT"}, "value": {"tensor": {"dtype": "DT_FLOAT", "tensorShape": {"dim": [{"size": "24"}]}}}}}, {"name": "StatefulPartitionedCall/functional_3/sequential_5/separable_conv2d_5/separable_conv2d_bn_offset", "op": "Const", "attr": {"value": {"tensor": {"dtype": "DT_FLOAT", "tensorShape": {"dim": [{"size": "24"}]}}}, "dtype": {"type": "DT_FLOAT"}}}, {"name": "StatefulPartitionedCall/functional_3/sequential_6/separable_conv2d_6/separable_conv2d_weights", "op": "Const", "attr": {"dtype": {"type": "DT_FLOAT"}, "value": {"tensor": {"dtype": "DT_FLOAT", "tensorShape": {"dim": [{"size": "1"}, {"size": "1"}, {"size": "24"}, {"size": "96"}]}}}}}, {"name": "StatefulPartitionedCall/functional_3/sequential_6/separable_conv2d_6/separable_conv2d_bn_offset", "op": "Const", "attr": {"value": {"tensor": {"dtype": "DT_FLOAT", "tensorShape": {"dim": [{"size": "96"}]}}}, "dtype": {"type": "DT_FLOAT"}}}, {"name": "StatefulPartitionedCall/functional_3/sequential_7/separable_conv2d_7/separable_conv2d_weights", "op": "Const", "attr": {"dtype": {"type": "DT_FLOAT"}, "value": {"tensor": {"dtype": "DT_FLOAT", "tensorShape": {"dim": [{"size": "1"}, {"size": "1"}, {"size": "96"}, {"size": "24"}]}}}}}, {"name": "StatefulPartitionedCall/functional_3/sequential_7/separable_conv2d_7/separable_conv2d_bn_offset", "op": "Const", "attr": {"value": {"tensor": {"dtype": "DT_FLOAT", "tensorShape": {"dim": [{"size": "24"}]}}}, "dtype": {"type": "DT_FLOAT"}}}, {"name": "StatefulPartitionedCall/functional_3/sequential_16/separable_conv2d_16/separable_conv2d_weights", "op": "Const", "attr": {"value": {"tensor": {"dtype": "DT_FLOAT", "tensorShape": {"dim": [{"size": "1"}, {"size": "1"}, {"size": "24"}, {"size": "96"}]}}}, "dtype": {"type": "DT_FLOAT"}}}, {"name": "StatefulPartitionedCall/functional_3/sequential_8/separable_conv2d_8/separable_conv2d_weights", "op": "Const", "attr": {"value": {"tensor": {"dtype": "DT_FLOAT", "tensorShape": {"dim": [{"size": "1"}, {"size": "1"}, {"size": "24"}, {"size": "96"}]}}}, "dtype": {"type": "DT_FLOAT"}}}, {"name": "StatefulPartitionedCall/functional_3/sequential_8/separable_conv2d_8/separable_conv2d_bn_offset", "op": "Const", "attr": {"value": {"tensor": {"dtype": "DT_FLOAT", "tensorShape": {"dim": [{"size": "96"}]}}}, "dtype": {"type": "DT_FLOAT"}}}, {"name": "StatefulPartitionedCall/functional_3/sequential_16/separable_conv2d_16/separable_conv2d_bn_offset", "op": "Const", "attr": {"dtype": {"type": "DT_FLOAT"}, "value": {"tensor": {"dtype": "DT_FLOAT", "tensorShape": {"dim": [{"size": "96"}]}}}}}, {"name": "StatefulPartitionedCall/functional_3/sequential_9/separable_conv2d_9/separable_conv2d_weights", "op": "Const", "attr": {"dtype": {"type": "DT_FLOAT"}, "value": {"tensor": {"dtype": "DT_FLOAT", "tensorShape": {"dim": [{"size": "1"}, {"size": "1"}, {"size": "96"}, {"size": "24"}]}}}}}, {"name": "StatefulPartitionedCall/functional_3/sequential_9/separable_conv2d_9/separable_conv2d_bn_offset", "op": "Const", "attr": {"value": {"tensor": {"dtype": "DT_FLOAT", "tensorShape": {"dim": [{"size": "24"}]}}}, "dtype": {"type": "DT_FLOAT"}}}, {"name": "StatefulPartitionedCall/functional_3/sequential_10/separable_conv2d_10/separable_conv2d_weights", "op": "Const", "attr": {"value": {"tensor": {"dtype": "DT_FLOAT", "tensorShape": {"dim": [{"size": "1"}, {"size": "1"}, {"size": "24"}, {"size": "96"}]}}}, "dtype": {"type": "DT_FLOAT"}}}, {"name": "StatefulPartitionedCall/functional_3/sequential_10/separable_conv2d_10/separable_conv2d_bn_offset", "op": "Const", "attr": {"value": {"tensor": {"dtype": "DT_FLOAT", "tensorShape": {"dim": [{"size": "96"}]}}}, "dtype": {"type": "DT_FLOAT"}}}, {"name": "StatefulPartitionedCall/functional_3/sequential_11/separable_conv2d_11/separable_conv2d_weights", "op": "Const", "attr": {"dtype": {"type": "DT_FLOAT"}, "value": {"tensor": {"dtype": "DT_FLOAT", "tensorShape": {"dim": [{"size": "1"}, {"size": "1"}, {"size": "96"}, {"size": "24"}]}}}}}, {"name": "StatefulPartitionedCall/functional_3/sequential_11/separable_conv2d_11/separable_conv2d_bn_offset", "op": "Const", "attr": {"dtype": {"type": "DT_FLOAT"}, "value": {"tensor": {"dtype": "DT_FLOAT", "tensorShape": {"dim": [{"size": "24"}]}}}}}, {"name": "StatefulPartitionedCall/functional_3/sequential_12/separable_conv2d_12/separable_conv2d_weights", "op": "Const", "attr": {"dtype": {"type": "DT_FLOAT"}, "value": {"tensor": {"dtype": "DT_FLOAT", "tensorShape": {"dim": [{"size": "1"}, {"size": "1"}, {"size": "24"}, {"size": "96"}]}}}}}, {"name": "StatefulPartitionedCall/functional_3/sequential_12/separable_conv2d_12/separable_conv2d_bn_offset", "op": "Const", "attr": {"dtype": {"type": "DT_FLOAT"}, "value": {"tensor": {"dtype": "DT_FLOAT", "tensorShape": {"dim": [{"size": "96"}]}}}}}, {"name": "StatefulPartitionedCall/functional_3/sequential_13/separable_conv2d_13/separable_conv2d_weights", "op": "Const", "attr": {"value": {"tensor": {"dtype": "DT_FLOAT", "tensorShape": {"dim": [{"size": "1"}, {"size": "1"}, {"size": "96"}, {"size": "24"}]}}}, "dtype": {"type": "DT_FLOAT"}}}, {"name": "StatefulPartitionedCall/functional_3/sequential_13/separable_conv2d_13/separable_conv2d_bn_offset", "op": "Const", "attr": {"dtype": {"type": "DT_FLOAT"}, "value": {"tensor": {"dtype": "DT_FLOAT", "tensorShape": {"dim": [{"size": "24"}]}}}}}, {"name": "StatefulPartitionedCall/functional_3/activation/Relu", "op": "_FusedConv2D", "input": ["input_1", "StatefulPartitionedCall/functional_3/conv2d/Conv2D_weights", "StatefulPartitionedCall/functional_3/conv2d/Conv2D_bn_offset"], "device": "/device:CPU:0", "attr": {"use_cudnn_on_gpu": {"b": true}, "num_args": {"i": "1"}, "dilations": {"list": {"i": ["1", "1", "1", "1"]}}, "data_format": {"s": "TkhXQw=="}, "strides": {"list": {"i": ["1", "2", "2", "1"]}}, "fused_ops": {"list": {"s": ["Qmlhc0FkZA==", "UmVsdQ=="]}}, "epsilon": {"f": 0.0}, "explicit_paddings": {"list": {}}, "T": {"type": "DT_FLOAT"}, "padding": {"s": "U0FNRQ=="}}}, {"name": "StatefulPartitionedCall/functional_3/sequential/separable_conv2d/separable_conv2d/depthwise", "op": "DepthwiseConv2dNative", "input": ["StatefulPartitionedCall/functional_3/activation/Relu", "unknown_5"], "attr": {"explicit_paddings": {"list": {}}, "dilations": {"list": {"i": ["1", "1", "1", "1"]}}, "T": {"type": "DT_FLOAT"}, "strides": {"list": {"i": ["1", "1", "1", "1"]}}, "padding": {"s": "U0FNRQ=="}, "data_format": {"s": "TkhXQw=="}}}, {"name": "StatefulPartitionedCall/functional_3/activation_1/Relu", "op": "_FusedConv2D", "input": ["StatefulPartitionedCall/functional_3/sequential/separable_conv2d/separable_conv2d/depthwise", "StatefulPartitionedCall/functional_3/sequential/separable_conv2d/separable_conv2d_weights", "StatefulPartitionedCall/functional_3/sequential/separable_conv2d/separable_conv2d_bn_offset"], "device": "/device:CPU:0", "attr": {"explicit_paddings": {"list": {}}, "padding": {"s": "VkFMSUQ="}, "strides": {"list": {"i": ["1", "1", "1", "1"]}}, "data_format": {"s": "TkhXQw=="}, "fused_ops": {"list": {"s": ["Qmlhc0FkZA==", "UmVsdQ=="]}}, "num_args": {"i": "1"}, "use_cudnn_on_gpu": {"b": true}, "epsilon": {"f": 0.0}, "dilations": {"list": {"i": ["1", "1", "1", "1"]}}, "T": {"type": "DT_FLOAT"}}}, {"name": "StatefulPartitionedCall/functional_3/sequential_1/separable_conv2d_1/separable_conv2d/depthwise", "op": "DepthwiseConv2dNative", "input": ["StatefulPartitionedCall/functional_3/activation_1/Relu", "unknown_12"], "attr": {"data_format": {"s": "TkhXQw=="}, "explicit_paddings": {"list": {}}, "dilations": {"list": {"i": ["1", "1", "1", "1"]}}, "padding": {"s": "U0FNRQ=="}, "T": {"type": "DT_FLOAT"}, "strides": {"list": {"i": ["1", "1", "1", "1"]}}}}, {"name": "StatefulPartitionedCall/functional_3/activation_2/Relu", "op": "_FusedConv2D", "input": ["StatefulPartitionedCall/functional_3/sequential_1/separable_conv2d_1/separable_conv2d/depthwise", "StatefulPartitionedCall/functional_3/sequential_1/separable_conv2d_1/separable_conv2d_weights", "StatefulPartitionedCall/functional_3/sequential_1/separable_conv2d_1/separable_conv2d_bn_offset"], "device": "/device:CPU:0", "attr": {"dilations": {"list": {"i": ["1", "1", "1", "1"]}}, "padding": {"s": "VkFMSUQ="}, "explicit_paddings": {"list": {}}, "fused_ops": {"list": {"s": ["Qmlhc0FkZA==", "UmVsdQ=="]}}, "data_format": {"s": "TkhXQw=="}, "T": {"type": "DT_FLOAT"}, "strides": {"list": {"i": ["1", "1", "1", "1"]}}, "epsilon": {"f": 0.0}, "use_cudnn_on_gpu": {"b": true}, "num_args": {"i": "1"}}}, {"name": "StatefulPartitionedCall/functional_3/sequential_2/separable_conv2d_2/separable_conv2d/depthwise", "op": "DepthwiseConv2dNative", "input": ["StatefulPartitionedCall/functional_3/activation_2/Relu", "unknown_19"], "attr": {"T": {"type": "DT_FLOAT"}, "dilations": {"list": {"i": ["1", "1", "1", "1"]}}, "padding": {"s": "U0FNRQ=="}, "explicit_paddings": {"list": {}}, "strides": {"list": {"i": ["1", "2", "2", "1"]}}, "data_format": {"s": "TkhXQw=="}}}, {"name": "StatefulPartitionedCall/functional_3/max_pooling2d/MaxPool", "op": "MaxPool", "input": ["StatefulPartitionedCall/functional_3/activation_2/Relu"], "attr": {"T": {"type": "DT_FLOAT"}, "padding": {"s": "VkFMSUQ="}, "strides": {"list": {"i": ["1", "2", "2", "1"]}}, "ksize": {"list": {"i": ["1", "2", "2", "1"]}}, "data_format": {"s": "TkhXQw=="}}}, {"name": "StatefulPartitionedCall/functional_3/sequential_2/batch_normalization_3/FusedBatchNormV3", "op": "_FusedConv2D", "input": ["StatefulPartitionedCall/functional_3/sequential_2/separable_conv2d_2/separable_conv2d/depthwise", "StatefulPartitionedCall/functional_3/sequential_2/separable_conv2d_2/separable_conv2d_weights", "StatefulPartitionedCall/functional_3/sequential_2/separable_conv2d_2/separable_conv2d_bn_offset"], "device": "/device:CPU:0", "attr": {"fused_ops": {"list": {"s": ["Qmlhc0FkZA=="]}}, "data_format": {"s": "TkhXQw=="}, "use_cudnn_on_gpu": {"b": true}, "explicit_paddings": {"list": {}}, "T": {"type": "DT_FLOAT"}, "dilations": {"list": {"i": ["1", "1", "1", "1"]}}, "strides": {"list": {"i": ["1", "1", "1", "1"]}}, "padding": {"s": "VkFMSUQ="}, "num_args": {"i": "1"}, "epsilon": {"f": 0.0}}}, {"name": "StatefulPartitionedCall/functional_3/add/add", "op": "AddV2", "input": ["StatefulPartitionedCall/functional_3/sequential_2/batch_normalization_3/FusedBatchNormV3", "StatefulPartitionedCall/functional_3/max_pooling2d/MaxPool"], "attr": {"T": {"type": "DT_FLOAT"}}}, {"name": "StatefulPartitionedCall/functional_3/activation_3/Relu", "op": "Relu", "input": ["StatefulPartitionedCall/functional_3/add/add"], "attr": {"T": {"type": "DT_FLOAT"}}}, {"name": "StatefulPartitionedCall/functional_3/sequential_3/separable_conv2d_3/separable_conv2d/depthwise", "op": "DepthwiseConv2dNative", "input": ["StatefulPartitionedCall/functional_3/activation_3/Relu", "unknown_26"], "attr": {"T": {"type": "DT_FLOAT"}, "dilations": {"list": {"i": ["1", "1", "1", "1"]}}, "data_format": {"s": "TkhXQw=="}, "strides": {"list": {"i": ["1", "1", "1", "1"]}}, "explicit_paddings": {"list": {}}, "padding": {"s": "U0FNRQ=="}}}, {"name": "StatefulPartitionedCall/functional_3/activation_4/Relu", "op": "_FusedConv2D", "input": ["StatefulPartitionedCall/functional_3/sequential_3/separable_conv2d_3/separable_conv2d/depthwise", "StatefulPartitionedCall/functional_3/sequential_3/separable_conv2d_3/separable_conv2d_weights", "StatefulPartitionedCall/functional_3/sequential_3/separable_conv2d_3/separable_conv2d_bn_offset"], "device": "/device:CPU:0", "attr": {"epsilon": {"f": 0.0}, "dilations": {"list": {"i": ["1", "1", "1", "1"]}}, "num_args": {"i": "1"}, "data_format": {"s": "TkhXQw=="}, "padding": {"s": "VkFMSUQ="}, "fused_ops": {"list": {"s": ["Qmlhc0FkZA==", "UmVsdQ=="]}}, "explicit_paddings": {"list": {}}, "T": {"type": "DT_FLOAT"}, "use_cudnn_on_gpu": {"b": true}, "strides": {"list": {"i": ["1", "1", "1", "1"]}}}}, {"name": "StatefulPartitionedCall/functional_3/sequential_4/separable_conv2d_4/separable_conv2d/depthwise", "op": "DepthwiseConv2dNative", "input": ["StatefulPartitionedCall/functional_3/activation_4/Relu", "unknown_33"], "attr": {"T": {"type": "DT_FLOAT"}, "strides": {"list": {"i": ["1", "1", "1", "1"]}}, "dilations": {"list": {"i": ["1", "1", "1", "1"]}}, "explicit_paddings": {"list": {}}, "padding": {"s": "U0FNRQ=="}, "data_format": {"s": "TkhXQw=="}}}, {"name": "StatefulPartitionedCall/functional_3/activation_5/Relu", "op": "_FusedConv2D", "input": ["StatefulPartitionedCall/functional_3/sequential_4/separable_conv2d_4/separable_conv2d/depthwise", "StatefulPartitionedCall/functional_3/sequential_4/separable_conv2d_4/separable_conv2d_weights", "StatefulPartitionedCall/functional_3/sequential_4/separable_conv2d_4/separable_conv2d_bn_offset"], "device": "/device:CPU:0", "attr": {"data_format": {"s": "TkhXQw=="}, "use_cudnn_on_gpu": {"b": true}, "strides": {"list": {"i": ["1", "1", "1", "1"]}}, "dilations": {"list": {"i": ["1", "1", "1", "1"]}}, "T": {"type": "DT_FLOAT"}, "padding": {"s": "VkFMSUQ="}, "num_args": {"i": "1"}, "epsilon": {"f": 0.0}, "fused_ops": {"list": {"s": ["Qmlhc0FkZA==", "UmVsdQ=="]}}, "explicit_paddings": {"list": {}}}}, {"name": "StatefulPartitionedCall/functional_3/sequential_5/separable_conv2d_5/separable_conv2d/depthwise", "op": "DepthwiseConv2dNative", "input": ["StatefulPartitionedCall/functional_3/activation_5/Relu", "unknown_40"], "attr": {"T": {"type": "DT_FLOAT"}, "explicit_paddings": {"list": {}}, "strides": {"list": {"i": ["1", "2", "2", "1"]}}, "dilations": {"list": {"i": ["1", "1", "1", "1"]}}, "data_format": {"s": "TkhXQw=="}, "padding": {"s": "U0FNRQ=="}}}, {"name": "StatefulPartitionedCall/functional_3/max_pooling2d_1/MaxPool", "op": "MaxPool", "input": ["StatefulPartitionedCall/functional_3/activation_5/Relu"], "attr": {"strides": {"list": {"i": ["1", "2", "2", "1"]}}, "data_format": {"s": "TkhXQw=="}, "ksize": {"list": {"i": ["1", "2", "2", "1"]}}, "padding": {"s": "VkFMSUQ="}, "T": {"type": "DT_FLOAT"}}}, {"name": "StatefulPartitionedCall/functional_3/activation_6/Relu", "op": "_FusedConv2D", "input": ["StatefulPartitionedCall/functional_3/sequential_5/separable_conv2d_5/separable_conv2d/depthwise", "StatefulPartitionedCall/functional_3/sequential_5/separable_conv2d_5/separable_conv2d_weights", "StatefulPartitionedCall/functional_3/sequential_5/separable_conv2d_5/separable_conv2d_bn_offset"], "device": "/device:CPU:0", "attr": {"data_format": {"s": "TkhXQw=="}, "use_cudnn_on_gpu": {"b": true}, "strides": {"list": {"i": ["1", "1", "1", "1"]}}, "num_args": {"i": "1"}, "padding": {"s": "VkFMSUQ="}, "T": {"type": "DT_FLOAT"}, "explicit_paddings": {"list": {}}, "fused_ops": {"list": {"s": ["Qmlhc0FkZA==", "UmVsdQ=="]}}, "epsilon": {"f": 0.0}, "dilations": {"list": {"i": ["1", "1", "1", "1"]}}}}, {"name": "StatefulPartitionedCall/functional_3/tf_op_layer_ZerosLike/ZerosLike", "op": "ZerosLike", "input": ["StatefulPartitionedCall/functional_3/max_pooling2d_1/MaxPool"], "attr": {"T": {"type": "DT_FLOAT"}, "_cloned": {"b": true}}}, {"name": "StatefulPartitionedCall/functional_3/sequential_6/separable_conv2d_6/separable_conv2d/depthwise", "op": "DepthwiseConv2dNative", "input": ["StatefulPartitionedCall/functional_3/activation_6/Relu", "unknown_47"], "attr": {"padding": {"s": "U0FNRQ=="}, "explicit_paddings": {"list": {}}, "strides": {"list": {"i": ["1", "1", "1", "1"]}}, "T": {"type": "DT_FLOAT"}, "dilations": {"list": {"i": ["1", "1", "1", "1"]}}, "data_format": {"s": "TkhXQw=="}}}, {"name": "StatefulPartitionedCall/functional_3/tf_op_layer_strided_slice/strided_slice", "op": "StridedSlice", "input": ["StatefulPartitionedCall/functional_3/tf_op_layer_ZerosLike/ZerosLike", "StatefulPartitionedCall/functional_3/tf_op_layer_strided_slice/strided_slice/begin", "StatefulPartitionedCall/functional_3/tf_op_layer_strided_slice/strided_slice/end", "StatefulPartitionedCall/functional_3/tf_op_layer_strided_slice/strided_slice/strides"], "attr": {"shrink_axis_mask": {"i": "0"}, "new_axis_mask": {"i": "0"}, "T": {"type": "DT_FLOAT"}, "_cloned": {"b": true}, "ellipsis_mask": {"i": "1"}, "begin_mask": {"i": "2"}, "end_mask": {"i": "0"}, "Index": {"type": "DT_INT32"}}}, {"name": "StatefulPartitionedCall/functional_3/sequential_6/batch_normalization_7/FusedBatchNormV3", "op": "_FusedConv2D", "input": ["StatefulPartitionedCall/functional_3/sequential_6/separable_conv2d_6/separable_conv2d/depthwise", "StatefulPartitionedCall/functional_3/sequential_6/separable_conv2d_6/separable_conv2d_weights", "StatefulPartitionedCall/functional_3/sequential_6/separable_conv2d_6/separable_conv2d_bn_offset"], "device": "/device:CPU:0", "attr": {"T": {"type": "DT_FLOAT"}, "num_args": {"i": "1"}, "epsilon": {"f": 0.0}, "fused_ops": {"list": {"s": ["Qmlhc0FkZA=="]}}, "strides": {"list": {"i": ["1", "1", "1", "1"]}}, "use_cudnn_on_gpu": {"b": true}, "explicit_paddings": {"list": {}}, "padding": {"s": "VkFMSUQ="}, "data_format": {"s": "TkhXQw=="}, "dilations": {"list": {"i": ["1", "1", "1", "1"]}}}}, {"name": "StatefulPartitionedCall/functional_3/tf_op_layer_concat/concat", "op": "ConcatV2", "input": ["StatefulPartitionedCall/functional_3/max_pooling2d_1/MaxPool", "StatefulPartitionedCall/functional_3/tf_op_layer_strided_slice/strided_slice", "StatefulPartitionedCall/functional_3/tf_op_layer_concat/concat/axis"], "attr": {"Tidx": {"type": "DT_INT32"}, "T": {"type": "DT_FLOAT"}, "N": {"i": "2"}, "_cloned": {"b": true}}}, {"name": "StatefulPartitionedCall/functional_3/add_1/add", "op": "AddV2", "input": ["StatefulPartitionedCall/functional_3/sequential_6/batch_normalization_7/FusedBatchNormV3", "StatefulPartitionedCall/functional_3/tf_op_layer_concat/concat"], "attr": {"T": {"type": "DT_FLOAT"}}}, {"name": "StatefulPartitionedCall/functional_3/activation_6/Relu_1", "op": "Relu", "input": ["StatefulPartitionedCall/functional_3/add_1/add"], "attr": {"T": {"type": "DT_FLOAT"}}}, {"name": "StatefulPartitionedCall/functional_3/sequential_7/separable_conv2d_7/separable_conv2d/depthwise", "op": "DepthwiseConv2dNative", "input": ["StatefulPartitionedCall/functional_3/activation_6/Relu_1", "unknown_54"], "attr": {"strides": {"list": {"i": ["1", "1", "1", "1"]}}, "padding": {"s": "U0FNRQ=="}, "dilations": {"list": {"i": ["1", "1", "1", "1"]}}, "T": {"type": "DT_FLOAT"}, "explicit_paddings": {"list": {}}, "data_format": {"s": "TkhXQw=="}}}, {"name": "StatefulPartitionedCall/functional_3/activation_7/Relu", "op": "_FusedConv2D", "input": ["StatefulPartitionedCall/functional_3/sequential_7/separable_conv2d_7/separable_conv2d/depthwise", "StatefulPartitionedCall/functional_3/sequential_7/separable_conv2d_7/separable_conv2d_weights", "StatefulPartitionedCall/functional_3/sequential_7/separable_conv2d_7/separable_conv2d_bn_offset"], "device": "/device:CPU:0", "attr": {"strides": {"list": {"i": ["1", "1", "1", "1"]}}, "fused_ops": {"list": {"s": ["Qmlhc0FkZA==", "UmVsdQ=="]}}, "T": {"type": "DT_FLOAT"}, "use_cudnn_on_gpu": {"b": true}, "data_format": {"s": "TkhXQw=="}, "padding": {"s": "VkFMSUQ="}, "num_args": {"i": "1"}, "dilations": {"list": {"i": ["1", "1", "1", "1"]}}, "explicit_paddings": {"list": {}}, "epsilon": {"f": 0.0}}}, {"name": "StatefulPartitionedCall/functional_3/sequential_8/separable_conv2d_8/separable_conv2d/depthwise", "op": "DepthwiseConv2dNative", "input": ["StatefulPartitionedCall/functional_3/activation_7/Relu", "unknown_61"], "attr": {"explicit_paddings": {"list": {}}, "T": {"type": "DT_FLOAT"}, "dilations": {"list": {"i": ["1", "1", "1", "1"]}}, "data_format": {"s": "TkhXQw=="}, "padding": {"s": "U0FNRQ=="}, "strides": {"list": {"i": ["1", "1", "1", "1"]}}}}, {"name": "StatefulPartitionedCall/functional_3/activation_7/Relu_1", "op": "_FusedConv2D", "input": ["StatefulPartitionedCall/functional_3/sequential_8/separable_conv2d_8/separable_conv2d/depthwise", "StatefulPartitionedCall/functional_3/sequential_8/separable_conv2d_8/separable_conv2d_weights", "StatefulPartitionedCall/functional_3/sequential_8/separable_conv2d_8/separable_conv2d_bn_offset"], "device": "/device:CPU:0", "attr": {"data_format": {"s": "TkhXQw=="}, "strides": {"list": {"i": ["1", "1", "1", "1"]}}, "fused_ops": {"list": {"s": ["Qmlhc0FkZA==", "UmVsdQ=="]}}, "T": {"type": "DT_FLOAT"}, "num_args": {"i": "1"}, "use_cudnn_on_gpu": {"b": true}, "explicit_paddings": {"list": {}}, "epsilon": {"f": 0.0}, "padding": {"s": "VkFMSUQ="}, "dilations": {"list": {"i": ["1", "1", "1", "1"]}}}}, {"name": "StatefulPartitionedCall/functional_3/sequential_9/separable_conv2d_9/separable_conv2d/depthwise", "op": "DepthwiseConv2dNative", "input": ["StatefulPartitionedCall/functional_3/activation_7/Relu_1", "unknown_68"], "attr": {"dilations": {"list": {"i": ["1", "1", "1", "1"]}}, "data_format": {"s": "TkhXQw=="}, "padding": {"s": "U0FNRQ=="}, "T": {"type": "DT_FLOAT"}, "explicit_paddings": {"list": {}}, "strides": {"list": {"i": ["1", "1", "1", "1"]}}}}, {"name": "StatefulPartitionedCall/functional_3/activation_8/Relu", "op": "_FusedConv2D", "input": ["StatefulPartitionedCall/functional_3/sequential_9/separable_conv2d_9/separable_conv2d/depthwise", "StatefulPartitionedCall/functional_3/sequential_9/separable_conv2d_9/separable_conv2d_weights", "StatefulPartitionedCall/functional_3/sequential_9/separable_conv2d_9/separable_conv2d_bn_offset"], "device": "/device:CPU:0", "attr": {"dilations": {"list": {"i": ["1", "1", "1", "1"]}}, "use_cudnn_on_gpu": {"b": true}, "num_args": {"i": "1"}, "fused_ops": {"list": {"s": ["Qmlhc0FkZA==", "UmVsdQ=="]}}, "explicit_paddings": {"list": {}}, "epsilon": {"f": 0.0}, "padding": {"s": "VkFMSUQ="}, "data_format": {"s": "TkhXQw=="}, "T": {"type": "DT_FLOAT"}, "strides": {"list": {"i": ["1", "1", "1", "1"]}}}}, {"name": "StatefulPartitionedCall/functional_3/sequential_10/separable_conv2d_10/separable_conv2d/depthwise", "op": "DepthwiseConv2dNative", "input": ["StatefulPartitionedCall/functional_3/activation_8/Relu", "unknown_75"], "attr": {"padding": {"s": "U0FNRQ=="}, "dilations": {"list": {"i": ["1", "1", "1", "1"]}}, "T": {"type": "DT_FLOAT"}, "data_format": {"s": "TkhXQw=="}, "explicit_paddings": {"list": {}}, "strides": {"list": {"i": ["1", "1", "1", "1"]}}}}, {"name": "StatefulPartitionedCall/functional_3/activation_8/Relu_1", "op": "_FusedConv2D", "input": ["StatefulPartitionedCall/functional_3/sequential_10/separable_conv2d_10/separable_conv2d/depthwise", "StatefulPartitionedCall/functional_3/sequential_10/separable_conv2d_10/separable_conv2d_weights", "StatefulPartitionedCall/functional_3/sequential_10/separable_conv2d_10/separable_conv2d_bn_offset"], "device": "/device:CPU:0", "attr": {"epsilon": {"f": 0.0}, "T": {"type": "DT_FLOAT"}, "padding": {"s": "VkFMSUQ="}, "fused_ops": {"list": {"s": ["Qmlhc0FkZA==", "UmVsdQ=="]}}, "strides": {"list": {"i": ["1", "1", "1", "1"]}}, "data_format": {"s": "TkhXQw=="}, "dilations": {"list": {"i": ["1", "1", "1", "1"]}}, "num_args": {"i": "1"}, "explicit_paddings": {"list": {}}, "use_cudnn_on_gpu": {"b": true}}}, {"name": "StatefulPartitionedCall/functional_3/conv2d_1/BiasAdd", "op": "_FusedConv2D", "input": ["StatefulPartitionedCall/functional_3/activation_8/Relu_1", "unknown_130", "unknown_131"], "device": "/device:CPU:0", "attr": {"dilations": {"list": {"i": ["1", "1", "1", "1"]}}, "padding": {"s": "U0FNRQ=="}, "T": {"type": "DT_FLOAT"}, "strides": {"list": {"i": ["1", "1", "1", "1"]}}, "fused_ops": {"list": {"s": ["Qmlhc0FkZA=="]}}, "num_args": {"i": "1"}, "epsilon": {"f": 0.0}, "explicit_paddings": {"list": {}}, "data_format": {"s": "TkhXQw=="}, "use_cudnn_on_gpu": {"b": true}}}, {"name": "StatefulPartitionedCall/functional_3/conv2d_3/BiasAdd", "op": "_FusedConv2D", "input": ["StatefulPartitionedCall/functional_3/activation_8/Relu_1", "unknown_126", "unknown_127"], "device": "/device:CPU:0", "attr": {"data_format": {"s": "TkhXQw=="}, "padding": {"s": "U0FNRQ=="}, "num_args": {"i": "1"}, "T": {"type": "DT_FLOAT"}, "explicit_paddings": {"list": {}}, "fused_ops": {"list": {"s": ["Qmlhc0FkZA=="]}}, "use_cudnn_on_gpu": {"b": true}, "dilations": {"list": {"i": ["1", "1", "1", "1"]}}, "strides": {"list": {"i": ["1", "1", "1", "1"]}}, "epsilon": {"f": 0.0}}}, {"name": "StatefulPartitionedCall/functional_3/sequential_11/separable_conv2d_11/separable_conv2d/depthwise", "op": "DepthwiseConv2dNative", "input": ["StatefulPartitionedCall/functional_3/activation_8/Relu_1", "unknown_82"], "attr": {"padding": {"s": "U0FNRQ=="}, "strides": {"list": {"i": ["1", "2", "2", "1"]}}, "data_format": {"s": "TkhXQw=="}, "dilations": {"list": {"i": ["1", "1", "1", "1"]}}, "T": {"type": "DT_FLOAT"}, "explicit_paddings": {"list": {}}}}, {"name": "StatefulPartitionedCall/functional_3/max_pooling2d_2/MaxPool", "op": "MaxPool", "input": ["StatefulPartitionedCall/functional_3/activation_8/Relu_1"], "attr": {"data_format": {"s": "TkhXQw=="}, "T": {"type": "DT_FLOAT"}, "ksize": {"list": {"i": ["1", "2", "2", "1"]}}, "padding": {"s": "VkFMSUQ="}, "strides": {"list": {"i": ["1", "2", "2", "1"]}}}}, {"name": "StatefulPartitionedCall/functional_3/conv2d_1/Sigmoid", "op": "Sigmoid", "input": ["StatefulPartitionedCall/functional_3/conv2d_1/BiasAdd"], "attr": {"T": {"type": "DT_FLOAT"}}}, {"name": "StatefulPartitionedCall/functional_3/reshape_2/Shape", "op": "Shape", "input": ["StatefulPartitionedCall/functional_3/conv2d_3/BiasAdd"], "attr": {"out_type": {"type": "DT_INT32"}, "T": {"type": "DT_FLOAT"}}}, {"name": "StatefulPartitionedCall/functional_3/activation_9/Relu", "op": "_FusedConv2D", "input": ["StatefulPartitionedCall/functional_3/sequential_11/separable_conv2d_11/separable_conv2d/depthwise", "StatefulPartitionedCall/functional_3/sequential_11/separable_conv2d_11/separable_conv2d_weights", "StatefulPartitionedCall/functional_3/sequential_11/separable_conv2d_11/separable_conv2d_bn_offset"], "device": "/device:CPU:0", "attr": {"explicit_paddings": {"list": {}}, "epsilon": {"f": 0.0}, "strides": {"list": {"i": ["1", "1", "1", "1"]}}, "use_cudnn_on_gpu": {"b": true}, "dilations": {"list": {"i": ["1", "1", "1", "1"]}}, "T": {"type": "DT_FLOAT"}, "fused_ops": {"list": {"s": ["Qmlhc0FkZA==", "UmVsdQ=="]}}, "data_format": {"s": "TkhXQw=="}, "padding": {"s": "VkFMSUQ="}, "num_args": {"i": "1"}}}, {"name": "StatefulPartitionedCall/functional_3/reshape/Shape", "op": "Shape", "input": ["StatefulPartitionedCall/functional_3/conv2d_1/Sigmoid"], "attr": {"out_type": {"type": "DT_INT32"}, "T": {"type": "DT_FLOAT"}}}, {"name": "StatefulPartitionedCall/functional_3/reshape_2/strided_slice", "op": "StridedSlice", "input": ["StatefulPartitionedCall/functional_3/reshape_2/Shape", "StatefulPartitionedCall/functional_3/reshape_2/strided_slice/stack", "StatefulPartitionedCall/functional_3/reshape_2/strided_slice/stack_1", "StatefulPartitionedCall/functional_3/reshape_2/strided_slice/stack_2"], "attr": {"shrink_axis_mask": {"i": "1"}, "new_axis_mask": {"i": "0"}, "begin_mask": {"i": "0"}, "end_mask": {"i": "0"}, "T": {"type": "DT_INT32"}, "ellipsis_mask": {"i": "0"}, "Index": {"type": "DT_INT32"}}}, {"name": "StatefulPartitionedCall/functional_3/sequential_12/separable_conv2d_12/separable_conv2d/depthwise", "op": "DepthwiseConv2dNative", "input": ["StatefulPartitionedCall/functional_3/activation_9/Relu", "unknown_89"], "attr": {"data_format": {"s": "TkhXQw=="}, "strides": {"list": {"i": ["1", "1", "1", "1"]}}, "padding": {"s": "U0FNRQ=="}, "T": {"type": "DT_FLOAT"}, "explicit_paddings": {"list": {}}, "dilations": {"list": {"i": ["1", "1", "1", "1"]}}}}, {"name": "StatefulPartitionedCall/functional_3/reshape/strided_slice", "op": "StridedSlice", "input": ["StatefulPartitionedCall/functional_3/reshape/Shape", "StatefulPartitionedCall/functional_3/reshape/strided_slice/stack", "StatefulPartitionedCall/functional_3/reshape/strided_slice/stack_1", "StatefulPartitionedCall/functional_3/reshape/strided_slice/stack_2"], "attr": {"end_mask": {"i": "0"}, "Index": {"type": "DT_INT32"}, "ellipsis_mask": {"i": "0"}, "shrink_axis_mask": {"i": "1"}, "begin_mask": {"i": "0"}, "T": {"type": "DT_INT32"}, "new_axis_mask": {"i": "0"}}}, {"name": "StatefulPartitionedCall/functional_3/reshape_2/Reshape/shape", "op": "Pack", "input": ["StatefulPartitionedCall/functional_3/reshape_2/strided_slice", "StatefulPartitionedCall/functional_3/reshape_2/Reshape/shape/1", "StatefulPartitionedCall/functional_3/reshape_2/Reshape/shape/2"], "attr": {"axis": {"i": "0"}, "T": {"type": "DT_INT32"}, "N": {"i": "3"}}}, {"name": "StatefulPartitionedCall/functional_3/sequential_12/batch_normalization_13/FusedBatchNormV3", "op": "_FusedConv2D", "input": ["StatefulPartitionedCall/functional_3/sequential_12/separable_conv2d_12/separable_conv2d/depthwise", "StatefulPartitionedCall/functional_3/sequential_12/separable_conv2d_12/separable_conv2d_weights", "StatefulPartitionedCall/functional_3/sequential_12/separable_conv2d_12/separable_conv2d_bn_offset"], "device": "/device:CPU:0", "attr": {"data_format": {"s": "TkhXQw=="}, "explicit_paddings": {"list": {}}, "T": {"type": "DT_FLOAT"}, "fused_ops": {"list": {"s": ["Qmlhc0FkZA=="]}}, "use_cudnn_on_gpu": {"b": true}, "epsilon": {"f": 0.0}, "num_args": {"i": "1"}, "dilations": {"list": {"i": ["1", "1", "1", "1"]}}, "strides": {"list": {"i": ["1", "1", "1", "1"]}}, "padding": {"s": "VkFMSUQ="}}}, {"name": "StatefulPartitionedCall/functional_3/reshape/Reshape/shape", "op": "Pack", "input": ["StatefulPartitionedCall/functional_3/reshape/strided_slice", "StatefulPartitionedCall/functional_3/reshape/Reshape/shape/1", "StatefulPartitionedCall/functional_3/reshape/Reshape/shape/2"], "attr": {"N": {"i": "3"}, "axis": {"i": "0"}, "T": {"type": "DT_INT32"}}}, {"name": "StatefulPartitionedCall/functional_3/reshape_2/Reshape", "op": "Reshape", "input": ["StatefulPartitionedCall/functional_3/conv2d_3/BiasAdd", "StatefulPartitionedCall/functional_3/reshape_2/Reshape/shape"], "attr": {"T": {"type": "DT_FLOAT"}, "Tshape": {"type": "DT_INT32"}}}, {"name": "StatefulPartitionedCall/functional_3/add_2/add", "op": "AddV2", "input": ["StatefulPartitionedCall/functional_3/sequential_12/batch_normalization_13/FusedBatchNormV3", "StatefulPartitionedCall/functional_3/max_pooling2d_2/MaxPool"], "attr": {"T": {"type": "DT_FLOAT"}}}, {"name": "StatefulPartitionedCall/functional_3/reshape/Reshape", "op": "Reshape", "input": ["StatefulPartitionedCall/functional_3/conv2d_1/Sigmoid", "StatefulPartitionedCall/functional_3/reshape/Reshape/shape"], "attr": {"Tshape": {"type": "DT_INT32"}, "T": {"type": "DT_FLOAT"}}}, {"name": "StatefulPartitionedCall/functional_3/activation_9/Relu_1", "op": "Relu", "input": ["StatefulPartitionedCall/functional_3/add_2/add"], "attr": {"T": {"type": "DT_FLOAT"}}}, {"name": "StatefulPartitionedCall/functional_3/sequential_13/separable_conv2d_13/separable_conv2d/depthwise", "op": "DepthwiseConv2dNative", "input": ["StatefulPartitionedCall/functional_3/activation_9/Relu_1", "unknown_96"], "attr": {"strides": {"list": {"i": ["1", "1", "1", "1"]}}, "padding": {"s": "U0FNRQ=="}, "T": {"type": "DT_FLOAT"}, "explicit_paddings": {"list": {}}, "dilations": {"list": {"i": ["1", "1", "1", "1"]}}, "data_format": {"s": "TkhXQw=="}}}, {"name": "StatefulPartitionedCall/functional_3/activation_10/Relu", "op": "_FusedConv2D", "input": ["StatefulPartitionedCall/functional_3/sequential_13/separable_conv2d_13/separable_conv2d/depthwise", "StatefulPartitionedCall/functional_3/sequential_13/separable_conv2d_13/separable_conv2d_weights", "StatefulPartitionedCall/functional_3/sequential_13/separable_conv2d_13/separable_conv2d_bn_offset"], "device": "/device:CPU:0", "attr": {"fused_ops": {"list": {"s": ["Qmlhc0FkZA==", "UmVsdQ=="]}}, "padding": {"s": "VkFMSUQ="}, "num_args": {"i": "1"}, "strides": {"list": {"i": ["1", "1", "1", "1"]}}, "data_format": {"s": "TkhXQw=="}, "T": {"type": "DT_FLOAT"}, "use_cudnn_on_gpu": {"b": true}, "explicit_paddings": {"list": {}}, "epsilon": {"f": 0.0}, "dilations": {"list": {"i": ["1", "1", "1", "1"]}}}}, {"name": "StatefulPartitionedCall/functional_3/sequential_14/separable_conv2d_14/separable_conv2d/depthwise", "op": "DepthwiseConv2dNative", "input": ["StatefulPartitionedCall/functional_3/activation_10/Relu", "unknown_103"], "attr": {"explicit_paddings": {"list": {}}, "data_format": {"s": "TkhXQw=="}, "strides": {"list": {"i": ["1", "1", "1", "1"]}}, "dilations": {"list": {"i": ["1", "1", "1", "1"]}}, "padding": {"s": "U0FNRQ=="}, "T": {"type": "DT_FLOAT"}}}, {"name": "StatefulPartitionedCall/functional_3/activation_10/Relu_1", "op": "_FusedConv2D", "input": ["StatefulPartitionedCall/functional_3/sequential_14/separable_conv2d_14/separable_conv2d/depthwise", "StatefulPartitionedCall/functional_3/sequential_14/separable_conv2d_14/separable_conv2d_weights", "StatefulPartitionedCall/functional_3/sequential_14/separable_conv2d_14/separable_conv2d_bn_offset"], "device": "/device:CPU:0", "attr": {"num_args": {"i": "1"}, "padding": {"s": "VkFMSUQ="}, "data_format": {"s": "TkhXQw=="}, "explicit_paddings": {"list": {}}, "strides": {"list": {"i": ["1", "1", "1", "1"]}}, "dilations": {"list": {"i": ["1", "1", "1", "1"]}}, "fused_ops": {"list": {"s": ["Qmlhc0FkZA==", "UmVsdQ=="]}}, "use_cudnn_on_gpu": {"b": true}, "epsilon": {"f": 0.0}, "T": {"type": "DT_FLOAT"}}}, {"name": "StatefulPartitionedCall/functional_3/sequential_15/separable_conv2d_15/separable_conv2d/depthwise", "op": "DepthwiseConv2dNative", "input": ["StatefulPartitionedCall/functional_3/activation_10/Relu_1", "unknown_110"], "attr": {"explicit_paddings": {"list": {}}, "dilations": {"list": {"i": ["1", "1", "1", "1"]}}, "data_format": {"s": "TkhXQw=="}, "T": {"type": "DT_FLOAT"}, "strides": {"list": {"i": ["1", "1", "1", "1"]}}, "padding": {"s": "U0FNRQ=="}}}, {"name": "StatefulPartitionedCall/functional_3/activation_11/Relu", "op": "_FusedConv2D", "input": ["StatefulPartitionedCall/functional_3/sequential_15/separable_conv2d_15/separable_conv2d/depthwise", "StatefulPartitionedCall/functional_3/sequential_15/separable_conv2d_15/separable_conv2d_weights", "StatefulPartitionedCall/functional_3/sequential_15/separable_conv2d_15/separable_conv2d_bn_offset"], "device": "/device:CPU:0", "attr": {"T": {"type": "DT_FLOAT"}, "fused_ops": {"list": {"s": ["Qmlhc0FkZA==", "UmVsdQ=="]}}, "epsilon": {"f": 0.0}, "padding": {"s": "VkFMSUQ="}, "use_cudnn_on_gpu": {"b": true}, "explicit_paddings": {"list": {}}, "dilations": {"list": {"i": ["1", "1", "1", "1"]}}, "num_args": {"i": "1"}, "strides": {"list": {"i": ["1", "1", "1", "1"]}}, "data_format": {"s": "TkhXQw=="}}}, {"name": "StatefulPartitionedCall/functional_3/sequential_16/separable_conv2d_16/separable_conv2d/depthwise", "op": "DepthwiseConv2dNative", "input": ["StatefulPartitionedCall/functional_3/activation_11/Relu", "unknown_117"], "attr": {"padding": {"s": "U0FNRQ=="}, "strides": {"list": {"i": ["1", "1", "1", "1"]}}, "data_format": {"s": "TkhXQw=="}, "dilations": {"list": {"i": ["1", "1", "1", "1"]}}, "T": {"type": "DT_FLOAT"}, "explicit_paddings": {"list": {}}}}, {"name": "StatefulPartitionedCall/functional_3/activation_11/Relu_1", "op": "_FusedConv2D", "input": ["StatefulPartitionedCall/functional_3/sequential_16/separable_conv2d_16/separable_conv2d/depthwise", "StatefulPartitionedCall/functional_3/sequential_16/separable_conv2d_16/separable_conv2d_weights", "StatefulPartitionedCall/functional_3/sequential_16/separable_conv2d_16/separable_conv2d_bn_offset"], "device": "/device:CPU:0", "attr": {"fused_ops": {"list": {"s": ["Qmlhc0FkZA==", "UmVsdQ=="]}}, "num_args": {"i": "1"}, "padding": {"s": "VkFMSUQ="}, "explicit_paddings": {"list": {}}, "strides": {"list": {"i": ["1", "1", "1", "1"]}}, "dilations": {"list": {"i": ["1", "1", "1", "1"]}}, "T": {"type": "DT_FLOAT"}, "use_cudnn_on_gpu": {"b": true}, "epsilon": {"f": 0.0}, "data_format": {"s": "TkhXQw=="}}}, {"name": "StatefulPartitionedCall/functional_3/conv2d_4/BiasAdd", "op": "_FusedConv2D", "input": ["StatefulPartitionedCall/functional_3/activation_11/Relu_1", "unknown_124", "unknown_125"], "device": "/device:CPU:0", "attr": {"use_cudnn_on_gpu": {"b": true}, "explicit_paddings": {"list": {}}, "data_format": {"s": "TkhXQw=="}, "fused_ops": {"list": {"s": ["Qmlhc0FkZA=="]}}, "dilations": {"list": {"i": ["1", "1", "1", "1"]}}, "T": {"type": "DT_FLOAT"}, "padding": {"s": "U0FNRQ=="}, "strides": {"list": {"i": ["1", "1", "1", "1"]}}, "num_args": {"i": "1"}, "epsilon": {"f": 0.0}}}, {"name": "StatefulPartitionedCall/functional_3/conv2d_2/BiasAdd", "op": "_FusedConv2D", "input": ["StatefulPartitionedCall/functional_3/activation_11/Relu_1", "unknown_128", "unknown_129"], "device": "/device:CPU:0", "attr": {"data_format": {"s": "TkhXQw=="}, "fused_ops": {"list": {"s": ["Qmlhc0FkZA=="]}}, "num_args": {"i": "1"}, "T": {"type": "DT_FLOAT"}, "explicit_paddings": {"list": {}}, "use_cudnn_on_gpu": {"b": true}, "dilations": {"list": {"i": ["1", "1", "1", "1"]}}, "padding": {"s": "U0FNRQ=="}, "epsilon": {"f": 0.0}, "strides": {"list": {"i": ["1", "1", "1", "1"]}}}}, {"name": "StatefulPartitionedCall/functional_3/reshape_3/Shape", "op": "Shape", "input": ["StatefulPartitionedCall/functional_3/conv2d_4/BiasAdd"], "attr": {"T": {"type": "DT_FLOAT"}, "out_type": {"type": "DT_INT32"}}}, {"name": "StatefulPartitionedCall/functional_3/conv2d_2/Sigmoid", "op": "Sigmoid", "input": ["StatefulPartitionedCall/functional_3/conv2d_2/BiasAdd"], "attr": {"T": {"type": "DT_FLOAT"}}}, {"name": "StatefulPartitionedCall/functional_3/reshape_3/strided_slice", "op": "StridedSlice", "input": ["StatefulPartitionedCall/functional_3/reshape_3/Shape", "StatefulPartitionedCall/functional_3/reshape_3/strided_slice/stack", "StatefulPartitionedCall/functional_3/reshape_3/strided_slice/stack_1", "StatefulPartitionedCall/functional_3/reshape_3/strided_slice/stack_2"], "attr": {"shrink_axis_mask": {"i": "1"}, "begin_mask": {"i": "0"}, "new_axis_mask": {"i": "0"}, "ellipsis_mask": {"i": "0"}, "end_mask": {"i": "0"}, "T": {"type": "DT_INT32"}, "Index": {"type": "DT_INT32"}}}, {"name": "StatefulPartitionedCall/functional_3/reshape_1/Shape", "op": "Shape", "input": ["StatefulPartitionedCall/functional_3/conv2d_2/Sigmoid"], "attr": {"out_type": {"type": "DT_INT32"}, "T": {"type": "DT_FLOAT"}}}, {"name": "StatefulPartitionedCall/functional_3/reshape_3/Reshape/shape", "op": "Pack", "input": ["StatefulPartitionedCall/functional_3/reshape_3/strided_slice", "StatefulPartitionedCall/functional_3/reshape_3/Reshape/shape/1", "StatefulPartitionedCall/functional_3/reshape_3/Reshape/shape/2"], "attr": {"T": {"type": "DT_INT32"}, "axis": {"i": "0"}, "N": {"i": "3"}}}, {"name": "StatefulPartitionedCall/functional_3/reshape_1/strided_slice", "op": "StridedSlice", "input": ["StatefulPartitionedCall/functional_3/reshape_1/Shape", "StatefulPartitionedCall/functional_3/reshape_1/strided_slice/stack", "StatefulPartitionedCall/functional_3/reshape_1/strided_slice/stack_1", "StatefulPartitionedCall/functional_3/reshape_1/strided_slice/stack_2"], "attr": {"shrink_axis_mask": {"i": "1"}, "Index": {"type": "DT_INT32"}, "new_axis_mask": {"i": "0"}, "ellipsis_mask": {"i": "0"}, "T": {"type": "DT_INT32"}, "begin_mask": {"i": "0"}, "end_mask": {"i": "0"}}}, {"name": "StatefulPartitionedCall/functional_3/reshape_3/Reshape", "op": "Reshape", "input": ["StatefulPartitionedCall/functional_3/conv2d_4/BiasAdd", "StatefulPartitionedCall/functional_3/reshape_3/Reshape/shape"], "attr": {"Tshape": {"type": "DT_INT32"}, "T": {"type": "DT_FLOAT"}}}, {"name": "StatefulPartitionedCall/functional_3/reshape_1/Reshape/shape", "op": "Pack", "input": ["StatefulPartitionedCall/functional_3/reshape_1/strided_slice", "StatefulPartitionedCall/functional_3/reshape_1/Reshape/shape/1", "StatefulPartitionedCall/functional_3/reshape_1/Reshape/shape/2"], "attr": {"axis": {"i": "0"}, "N": {"i": "3"}, "T": {"type": "DT_INT32"}}}, {"name": "StatefulPartitionedCall/functional_3/tf_op_layer_concat_2/concat_2", "op": "ConcatV2", "input": ["StatefulPartitionedCall/functional_3/reshape_2/Reshape", "StatefulPartitionedCall/functional_3/reshape_3/Reshape", "StatefulPartitionedCall/functional_3/tf_op_layer_concat_2/concat_2/axis"], "attr": {"_cloned": {"b": true}, "T": {"type": "DT_FLOAT"}, "N": {"i": "2"}, "Tidx": {"type": "DT_INT32"}}}, {"name": "StatefulPartitionedCall/functional_3/reshape_1/Reshape", "op": "Reshape", "input": ["StatefulPartitionedCall/functional_3/conv2d_2/Sigmoid", "StatefulPartitionedCall/functional_3/reshape_1/Reshape/shape"], "attr": {"Tshape": {"type": "DT_INT32"}, "T": {"type": "DT_FLOAT"}}}, {"name": "StatefulPartitionedCall/functional_3/tf_op_layer_concat_1/concat_1", "op": "ConcatV2", "input": ["StatefulPartitionedCall/functional_3/reshape/Reshape", "StatefulPartitionedCall/functional_3/reshape_1/Reshape", "StatefulPartitionedCall/functional_3/tf_op_layer_concat_1/concat_1/axis"], "attr": {"T": {"type": "DT_FLOAT"}, "Tidx": {"type": "DT_INT32"}, "N": {"i": "2"}, "_cloned": {"b": true}}}, {"name": "StatefulPartitionedCall/functional_3/tf_op_layer_concat_3/concat_3", "op": "ConcatV2", "input": ["StatefulPartitionedCall/functional_3/tf_op_layer_concat_1/concat_1", "StatefulPartitionedCall/functional_3/tf_op_layer_concat_2/concat_2", "StatefulPartitionedCall/functional_3/tf_op_layer_concat_3/concat_3/axis"], "attr": {"Tidx": {"type": "DT_INT32"}, "N": {"i": "2"}, "T": {"type": "DT_FLOAT"}, "_cloned": {"b": true}}}, {"name": "Identity", "op": "Identity", "input": ["StatefulPartitionedCall/functional_3/tf_op_layer_concat_3/concat_3"], "attr": {"T": {"type": "DT_FLOAT"}}}], "library": {}, "versions": {"producer": 440}}, "weightsManifest": [{"paths": ["group1-shard1of1.bin"], "weights": [{"name": "unknown_130", "shape": [3, 3, 96, 2], "dtype": "float32"}, {"name": "unknown_131", "shape": [2], "dtype": "float32"}, {"name": "StatefulPartitionedCall/functional_3/reshape/strided_slice/stack", "shape": [1], "dtype": "int32"}, {"name": "StatefulPartitionedCall/functional_3/reshape/strided_slice/stack_1", "shape": [1], "dtype": "int32"}, {"name": "StatefulPartitionedCall/functional_3/reshape/strided_slice/stack_2", "shape": [1], "dtype": "int32"}, {"name": "StatefulPartitionedCall/functional_3/reshape/Reshape/shape/1", "shape": [], "dtype": "int32"}, {"name": "StatefulPartitionedCall/functional_3/reshape/Reshape/shape/2", "shape": [], "dtype": "int32"}, {"name": "unknown_128", "shape": [3, 3, 96, 6], "dtype": "float32"}, {"name": "unknown_129", "shape": [6], "dtype": "float32"}, {"name": "StatefulPartitionedCall/functional_3/reshape_1/strided_slice/stack", "shape": [1], "dtype": "int32"}, {"name": "StatefulPartitionedCall/functional_3/reshape_1/strided_slice/stack_1", "shape": [1], "dtype": "int32"}, {"name": "StatefulPartitionedCall/functional_3/reshape_1/strided_slice/stack_2", "shape": [1], "dtype": "int32"}, {"name": "StatefulPartitionedCall/functional_3/reshape_1/Reshape/shape/1", "shape": [], "dtype": "int32"}, {"name": "StatefulPartitionedCall/functional_3/reshape_1/Reshape/shape/2", "shape": [], "dtype": "int32"}, {"name": "StatefulPartitionedCall/functional_3/tf_op_layer_concat_1/concat_1/axis", "shape": [], "dtype": "int32"}, {"name": "unknown_126", "shape": [3, 3, 96, 8], "dtype": "float32"}, {"name": "unknown_127", "shape": [8], "dtype": "float32"}, {"name": "StatefulPartitionedCall/functional_3/reshape_2/strided_slice/stack", "shape": [1], "dtype": "int32"}, {"name": "StatefulPartitionedCall/functional_3/reshape_2/strided_slice/stack_1", "shape": [1], "dtype": "int32"}, {"name": "StatefulPartitionedCall/functional_3/reshape_2/strided_slice/stack_2", "shape": [1], "dtype": "int32"}, {"name": "StatefulPartitionedCall/functional_3/reshape_2/Reshape/shape/1", "shape": [], "dtype": "int32"}, {"name": "StatefulPartitionedCall/functional_3/reshape_2/Reshape/shape/2", "shape": [], "dtype": "int32"}, {"name": "unknown_82", "shape": [5, 5, 96, 1], "dtype": "float32"}, {"name": "unknown_89", "shape": [5, 5, 24, 1], "dtype": "float32"}, {"name": "unknown_40", "shape": [5, 5, 48, 1], "dtype": "float32"}, {"name": "unknown_47", "shape": [5, 5, 24, 1], "dtype": "float32"}, {"name": "unknown_19", "shape": [5, 5, 24, 1], "dtype": "float32"}, {"name": "unknown_5", "shape": [5, 5, 24, 1], "dtype": "float32"}, {"name": "unknown_12", "shape": [5, 5, 24, 1], "dtype": "float32"}, {"name": "unknown_26", "shape": [5, 5, 24, 1], "dtype": "float32"}, {"name": "unknown_33", "shape": [5, 5, 48, 1], "dtype": "float32"}, {"name": "StatefulPartitionedCall/functional_3/tf_op_layer_strided_slice/strided_slice/begin", "shape": [2], "dtype": "int32"}, {"name": "StatefulPartitionedCall/functional_3/tf_op_layer_strided_slice/strided_slice/end", "shape": [2], "dtype": "int32"}, {"name": "StatefulPartitionedCall/functional_3/tf_op_layer_strided_slice/strided_slice/strides", "shape": [2], "dtype": "int32"}, {"name": "StatefulPartitionedCall/functional_3/tf_op_layer_concat/concat/axis", "shape": [], "dtype": "int32"}, {"name": "unknown_54", "shape": [5, 5, 96, 1], "dtype": "float32"}, {"name": "unknown_61", "shape": [5, 5, 24, 1], "dtype": "float32"}, {"name": "unknown_68", "shape": [5, 5, 96, 1], "dtype": "float32"}, {"name": "unknown_75", "shape": [5, 5, 24, 1], "dtype": "float32"}, {"name": "unknown_96", "shape": [5, 5, 96, 1], "dtype": "float32"}, {"name": "unknown_103", "shape": [5, 5, 24, 1], "dtype": "float32"}, {"name": "unknown_110", "shape": [5, 5, 96, 1], "dtype": "float32"}, {"name": "unknown_117", "shape": [5, 5, 24, 1], "dtype": "float32"}, {"name": "unknown_124", "shape": [3, 3, 96, 24], "dtype": "float32"}, {"name": "unknown_125", "shape": [24], "dtype": "float32"}, {"name": "StatefulPartitionedCall/functional_3/reshape_3/strided_slice/stack", "shape": [1], "dtype": "int32"}, {"name": "StatefulPartitionedCall/functional_3/reshape_3/strided_slice/stack_1", "shape": [1], "dtype": "int32"}, {"name": "StatefulPartitionedCall/functional_3/reshape_3/strided_slice/stack_2", "shape": [1], "dtype": "int32"}, {"name": "StatefulPartitionedCall/functional_3/reshape_3/Reshape/shape/1", "shape": [], "dtype": "int32"}, {"name": "StatefulPartitionedCall/functional_3/reshape_3/Reshape/shape/2", "shape": [], "dtype": "int32"}, {"name": "StatefulPartitionedCall/functional_3/tf_op_layer_concat_2/concat_2/axis", "shape": [], "dtype": "int32"}, {"name": "StatefulPartitionedCall/functional_3/tf_op_layer_concat_3/concat_3/axis", "shape": [], "dtype": "int32"}, {"name": "StatefulPartitionedCall/functional_3/conv2d/Conv2D_weights", "shape": [5, 5, 3, 24], "dtype": "float32"}, {"name": "StatefulPartitionedCall/functional_3/conv2d/Conv2D_bn_offset", "shape": [24], "dtype": "float32"}, {"name": "StatefulPartitionedCall/functional_3/sequential/separable_conv2d/separable_conv2d_weights", "shape": [1, 1, 24, 24], "dtype": "float32"}, {"name": "StatefulPartitionedCall/functional_3/sequential/separable_conv2d/separable_conv2d_bn_offset", "shape": [24], "dtype": "float32"}, {"name": "StatefulPartitionedCall/functional_3/sequential_14/separable_conv2d_14/separable_conv2d_weights", "shape": [1, 1, 24, 96], "dtype": "float32"}, {"name": "StatefulPartitionedCall/functional_3/sequential_1/separable_conv2d_1/separable_conv2d_weights", "shape": [1, 1, 24, 24], "dtype": "float32"}, {"name": "StatefulPartitionedCall/functional_3/sequential_1/separable_conv2d_1/separable_conv2d_bn_offset", "shape": [24], "dtype": "float32"}, {"name": "StatefulPartitionedCall/functional_3/sequential_14/separable_conv2d_14/separable_conv2d_bn_offset", "shape": [96], "dtype": "float32"}, {"name": "StatefulPartitionedCall/functional_3/sequential_2/separable_conv2d_2/separable_conv2d_weights", "shape": [1, 1, 24, 24], "dtype": "float32"}, {"name": "StatefulPartitionedCall/functional_3/sequential_2/separable_conv2d_2/separable_conv2d_bn_offset", "shape": [24], "dtype": "float32"}, {"name": "StatefulPartitionedCall/functional_3/sequential_3/separable_conv2d_3/separable_conv2d_weights", "shape": [1, 1, 24, 48], "dtype": "float32"}, {"name": "StatefulPartitionedCall/functional_3/sequential_3/separable_conv2d_3/separable_conv2d_bn_offset", "shape": [48], "dtype": "float32"}, {"name": "StatefulPartitionedCall/functional_3/sequential_4/separable_conv2d_4/separable_conv2d_weights", "shape": [1, 1, 48, 48], "dtype": "float32"}, {"name": "StatefulPartitionedCall/functional_3/sequential_15/separable_conv2d_15/separable_conv2d_weights", "shape": [1, 1, 96, 24], "dtype": "float32"}, {"name": "StatefulPartitionedCall/functional_3/sequential_4/separable_conv2d_4/separable_conv2d_bn_offset", "shape": [48], "dtype": "float32"}, {"name": "StatefulPartitionedCall/functional_3/sequential_5/separable_conv2d_5/separable_conv2d_weights", "shape": [1, 1, 48, 24], "dtype": "float32"}, {"name": "StatefulPartitionedCall/functional_3/sequential_15/separable_conv2d_15/separable_conv2d_bn_offset", "shape": [24], "dtype": "float32"}, {"name": "StatefulPartitionedCall/functional_3/sequential_5/separable_conv2d_5/separable_conv2d_bn_offset", "shape": [24], "dtype": "float32"}, {"name": "StatefulPartitionedCall/functional_3/sequential_6/separable_conv2d_6/separable_conv2d_weights", "shape": [1, 1, 24, 96], "dtype": "float32"}, {"name": "StatefulPartitionedCall/functional_3/sequential_6/separable_conv2d_6/separable_conv2d_bn_offset", "shape": [96], "dtype": "float32"}, {"name": "StatefulPartitionedCall/functional_3/sequential_7/separable_conv2d_7/separable_conv2d_weights", "shape": [1, 1, 96, 24], "dtype": "float32"}, {"name": "StatefulPartitionedCall/functional_3/sequential_7/separable_conv2d_7/separable_conv2d_bn_offset", "shape": [24], "dtype": "float32"}, {"name": "StatefulPartitionedCall/functional_3/sequential_16/separable_conv2d_16/separable_conv2d_weights", "shape": [1, 1, 24, 96], "dtype": "float32"}, {"name": "StatefulPartitionedCall/functional_3/sequential_8/separable_conv2d_8/separable_conv2d_weights", "shape": [1, 1, 24, 96], "dtype": "float32"}, {"name": "StatefulPartitionedCall/functional_3/sequential_8/separable_conv2d_8/separable_conv2d_bn_offset", "shape": [96], "dtype": "float32"}, {"name": "StatefulPartitionedCall/functional_3/sequential_16/separable_conv2d_16/separable_conv2d_bn_offset", "shape": [96], "dtype": "float32"}, {"name": "StatefulPartitionedCall/functional_3/sequential_9/separable_conv2d_9/separable_conv2d_weights", "shape": [1, 1, 96, 24], "dtype": "float32"}, {"name": "StatefulPartitionedCall/functional_3/sequential_9/separable_conv2d_9/separable_conv2d_bn_offset", "shape": [24], "dtype": "float32"}, {"name": "StatefulPartitionedCall/functional_3/sequential_10/separable_conv2d_10/separable_conv2d_weights", "shape": [1, 1, 24, 96], "dtype": "float32"}, {"name": "StatefulPartitionedCall/functional_3/sequential_10/separable_conv2d_10/separable_conv2d_bn_offset", "shape": [96], "dtype": "float32"}, {"name": "StatefulPartitionedCall/functional_3/sequential_11/separable_conv2d_11/separable_conv2d_weights", "shape": [1, 1, 96, 24], "dtype": "float32"}, {"name": "StatefulPartitionedCall/functional_3/sequential_11/separable_conv2d_11/separable_conv2d_bn_offset", "shape": [24], "dtype": "float32"}, {"name": "StatefulPartitionedCall/functional_3/sequential_12/separable_conv2d_12/separable_conv2d_weights", "shape": [1, 1, 24, 96], "dtype": "float32"}, {"name": "StatefulPartitionedCall/functional_3/sequential_12/separable_conv2d_12/separable_conv2d_bn_offset", "shape": [96], "dtype": "float32"}, {"name": "StatefulPartitionedCall/functional_3/sequential_13/separable_conv2d_13/separable_conv2d_weights", "shape": [1, 1, 96, 24], "dtype": "float32"}, {"name": "StatefulPartitionedCall/functional_3/sequential_13/separable_conv2d_13/separable_conv2d_bn_offset", "shape": [24], "dtype": "float32"}]}]}