{"format": "graph-model", "generatedBy": "2.0.0", "convertedBy": "TensorFlow.js Converter v2.0.1.post1", "userDefinedMetadata": {"signature": {"inputs": {"images:0": {"name": "images:0", "dtype": "DT_FLOAT", "tensorShape": {"dim": [{"size": "-1"}, {"size": "-1"}, {"size": "-1"}, {"size": "3"}]}}}, "outputs": {"Identity:0": {"name": "Identity:0", "dtype": "DT_FLOAT", "tensorShape": {"dim": [{"size": "-1"}, {"size": "-1"}, {"size": "5"}]}}}}}, "modelTopology": {"node": [{"name": "ConstantFolding/StatefulPartitionedCall/postprocessing/decode_predictions/truediv_recip", "op": "Const", "attr": {"value": {"tensor": {"dtype": "DT_FLOAT", "tensorShape": {}}}, "dtype": {"type": "DT_FLOAT"}}}, {"name": "StatefulPartitionedCall/postprocessing/decode_predictions/strided_slice_4/stack", "op": "Const", "attr": {"value": {"tensor": {"dtype": "DT_INT32", "tensorShape": {"dim": [{"size": "2"}]}}}, "dtype": {"type": "DT_INT32"}}}, {"name": "StatefulPartitionedCall/postprocessing/decode_predictions/strided_slice_4/stack_1", "op": "Const", "attr": {"value": {"tensor": {"dtype": "DT_INT32", "tensorShape": {"dim": [{"size": "2"}]}}}, "dtype": {"type": "DT_INT32"}}}, {"name": "StatefulPartitionedCall/postprocessing/decode_predictions/strided_slice_4/stack_2", "op": "Const", "attr": {"value": {"tensor": {"dtype": "DT_INT32", "tensorShape": {"dim": [{"size": "2"}]}}}, "dtype": {"type": "DT_INT32"}}}, {"name": "ConstantFolding/StatefulPartitionedCall/postprocessing/decode_predictions/truediv_1_recip", "op": "Const", "attr": {"value": {"tensor": {"dtype": "DT_FLOAT", "tensorShape": {}}}, "dtype": {"type": "DT_FLOAT"}}}, {"name": "StatefulPartitionedCall/postprocessing/decode_predictions/strided_slice_5/stack", "op": "Const", "attr": {"value": {"tensor": {"dtype": "DT_INT32", "tensorShape": {"dim": [{"size": "2"}]}}}, "dtype": {"type": "DT_INT32"}}}, {"name": "StatefulPartitionedCall/postprocessing/decode_predictions/strided_slice_5/stack_1", "op": "Const", "attr": {"value": {"tensor": {"dtype": "DT_INT32", "tensorShape": {"dim": [{"size": "2"}]}}}, "dtype": {"type": "DT_INT32"}}}, {"name": "StatefulPartitionedCall/postprocessing/decode_predictions/strided_slice_5/stack_2", "op": "Const", "attr": {"value": {"tensor": {"dtype": "DT_INT32", "tensorShape": {"dim": [{"size": "2"}]}}}, "dtype": {"type": "DT_INT32"}}}, {"name": "ConstantFolding/StatefulPartitionedCall/postprocessing/decode_predictions/truediv_2_recip", "op": "Const", "attr": {"value": {"tensor": {"dtype": "DT_FLOAT", "tensorShape": {}}}, "dtype": {"type": "DT_FLOAT"}}}, {"name": "StatefulPartitionedCall/postprocessing/decode_predictions/strided_slice/stack", "op": "Const", "attr": {"value": {"tensor": {"dtype": "DT_INT32", "tensorShape": {"dim": [{"size": "2"}]}}}, "dtype": {"type": "DT_INT32"}}}, {"name": "StatefulPartitionedCall/postprocessing/decode_predictions/strided_slice/stack_1", "op": "Const", "attr": {"value": {"tensor": {"dtype": "DT_INT32", "tensorShape": {"dim": [{"size": "2"}]}}}, "dtype": {"type": "DT_INT32"}}}, {"name": "StatefulPartitionedCall/postprocessing/decode_predictions/strided_slice/stack_2", "op": "Const", "attr": {"value": {"tensor": {"dtype": "DT_INT32", "tensorShape": {"dim": [{"size": "2"}]}}}, "dtype": {"type": "DT_INT32"}}}, {"name": "StatefulPartitionedCall/postprocessing/decode_predictions/strided_slice_1/stack", "op": "Const", "attr": {"value": {"tensor": {"dtype": "DT_INT32", "tensorShape": {"dim": [{"size": "2"}]}}}, "dtype": {"type": "DT_INT32"}}}, {"name": "StatefulPartitionedCall/postprocessing/decode_predictions/strided_slice_1/stack_1", "op": "Const", "attr": {"value": {"tensor": {"dtype": "DT_INT32", "tensorShape": {"dim": [{"size": "2"}]}}}, "dtype": {"type": "DT_INT32"}}}, {"name": "StatefulPartitionedCall/postprocessing/decode_predictions/strided_slice_1/stack_2", "op": "Const", "attr": {"value": {"tensor": {"dtype": "DT_INT32", "tensorShape": {"dim": [{"size": "2"}]}}}, "dtype": {"type": "DT_INT32"}}}, {"name": "StatefulPartitionedCall/postprocessing/decode_predictions/strided_slice_6/stack", "op": "Const", "attr": {"value": {"tensor": {"dtype": "DT_INT32", "tensorShape": {"dim": [{"size": "2"}]}}}, "dtype": {"type": "DT_INT32"}}}, {"name": "StatefulPartitionedCall/postprocessing/decode_predictions/strided_slice_6/stack_1", "op": "Const", "attr": {"value": {"tensor": {"dtype": "DT_INT32", "tensorShape": {"dim": [{"size": "2"}]}}}, "dtype": {"type": "DT_INT32"}}}, {"name": "StatefulPartitionedCall/postprocessing/decode_predictions/strided_slice_6/stack_2", "op": "Const", "attr": {"value": {"tensor": {"dtype": "DT_INT32", "tensorShape": {"dim": [{"size": "2"}]}}}, "dtype": {"type": "DT_INT32"}}}, {"name": "StatefulPartitionedCall/postprocessing/Reshape/shape", "op": "Const", "attr": {"value": {"tensor": {"dtype": "DT_INT32", "tensorShape": {"dim": [{"size": "2"}]}}}, "dtype": {"type": "DT_INT32"}}}, {"name": "ConstantFolding/StatefulPartitionedCall/postprocessing/decode_predictions/truediv_3_recip", "op": "Const", "attr": {"value": {"tensor": {"dtype": "DT_FLOAT", "tensorShape": {}}}, "dtype": {"type": "DT_FLOAT"}}}, {"name": "StatefulPartitionedCall/postprocessing/decode_predictions/strided_slice_2/stack", "op": "Const", "attr": {"value": {"tensor": {"dtype": "DT_INT32", "tensorShape": {"dim": [{"size": "2"}]}}}, "dtype": {"type": "DT_INT32"}}}, {"name": "StatefulPartitionedCall/postprocessing/decode_predictions/strided_slice_2/stack_1", "op": "Const", "attr": {"value": {"tensor": {"dtype": "DT_INT32", "tensorShape": {"dim": [{"size": "2"}]}}}, "dtype": {"type": "DT_INT32"}}}, {"name": "StatefulPartitionedCall/postprocessing/decode_predictions/strided_slice_2/stack_2", "op": "Const", "attr": {"value": {"tensor": {"dtype": "DT_INT32", "tensorShape": {"dim": [{"size": "2"}]}}}, "dtype": {"type": "DT_INT32"}}}, {"name": "StatefulPartitionedCall/postprocessing/decode_predictions/strided_slice_3/stack", "op": "Const", "attr": {"value": {"tensor": {"dtype": "DT_INT32", "tensorShape": {"dim": [{"size": "2"}]}}}, "dtype": {"type": "DT_INT32"}}}, {"name": "StatefulPartitionedCall/postprocessing/decode_predictions/strided_slice_3/stack_1", "op": "Const", "attr": {"value": {"tensor": {"dtype": "DT_INT32", "tensorShape": {"dim": [{"size": "2"}]}}}, "dtype": {"type": "DT_INT32"}}}, {"name": "StatefulPartitionedCall/postprocessing/decode_predictions/strided_slice_3/stack_2", "op": "Const", "attr": {"value": {"tensor": {"dtype": "DT_INT32", "tensorShape": {"dim": [{"size": "2"}]}}}, "dtype": {"type": "DT_INT32"}}}, {"name": "StatefulPartitionedCall/strided_slice_2/stack", "op": "Const", "attr": {"value": {"tensor": {"dtype": "DT_INT32", "tensorShape": {"dim": [{"size": "4"}]}}}, "dtype": {"type": "DT_INT32"}}}, {"name": "StatefulPartitionedCall/strided_slice_2/stack_1", "op": "Const", "attr": {"value": {"tensor": {"dtype": "DT_INT32", "tensorShape": {"dim": [{"size": "4"}]}}}, "dtype": {"type": "DT_INT32"}}}, {"name": "StatefulPartitionedCall/strided_slice_2/stack_2", "op": "Const", "attr": {"value": {"tensor": {"dtype": "DT_INT32", "tensorShape": {"dim": [{"size": "4"}]}}}, "dtype": {"type": "DT_INT32"}}}, {"name": "StatefulPartitionedCall/strided_slice_3/stack", "op": "Const", "attr": {"value": {"tensor": {"dtype": "DT_INT32", "tensorShape": {"dim": [{"size": "4"}]}}}, "dtype": {"type": "DT_INT32"}}}, {"name": "StatefulPartitionedCall/strided_slice_3/stack_1", "op": "Const", "attr": {"value": {"tensor": {"dtype": "DT_INT32", "tensorShape": {"dim": [{"size": "4"}]}}}, "dtype": {"type": "DT_INT32"}}}, {"name": "StatefulPartitionedCall/strided_slice_3/stack_2", "op": "Const", "attr": {"value": {"tensor": {"dtype": "DT_INT32", "tensorShape": {"dim": [{"size": "4"}]}}}, "dtype": {"type": "DT_INT32"}}}, {"name": "StatefulPartitionedCall/strided_slice_4/stack", "op": "Const", "attr": {"value": {"tensor": {"dtype": "DT_INT32", "tensorShape": {"dim": [{"size": "4"}]}}}, "dtype": {"type": "DT_INT32"}}}, {"name": "StatefulPartitionedCall/strided_slice_4/stack_1", "op": "Const", "attr": {"value": {"tensor": {"dtype": "DT_INT32", "tensorShape": {"dim": [{"size": "4"}]}}}, "dtype": {"type": "DT_INT32"}}}, {"name": "StatefulPartitionedCall/strided_slice_4/stack_2", "op": "Const", "attr": {"value": {"tensor": {"dtype": "DT_INT32", "tensorShape": {"dim": [{"size": "4"}]}}}, "dtype": {"type": "DT_INT32"}}}, {"name": "StatefulPartitionedCall/add_1/y", "op": "Const", "attr": {"value": {"tensor": {"dtype": "DT_FLOAT", "tensorShape": {}}}, "dtype": {"type": "DT_FLOAT"}}}, {"name": "StatefulPartitionedCall/Reshape_2", "op": "Const", "attr": {"value": {"tensor": {"dtype": "DT_FLOAT", "tensorShape": {"dim": [{"size": "1"}, {"size": "2"}, {"size": "4"}]}}}, "dtype": {"type": "DT_FLOAT"}}}, {"name": "StatefulPartitionedCall/meshgrid/Reshape_2/shape", "op": "Const", "attr": {"value": {"tensor": {"dtype": "DT_INT32", "tensorShape": {"dim": [{"size": "2"}]}}}, "dtype": {"type": "DT_INT32"}}}, {"name": "StatefulPartitionedCall/Reshape/shape", "op": "Const", "attr": {"value": {"tensor": {"dtype": "DT_INT32", "tensorShape": {"dim": [{"size": "2"}]}}}, "dtype": {"type": "DT_INT32"}}}, {"name": "StatefulPartitionedCall/meshgrid/Reshape_3/shape", "op": "Const", "attr": {"value": {"tensor": {"dtype": "DT_INT32", "tensorShape": {"dim": [{"size": "2"}]}}}, "dtype": {"type": "DT_INT32"}}}, {"name": "StatefulPartitionedCall/range_1/Cast", "op": "Const", "attr": {"value": {"tensor": {"dtype": "DT_FLOAT", "tensorShape": {}}}, "dtype": {"type": "DT_FLOAT"}}}, {"name": "StatefulPartitionedCall/range_1/Cast_1", "op": "Const", "attr": {"value": {"tensor": {"dtype": "DT_FLOAT", "tensorShape": {}}}, "dtype": {"type": "DT_FLOAT"}}}, {"name": "StatefulPartitionedCall/mul_3/y", "op": "Const", "attr": {"value": {"tensor": {"dtype": "DT_FLOAT", "tensorShape": {}}}, "dtype": {"type": "DT_FLOAT"}}}, {"name": "StatefulPartitionedCall/range/Cast", "op": "Const", "attr": {"value": {"tensor": {"dtype": "DT_FLOAT", "tensorShape": {}}}, "dtype": {"type": "DT_FLOAT"}}}, {"name": "StatefulPartitionedCall/range/Cast_1", "op": "Const", "attr": {"value": {"tensor": {"dtype": "DT_FLOAT", "tensorShape": {}}}, "dtype": {"type": "DT_FLOAT"}}}, {"name": "StatefulPartitionedCall/mul_2/y", "op": "Const", "attr": {"value": {"tensor": {"dtype": "DT_FLOAT", "tensorShape": {}}}, "dtype": {"type": "DT_FLOAT"}}}, {"name": "StatefulPartitionedCall/meshgrid/ones/Const", "op": "Const", "attr": {"value": {"tensor": {"dtype": "DT_FLOAT", "tensorShape": {}}}, "dtype": {"type": "DT_FLOAT"}}}, {"name": "StatefulPartitionedCall/Reshape_1/shape", "op": "Const", "attr": {"value": {"tensor": {"dtype": "DT_INT32", "tensorShape": {"dim": [{"size": "2"}]}}}, "dtype": {"type": "DT_INT32"}}}, {"name": "StatefulPartitionedCall/concat/axis", "op": "Const", "attr": {"value": {"tensor": {"dtype": "DT_INT32", "tensorShape": {}}}, "dtype": {"type": "DT_INT32"}}}, {"name": "StatefulPartitionedCall/transpose/perm", "op": "Const", "attr": {"value": {"tensor": {"dtype": "DT_INT32", "tensorShape": {"dim": [{"size": "2"}]}}}, "dtype": {"type": "DT_INT32"}}}, {"name": "StatefulPartitionedCall/Reshape_3/shape", "op": "Const", "attr": {"value": {"tensor": {"dtype": "DT_INT32", "tensorShape": {"dim": [{"size": "3"}]}}}, "dtype": {"type": "DT_INT32"}}}, {"name": "StatefulPartitionedCall/transpose_1/perm", "op": "Const", "attr": {"value": {"tensor": {"dtype": "DT_INT32", "tensorShape": {"dim": [{"size": "3"}]}}}, "dtype": {"type": "DT_INT32"}}}, {"name": "ConstantFolding/StatefulPartitionedCall/truediv_1_recip", "op": "Const", "attr": {"value": {"tensor": {"dtype": "DT_DOUBLE", "tensorShape": {}}}, "dtype": {"type": "DT_DOUBLE"}}}, {"name": "ConstantFolding/StatefulPartitionedCall/truediv_2_recip", "op": "Const", "attr": {"value": {"tensor": {"dtype": "DT_DOUBLE", "tensorShape": {}}}, "dtype": {"type": "DT_DOUBLE"}}}, {"name": "StatefulPartitionedCall/Reshape_4/shape/2", "op": "Const", "attr": {"value": {"tensor": {"dtype": "DT_INT32", "tensorShape": {}}}, "dtype": {"type": "DT_INT32"}}}, {"name": "StatefulPartitionedCall/Reshape_4/shape/3", "op": "Const", "attr": {"value": {"tensor": {"dtype": "DT_INT32", "tensorShape": {}}}, "dtype": {"type": "DT_INT32"}}}, {"name": "StatefulPartitionedCall/strided_slice_5/stack", "op": "Const", "attr": {"value": {"tensor": {"dtype": "DT_INT32", "tensorShape": {"dim": [{"size": "4"}]}}}, "dtype": {"type": "DT_INT32"}}}, {"name": "StatefulPartitionedCall/strided_slice_5/stack_1", "op": "Const", "attr": {"value": {"tensor": {"dtype": "DT_INT32", "tensorShape": {"dim": [{"size": "4"}]}}}, "dtype": {"type": "DT_INT32"}}}, {"name": "StatefulPartitionedCall/strided_slice_5/stack_2", "op": "Const", "attr": {"value": {"tensor": {"dtype": "DT_INT32", "tensorShape": {"dim": [{"size": "4"}]}}}, "dtype": {"type": "DT_INT32"}}}, {"name": "StatefulPartitionedCall/add_2/y", "op": "Const", "attr": {"value": {"tensor": {"dtype": "DT_FLOAT", "tensorShape": {}}}, "dtype": {"type": "DT_FLOAT"}}}, {"name": "StatefulPartitionedCall/concat_1/axis", "op": "Const", "attr": {"value": {"tensor": {"dtype": "DT_INT32", "tensorShape": {}}}, "dtype": {"type": "DT_INT32"}}}, {"name": "StatefulPartitionedCall/Reshape_15/shape", "op": "Const", "attr": {"value": {"tensor": {"dtype": "DT_INT32", "tensorShape": {"dim": [{"size": "2"}]}}}, "dtype": {"type": "DT_INT32"}}}, {"name": "StatefulPartitionedCall/strided_slice_6/stack", "op": "Const", "attr": {"value": {"tensor": {"dtype": "DT_INT32", "tensorShape": {"dim": [{"size": "4"}]}}}, "dtype": {"type": "DT_INT32"}}}, {"name": "StatefulPartitionedCall/strided_slice_6/stack_1", "op": "Const", "attr": {"value": {"tensor": {"dtype": "DT_INT32", "tensorShape": {"dim": [{"size": "4"}]}}}, "dtype": {"type": "DT_INT32"}}}, {"name": "StatefulPartitionedCall/strided_slice_6/stack_2", "op": "Const", "attr": {"value": {"tensor": {"dtype": "DT_INT32", "tensorShape": {"dim": [{"size": "4"}]}}}, "dtype": {"type": "DT_INT32"}}}, {"name": "StatefulPartitionedCall/strided_slice_7/stack", "op": "Const", "attr": {"value": {"tensor": {"dtype": "DT_INT32", "tensorShape": {"dim": [{"size": "4"}]}}}, "dtype": {"type": "DT_INT32"}}}, {"name": "StatefulPartitionedCall/strided_slice_7/stack_1", "op": "Const", "attr": {"value": {"tensor": {"dtype": "DT_INT32", "tensorShape": {"dim": [{"size": "4"}]}}}, "dtype": {"type": "DT_INT32"}}}, {"name": "StatefulPartitionedCall/strided_slice_7/stack_2", "op": "Const", "attr": {"value": {"tensor": {"dtype": "DT_INT32", "tensorShape": {"dim": [{"size": "4"}]}}}, "dtype": {"type": "DT_INT32"}}}, {"name": "StatefulPartitionedCall/strided_slice_8/stack", "op": "Const", "attr": {"value": {"tensor": {"dtype": "DT_INT32", "tensorShape": {"dim": [{"size": "4"}]}}}, "dtype": {"type": "DT_INT32"}}}, {"name": "StatefulPartitionedCall/strided_slice_8/stack_1", "op": "Const", "attr": {"value": {"tensor": {"dtype": "DT_INT32", "tensorShape": {"dim": [{"size": "4"}]}}}, "dtype": {"type": "DT_INT32"}}}, {"name": "StatefulPartitionedCall/strided_slice_8/stack_2", "op": "Const", "attr": {"value": {"tensor": {"dtype": "DT_INT32", "tensorShape": {"dim": [{"size": "4"}]}}}, "dtype": {"type": "DT_INT32"}}}, {"name": "StatefulPartitionedCall/add_4/y", "op": "Const", "attr": {"value": {"tensor": {"dtype": "DT_FLOAT", "tensorShape": {}}}, "dtype": {"type": "DT_FLOAT"}}}, {"name": "StatefulPartitionedCall/Reshape_7", "op": "Const", "attr": {"value": {"tensor": {"dtype": "DT_FLOAT", "tensorShape": {"dim": [{"size": "1"}, {"size": "2"}, {"size": "4"}]}}}, "dtype": {"type": "DT_FLOAT"}}}, {"name": "StatefulPartitionedCall/meshgrid_1/Reshape_2/shape", "op": "Const", "attr": {"value": {"tensor": {"dtype": "DT_INT32", "tensorShape": {"dim": [{"size": "2"}]}}}, "dtype": {"type": "DT_INT32"}}}, {"name": "StatefulPartitionedCall/Reshape_5/shape", "op": "Const", "attr": {"value": {"tensor": {"dtype": "DT_INT32", "tensorShape": {"dim": [{"size": "2"}]}}}, "dtype": {"type": "DT_INT32"}}}, {"name": "StatefulPartitionedCall/meshgrid_1/Reshape_3/shape", "op": "Const", "attr": {"value": {"tensor": {"dtype": "DT_INT32", "tensorShape": {"dim": [{"size": "2"}]}}}, "dtype": {"type": "DT_INT32"}}}, {"name": "StatefulPartitionedCall/range_3/Cast", "op": "Const", "attr": {"value": {"tensor": {"dtype": "DT_FLOAT", "tensorShape": {}}}, "dtype": {"type": "DT_FLOAT"}}}, {"name": "StatefulPartitionedCall/range_3/Cast_1", "op": "Const", "attr": {"value": {"tensor": {"dtype": "DT_FLOAT", "tensorShape": {}}}, "dtype": {"type": "DT_FLOAT"}}}, {"name": "StatefulPartitionedCall/mul_5/y", "op": "Const", "attr": {"value": {"tensor": {"dtype": "DT_FLOAT", "tensorShape": {}}}, "dtype": {"type": "DT_FLOAT"}}}, {"name": "StatefulPartitionedCall/range_2/Cast", "op": "Const", "attr": {"value": {"tensor": {"dtype": "DT_FLOAT", "tensorShape": {}}}, "dtype": {"type": "DT_FLOAT"}}}, {"name": "StatefulPartitionedCall/range_2/Cast_1", "op": "Const", "attr": {"value": {"tensor": {"dtype": "DT_FLOAT", "tensorShape": {}}}, "dtype": {"type": "DT_FLOAT"}}}, {"name": "StatefulPartitionedCall/mul_4/y", "op": "Const", "attr": {"value": {"tensor": {"dtype": "DT_FLOAT", "tensorShape": {}}}, "dtype": {"type": "DT_FLOAT"}}}, {"name": "StatefulPartitionedCall/meshgrid_1/ones/Const", "op": "Const", "attr": {"value": {"tensor": {"dtype": "DT_FLOAT", "tensorShape": {}}}, "dtype": {"type": "DT_FLOAT"}}}, {"name": "StatefulPartitionedCall/Reshape_6/shape", "op": "Const", "attr": {"value": {"tensor": {"dtype": "DT_INT32", "tensorShape": {"dim": [{"size": "2"}]}}}, "dtype": {"type": "DT_INT32"}}}, {"name": "StatefulPartitionedCall/concat_2/axis", "op": "Const", "attr": {"value": {"tensor": {"dtype": "DT_INT32", "tensorShape": {}}}, "dtype": {"type": "DT_INT32"}}}, {"name": "StatefulPartitionedCall/transpose_2/perm", "op": "Const", "attr": {"value": {"tensor": {"dtype": "DT_INT32", "tensorShape": {"dim": [{"size": "2"}]}}}, "dtype": {"type": "DT_INT32"}}}, {"name": "StatefulPartitionedCall/Reshape_8/shape", "op": "Const", "attr": {"value": {"tensor": {"dtype": "DT_INT32", "tensorShape": {"dim": [{"size": "3"}]}}}, "dtype": {"type": "DT_INT32"}}}, {"name": "StatefulPartitionedCall/transpose_3/perm", "op": "Const", "attr": {"value": {"tensor": {"dtype": "DT_INT32", "tensorShape": {"dim": [{"size": "3"}]}}}, "dtype": {"type": "DT_INT32"}}}, {"name": "ConstantFolding/StatefulPartitionedCall/truediv_7_recip", "op": "Const", "attr": {"value": {"tensor": {"dtype": "DT_DOUBLE", "tensorShape": {}}}, "dtype": {"type": "DT_DOUBLE"}}}, {"name": "ConstantFolding/StatefulPartitionedCall/truediv_8_recip", "op": "Const", "attr": {"value": {"tensor": {"dtype": "DT_DOUBLE", "tensorShape": {}}}, "dtype": {"type": "DT_DOUBLE"}}}, {"name": "StatefulPartitionedCall/Reshape_9/shape/2", "op": "Const", "attr": {"value": {"tensor": {"dtype": "DT_INT32", "tensorShape": {}}}, "dtype": {"type": "DT_INT32"}}}, {"name": "StatefulPartitionedCall/Reshape_9/shape/3", "op": "Const", "attr": {"value": {"tensor": {"dtype": "DT_INT32", "tensorShape": {}}}, "dtype": {"type": "DT_INT32"}}}, {"name": "StatefulPartitionedCall/strided_slice_9/stack", "op": "Const", "attr": {"value": {"tensor": {"dtype": "DT_INT32", "tensorShape": {"dim": [{"size": "4"}]}}}, "dtype": {"type": "DT_INT32"}}}, {"name": "StatefulPartitionedCall/strided_slice_9/stack_1", "op": "Const", "attr": {"value": {"tensor": {"dtype": "DT_INT32", "tensorShape": {"dim": [{"size": "4"}]}}}, "dtype": {"type": "DT_INT32"}}}, {"name": "StatefulPartitionedCall/strided_slice_9/stack_2", "op": "Const", "attr": {"value": {"tensor": {"dtype": "DT_INT32", "tensorShape": {"dim": [{"size": "4"}]}}}, "dtype": {"type": "DT_INT32"}}}, {"name": "StatefulPartitionedCall/add_5/y", "op": "Const", "attr": {"value": {"tensor": {"dtype": "DT_FLOAT", "tensorShape": {}}}, "dtype": {"type": "DT_FLOAT"}}}, {"name": "StatefulPartitionedCall/concat_3/axis", "op": "Const", "attr": {"value": {"tensor": {"dtype": "DT_INT32", "tensorShape": {}}}, "dtype": {"type": "DT_INT32"}}}, {"name": "StatefulPartitionedCall/Reshape_16/shape", "op": "Const", "attr": {"value": {"tensor": {"dtype": "DT_INT32", "tensorShape": {"dim": [{"size": "2"}]}}}, "dtype": {"type": "DT_INT32"}}}, {"name": "StatefulPartitionedCall/strided_slice_10/stack", "op": "Const", "attr": {"value": {"tensor": {"dtype": "DT_INT32", "tensorShape": {"dim": [{"size": "4"}]}}}, "dtype": {"type": "DT_INT32"}}}, {"name": "StatefulPartitionedCall/strided_slice_10/stack_1", "op": "Const", "attr": {"value": {"tensor": {"dtype": "DT_INT32", "tensorShape": {"dim": [{"size": "4"}]}}}, "dtype": {"type": "DT_INT32"}}}, {"name": "StatefulPartitionedCall/strided_slice_10/stack_2", "op": "Const", "attr": {"value": {"tensor": {"dtype": "DT_INT32", "tensorShape": {"dim": [{"size": "4"}]}}}, "dtype": {"type": "DT_INT32"}}}, {"name": "StatefulPartitionedCall/strided_slice_11/stack", "op": "Const", "attr": {"value": {"tensor": {"dtype": "DT_INT32", "tensorShape": {"dim": [{"size": "4"}]}}}, "dtype": {"type": "DT_INT32"}}}, {"name": "StatefulPartitionedCall/strided_slice_11/stack_1", "op": "Const", "attr": {"value": {"tensor": {"dtype": "DT_INT32", "tensorShape": {"dim": [{"size": "4"}]}}}, "dtype": {"type": "DT_INT32"}}}, {"name": "StatefulPartitionedCall/strided_slice_11/stack_2", "op": "Const", "attr": {"value": {"tensor": {"dtype": "DT_INT32", "tensorShape": {"dim": [{"size": "4"}]}}}, "dtype": {"type": "DT_INT32"}}}, {"name": "StatefulPartitionedCall/strided_slice_12/stack", "op": "Const", "attr": {"value": {"tensor": {"dtype": "DT_INT32", "tensorShape": {"dim": [{"size": "4"}]}}}, "dtype": {"type": "DT_INT32"}}}, {"name": "StatefulPartitionedCall/strided_slice_12/stack_1", "op": "Const", "attr": {"value": {"tensor": {"dtype": "DT_INT32", "tensorShape": {"dim": [{"size": "4"}]}}}, "dtype": {"type": "DT_INT32"}}}, {"name": "StatefulPartitionedCall/strided_slice_12/stack_2", "op": "Const", "attr": {"value": {"tensor": {"dtype": "DT_INT32", "tensorShape": {"dim": [{"size": "4"}]}}}, "dtype": {"type": "DT_INT32"}}}, {"name": "StatefulPartitionedCall/add_7/y", "op": "Const", "attr": {"value": {"tensor": {"dtype": "DT_FLOAT", "tensorShape": {}}}, "dtype": {"type": "DT_FLOAT"}}}, {"name": "StatefulPartitionedCall/Reshape_12", "op": "Const", "attr": {"value": {"tensor": {"dtype": "DT_FLOAT", "tensorShape": {"dim": [{"size": "1"}, {"size": "2"}, {"size": "4"}]}}}, "dtype": {"type": "DT_FLOAT"}}}, {"name": "StatefulPartitionedCall/meshgrid_2/Reshape_2/shape", "op": "Const", "attr": {"value": {"tensor": {"dtype": "DT_INT32", "tensorShape": {"dim": [{"size": "2"}]}}}, "dtype": {"type": "DT_INT32"}}}, {"name": "StatefulPartitionedCall/Reshape_10/shape", "op": "Const", "attr": {"value": {"tensor": {"dtype": "DT_INT32", "tensorShape": {"dim": [{"size": "2"}]}}}, "dtype": {"type": "DT_INT32"}}}, {"name": "StatefulPartitionedCall/meshgrid_2/Reshape_3/shape", "op": "Const", "attr": {"value": {"tensor": {"dtype": "DT_INT32", "tensorShape": {"dim": [{"size": "2"}]}}}, "dtype": {"type": "DT_INT32"}}}, {"name": "StatefulPartitionedCall/range_5/Cast", "op": "Const", "attr": {"value": {"tensor": {"dtype": "DT_FLOAT", "tensorShape": {}}}, "dtype": {"type": "DT_FLOAT"}}}, {"name": "StatefulPartitionedCall/range_5/Cast_1", "op": "Const", "attr": {"value": {"tensor": {"dtype": "DT_FLOAT", "tensorShape": {}}}, "dtype": {"type": "DT_FLOAT"}}}, {"name": "StatefulPartitionedCall/mul_7/y", "op": "Const", "attr": {"value": {"tensor": {"dtype": "DT_FLOAT", "tensorShape": {}}}, "dtype": {"type": "DT_FLOAT"}}}, {"name": "StatefulPartitionedCall/range_4/Cast", "op": "Const", "attr": {"value": {"tensor": {"dtype": "DT_FLOAT", "tensorShape": {}}}, "dtype": {"type": "DT_FLOAT"}}}, {"name": "StatefulPartitionedCall/range_4/Cast_1", "op": "Const", "attr": {"value": {"tensor": {"dtype": "DT_FLOAT", "tensorShape": {}}}, "dtype": {"type": "DT_FLOAT"}}}, {"name": "StatefulPartitionedCall/mul_6/y", "op": "Const", "attr": {"value": {"tensor": {"dtype": "DT_FLOAT", "tensorShape": {}}}, "dtype": {"type": "DT_FLOAT"}}}, {"name": "StatefulPartitionedCall/meshgrid_2/ones/Const", "op": "Const", "attr": {"value": {"tensor": {"dtype": "DT_FLOAT", "tensorShape": {}}}, "dtype": {"type": "DT_FLOAT"}}}, {"name": "StatefulPartitionedCall/Reshape_11/shape", "op": "Const", "attr": {"value": {"tensor": {"dtype": "DT_INT32", "tensorShape": {"dim": [{"size": "2"}]}}}, "dtype": {"type": "DT_INT32"}}}, {"name": "StatefulPartitionedCall/concat_4/axis", "op": "Const", "attr": {"value": {"tensor": {"dtype": "DT_INT32", "tensorShape": {}}}, "dtype": {"type": "DT_INT32"}}}, {"name": "StatefulPartitionedCall/transpose_4/perm", "op": "Const", "attr": {"value": {"tensor": {"dtype": "DT_INT32", "tensorShape": {"dim": [{"size": "2"}]}}}, "dtype": {"type": "DT_INT32"}}}, {"name": "StatefulPartitionedCall/Reshape_13/shape", "op": "Const", "attr": {"value": {"tensor": {"dtype": "DT_INT32", "tensorShape": {"dim": [{"size": "3"}]}}}, "dtype": {"type": "DT_INT32"}}}, {"name": "StatefulPartitionedCall/transpose_5/perm", "op": "Const", "attr": {"value": {"tensor": {"dtype": "DT_INT32", "tensorShape": {"dim": [{"size": "3"}]}}}, "dtype": {"type": "DT_INT32"}}}, {"name": "ConstantFolding/StatefulPartitionedCall/truediv_13_recip", "op": "Const", "attr": {"value": {"tensor": {"dtype": "DT_DOUBLE", "tensorShape": {}}}, "dtype": {"type": "DT_DOUBLE"}}}, {"name": "StatefulPartitionedCall/strided_slice_1/stack", "op": "Const", "attr": {"value": {"tensor": {"dtype": "DT_INT32", "tensorShape": {"dim": [{"size": "1"}]}}}, "dtype": {"type": "DT_INT32"}}}, {"name": "StatefulPartitionedCall/strided_slice_1/stack_1", "op": "Const", "attr": {"value": {"tensor": {"dtype": "DT_INT32", "tensorShape": {"dim": [{"size": "1"}]}}}, "dtype": {"type": "DT_INT32"}}}, {"name": "StatefulPartitionedCall/strided_slice_1/stack_2", "op": "Const", "attr": {"value": {"tensor": {"dtype": "DT_INT32", "tensorShape": {"dim": [{"size": "1"}]}}}, "dtype": {"type": "DT_INT32"}}}, {"name": "ConstantFolding/StatefulPartitionedCall/truediv_14_recip", "op": "Const", "attr": {"value": {"tensor": {"dtype": "DT_DOUBLE", "tensorShape": {}}}, "dtype": {"type": "DT_DOUBLE"}}}, {"name": "StatefulPartitionedCall/Reshape_14/shape/2", "op": "Const", "attr": {"value": {"tensor": {"dtype": "DT_INT32", "tensorShape": {}}}, "dtype": {"type": "DT_INT32"}}}, {"name": "StatefulPartitionedCall/Reshape_14/shape/3", "op": "Const", "attr": {"value": {"tensor": {"dtype": "DT_INT32", "tensorShape": {}}}, "dtype": {"type": "DT_INT32"}}}, {"name": "StatefulPartitionedCall/strided_slice_13/stack", "op": "Const", "attr": {"value": {"tensor": {"dtype": "DT_INT32", "tensorShape": {"dim": [{"size": "4"}]}}}, "dtype": {"type": "DT_INT32"}}}, {"name": "StatefulPartitionedCall/strided_slice_13/stack_1", "op": "Const", "attr": {"value": {"tensor": {"dtype": "DT_INT32", "tensorShape": {"dim": [{"size": "4"}]}}}, "dtype": {"type": "DT_INT32"}}}, {"name": "StatefulPartitionedCall/strided_slice_13/stack_2", "op": "Const", "attr": {"value": {"tensor": {"dtype": "DT_INT32", "tensorShape": {"dim": [{"size": "4"}]}}}, "dtype": {"type": "DT_INT32"}}}, {"name": "StatefulPartitionedCall/add_8/y", "op": "Const", "attr": {"value": {"tensor": {"dtype": "DT_FLOAT", "tensorShape": {}}}, "dtype": {"type": "DT_FLOAT"}}}, {"name": "StatefulPartitionedCall/strided_slice/stack", "op": "Const", "attr": {"value": {"tensor": {"dtype": "DT_INT32", "tensorShape": {"dim": [{"size": "1"}]}}}, "dtype": {"type": "DT_INT32"}}}, {"name": "StatefulPartitionedCall/strided_slice/stack_1", "op": "Const", "attr": {"value": {"tensor": {"dtype": "DT_INT32", "tensorShape": {"dim": [{"size": "1"}]}}}, "dtype": {"type": "DT_INT32"}}}, {"name": "StatefulPartitionedCall/strided_slice/stack_2", "op": "Const", "attr": {"value": {"tensor": {"dtype": "DT_INT32", "tensorShape": {"dim": [{"size": "1"}]}}}, "dtype": {"type": "DT_INT32"}}}, {"name": "StatefulPartitionedCall/concat_5/axis", "op": "Const", "attr": {"value": {"tensor": {"dtype": "DT_INT32", "tensorShape": {}}}, "dtype": {"type": "DT_INT32"}}}, {"name": "StatefulPartitionedCall/Reshape_17/shape", "op": "Const", "attr": {"value": {"tensor": {"dtype": "DT_INT32", "tensorShape": {"dim": [{"size": "2"}]}}}, "dtype": {"type": "DT_INT32"}}}, {"name": "StatefulPartitionedCall/concat_6/axis", "op": "Const", "attr": {"value": {"tensor": {"dtype": "DT_INT32", "tensorShape": {}}}, "dtype": {"type": "DT_INT32"}}}, {"name": "StatefulPartitionedCall/postprocessing/ExpandDims/dim", "op": "Const", "attr": {"value": {"tensor": {"dtype": "DT_INT32", "tensorShape": {}}}, "dtype": {"type": "DT_INT32"}}}, {"name": "StatefulPartitionedCall/postprocessing/Tile/multiples/1", "op": "Const", "attr": {"value": {"tensor": {"dtype": "DT_INT32", "tensorShape": {}}}, "dtype": {"type": "DT_INT32"}}}, {"name": "StatefulPartitionedCall/postprocessing/Tile/multiples/2", "op": "Const", "attr": {"value": {"tensor": {"dtype": "DT_INT32", "tensorShape": {}}}, "dtype": {"type": "DT_INT32"}}}, {"name": "StatefulPartitionedCall/postprocessing/Reshape_1/shape", "op": "Const", "attr": {"value": {"tensor": {"dtype": "DT_INT32", "tensorShape": {"dim": [{"size": "2"}]}}}, "dtype": {"type": "DT_INT32"}}}, {"name": "StatefulPartitionedCall/postprocessing/decode_predictions/strided_slice_7/stack", "op": "Const", "attr": {"value": {"tensor": {"dtype": "DT_INT32", "tensorShape": {"dim": [{"size": "2"}]}}}, "dtype": {"type": "DT_INT32"}}}, {"name": "StatefulPartitionedCall/postprocessing/decode_predictions/strided_slice_7/stack_1", "op": "Const", "attr": {"value": {"tensor": {"dtype": "DT_INT32", "tensorShape": {"dim": [{"size": "2"}]}}}, "dtype": {"type": "DT_INT32"}}}, {"name": "StatefulPartitionedCall/postprocessing/decode_predictions/strided_slice_7/stack_2", "op": "Const", "attr": {"value": {"tensor": {"dtype": "DT_INT32", "tensorShape": {"dim": [{"size": "2"}]}}}, "dtype": {"type": "DT_INT32"}}}, {"name": "StatefulPartitionedCall/postprocessing/strided_slice/stack", "op": "Const", "attr": {"value": {"tensor": {"dtype": "DT_INT32", "tensorShape": {"dim": [{"size": "1"}]}}}, "dtype": {"type": "DT_INT32"}}}, {"name": "StatefulPartitionedCall/postprocessing/strided_slice/stack_1", "op": "Const", "attr": {"value": {"tensor": {"dtype": "DT_INT32", "tensorShape": {"dim": [{"size": "1"}]}}}, "dtype": {"type": "DT_INT32"}}}, {"name": "StatefulPartitionedCall/postprocessing/strided_slice/stack_2", "op": "Const", "attr": {"value": {"tensor": {"dtype": "DT_INT32", "tensorShape": {"dim": [{"size": "1"}]}}}, "dtype": {"type": "DT_INT32"}}}, {"name": "StatefulPartitionedCall/ssd_head/conv2d_13/Conv2D/ReadVariableOp", "op": "Const", "attr": {"value": {"tensor": {"dtype": "DT_FLOAT", "tensorShape": {"dim": [{"size": "1"}, {"size": "1"}, {"size": "192"}, {"size": "8"}]}}}, "dtype": {"type": "DT_FLOAT"}}}, {"name": "StatefulPartitionedCall/ssd_head/conv2d_13/BiasAdd/ReadVariableOp", "op": "Const", "attr": {"value": {"tensor": {"dtype": "DT_FLOAT", "tensorShape": {"dim": [{"size": "8"}]}}}, "dtype": {"type": "DT_FLOAT"}}}, {"name": "StatefulPartitionedCall/ssd_head/Reshape_1/shape/0", "op": "Const", "attr": {"value": {"tensor": {"dtype": "DT_INT32", "tensorShape": {}}}, "dtype": {"type": "DT_INT32"}}}, {"name": "StatefulPartitionedCall/ssd_head/mul_1/y", "op": "Const", "attr": {"value": {"tensor": {"dtype": "DT_INT32", "tensorShape": {}}}, "dtype": {"type": "DT_INT32"}}}, {"name": "StatefulPartitionedCall/ssd_head/Reshape_1/shape/2", "op": "Const", "attr": {"value": {"tensor": {"dtype": "DT_INT32", "tensorShape": {}}}, "dtype": {"type": "DT_INT32"}}}, {"name": "StatefulPartitionedCall/ssd_head/conv2d_14/Conv2D/ReadVariableOp", "op": "Const", "attr": {"value": {"tensor": {"dtype": "DT_FLOAT", "tensorShape": {"dim": [{"size": "1"}, {"size": "1"}, {"size": "192"}, {"size": "8"}]}}}, "dtype": {"type": "DT_FLOAT"}}}, {"name": "StatefulPartitionedCall/ssd_head/conv2d_14/BiasAdd/ReadVariableOp", "op": "Const", "attr": {"value": {"tensor": {"dtype": "DT_FLOAT", "tensorShape": {"dim": [{"size": "8"}]}}}, "dtype": {"type": "DT_FLOAT"}}}, {"name": "StatefulPartitionedCall/ssd_head/Reshape_5/shape/0", "op": "Const", "attr": {"value": {"tensor": {"dtype": "DT_INT32", "tensorShape": {}}}, "dtype": {"type": "DT_INT32"}}}, {"name": "StatefulPartitionedCall/ssd_head/mul_5/y", "op": "Const", "attr": {"value": {"tensor": {"dtype": "DT_INT32", "tensorShape": {}}}, "dtype": {"type": "DT_INT32"}}}, {"name": "StatefulPartitionedCall/ssd_head/Reshape_5/shape/2", "op": "Const", "attr": {"value": {"tensor": {"dtype": "DT_INT32", "tensorShape": {}}}, "dtype": {"type": "DT_INT32"}}}, {"name": "StatefulPartitionedCall/ssd_head/conv2d_15/Conv2D/ReadVariableOp", "op": "Const", "attr": {"value": {"tensor": {"dtype": "DT_FLOAT", "tensorShape": {"dim": [{"size": "1"}, {"size": "1"}, {"size": "192"}, {"size": "8"}]}}}, "dtype": {"type": "DT_FLOAT"}}}, {"name": "StatefulPartitionedCall/ssd_head/conv2d_15/BiasAdd/ReadVariableOp", "op": "Const", "attr": {"value": {"tensor": {"dtype": "DT_FLOAT", "tensorShape": {"dim": [{"size": "8"}]}}}, "dtype": {"type": "DT_FLOAT"}}}, {"name": "StatefulPartitionedCall/ssd_head/Reshape_9/shape/0", "op": "Const", "attr": {"value": {"tensor": {"dtype": "DT_INT32", "tensorShape": {}}}, "dtype": {"type": "DT_INT32"}}}, {"name": "StatefulPartitionedCall/ssd_head/mul_9/y", "op": "Const", "attr": {"value": {"tensor": {"dtype": "DT_INT32", "tensorShape": {}}}, "dtype": {"type": "DT_INT32"}}}, {"name": "StatefulPartitionedCall/ssd_head/Reshape_9/shape/2", "op": "Const", "attr": {"value": {"tensor": {"dtype": "DT_INT32", "tensorShape": {}}}, "dtype": {"type": "DT_INT32"}}}, {"name": "StatefulPartitionedCall/ssd_head/concat/axis", "op": "Const", "attr": {"value": {"tensor": {"dtype": "DT_INT32", "tensorShape": {}}}, "dtype": {"type": "DT_INT32"}}}, {"name": "StatefulPartitionedCall/postprocessing/strided_slice_1/stack", "op": "Const", "attr": {"value": {"tensor": {"dtype": "DT_INT32", "tensorShape": {"dim": [{"size": "1"}]}}}, "dtype": {"type": "DT_INT32"}}}, {"name": "StatefulPartitionedCall/postprocessing/strided_slice_1/stack_1", "op": "Const", "attr": {"value": {"tensor": {"dtype": "DT_INT32", "tensorShape": {"dim": [{"size": "1"}]}}}, "dtype": {"type": "DT_INT32"}}}, {"name": "StatefulPartitionedCall/postprocessing/strided_slice_1/stack_2", "op": "Const", "attr": {"value": {"tensor": {"dtype": "DT_INT32", "tensorShape": {"dim": [{"size": "1"}]}}}, "dtype": {"type": "DT_INT32"}}}, {"name": "StatefulPartitionedCall/postprocessing/Reshape_2/shape/2", "op": "Const", "attr": {"value": {"tensor": {"dtype": "DT_INT32", "tensorShape": {}}}, "dtype": {"type": "DT_INT32"}}}, {"name": "StatefulPartitionedCall/postprocessing/clip_by_value/Minimum/y", "op": "Const", "attr": {"value": {"tensor": {"dtype": "DT_FLOAT", "tensorShape": {}}}, "dtype": {"type": "DT_FLOAT"}}}, {"name": "StatefulPartitionedCall/postprocessing/clip_by_value/y", "op": "Const", "attr": {"value": {"tensor": {"dtype": "DT_FLOAT", "tensorShape": {}}}, "dtype": {"type": "DT_FLOAT"}}}, {"name": "StatefulPartitionedCall/ssd_head/conv2d_16/Conv2D/ReadVariableOp", "op": "Const", "attr": {"value": {"tensor": {"dtype": "DT_FLOAT", "tensorShape": {"dim": [{"size": "1"}, {"size": "1"}, {"size": "192"}, {"size": "4"}]}}}, "dtype": {"type": "DT_FLOAT"}}}, {"name": "StatefulPartitionedCall/ssd_head/conv2d_16/BiasAdd/ReadVariableOp", "op": "Const", "attr": {"value": {"tensor": {"dtype": "DT_FLOAT", "tensorShape": {"dim": [{"size": "4"}]}}}, "dtype": {"type": "DT_FLOAT"}}}, {"name": "StatefulPartitionedCall/ssd_head/Reshape_3/shape/0", "op": "Const", "attr": {"value": {"tensor": {"dtype": "DT_INT32", "tensorShape": {}}}, "dtype": {"type": "DT_INT32"}}}, {"name": "StatefulPartitionedCall/ssd_head/strided_slice/stack", "op": "Const", "attr": {"value": {"tensor": {"dtype": "DT_INT32", "tensorShape": {"dim": [{"size": "1"}]}}}, "dtype": {"type": "DT_INT32"}}}, {"name": "StatefulPartitionedCall/ssd_head/strided_slice/stack_1", "op": "Const", "attr": {"value": {"tensor": {"dtype": "DT_INT32", "tensorShape": {"dim": [{"size": "1"}]}}}, "dtype": {"type": "DT_INT32"}}}, {"name": "StatefulPartitionedCall/ssd_head/strided_slice/stack_2", "op": "Const", "attr": {"value": {"tensor": {"dtype": "DT_INT32", "tensorShape": {"dim": [{"size": "1"}]}}}, "dtype": {"type": "DT_INT32"}}}, {"name": "StatefulPartitionedCall/ssd_head/mul_3/y", "op": "Const", "attr": {"value": {"tensor": {"dtype": "DT_INT32", "tensorShape": {}}}, "dtype": {"type": "DT_INT32"}}}, {"name": "StatefulPartitionedCall/cpm/sequential_13/separable_conv2d_12/separable_conv2d/SpaceToBatchND/block_shape", "op": "Const", "attr": {"value": {"tensor": {"dtype": "DT_INT32", "tensorShape": {"dim": [{"size": "2"}]}}}, "dtype": {"type": "DT_INT32"}}}, {"name": "StatefulPartitionedCall/cpm/sequential_13/separable_conv2d_12/separable_conv2d/required_space_to_batch_paddings/strided_slice_2", "op": "Const", "attr": {"value": {"tensor": {"dtype": "DT_INT32", "tensorShape": {}}}, "dtype": {"type": "DT_INT32"}}}, {"name": "StatefulPartitionedCall/cpm/sequential_13/separable_conv2d_12/separable_conv2d/required_space_to_batch_paddings/strided_slice_3/stack", "op": "Const", "attr": {"value": {"tensor": {"dtype": "DT_INT32", "tensorShape": {"dim": [{"size": "1"}]}}}, "dtype": {"type": "DT_INT32"}}}, {"name": "StatefulPartitionedCall/cpm/sequential_13/separable_conv2d_12/separable_conv2d/required_space_to_batch_paddings/strided_slice_3/stack_1", "op": "Const", "attr": {"value": {"tensor": {"dtype": "DT_INT32", "tensorShape": {"dim": [{"size": "1"}]}}}, "dtype": {"type": "DT_INT32"}}}, {"name": "StatefulPartitionedCall/cpm/sequential_13/separable_conv2d_12/separable_conv2d/required_space_to_batch_paddings/strided_slice_3/stack_2", "op": "Const", "attr": {"value": {"tensor": {"dtype": "DT_INT32", "tensorShape": {"dim": [{"size": "1"}]}}}, "dtype": {"type": "DT_INT32"}}}, {"name": "StatefulPartitionedCall/cpm/sequential_13/separable_conv2d_12/separable_conv2d/required_space_to_batch_paddings/strided_slice_4", "op": "Const", "attr": {"value": {"tensor": {"dtype": "DT_INT32", "tensorShape": {}}}, "dtype": {"type": "DT_INT32"}}}, {"name": "StatefulPartitionedCall/cpm/sequential_13/separable_conv2d_12/separable_conv2d/required_space_to_batch_paddings/strided_slice_1", "op": "Const", "attr": {"value": {"tensor": {"dtype": "DT_INT32", "tensorShape": {"dim": [{"size": "2"}]}}}, "dtype": {"type": "DT_INT32"}}}, {"name": "StatefulPartitionedCall/cpm/sequential_13/separable_conv2d_12/separable_conv2d/required_space_to_batch_paddings/strided_slice_5/stack", "op": "Const", "attr": {"value": {"tensor": {"dtype": "DT_INT32", "tensorShape": {"dim": [{"size": "1"}]}}}, "dtype": {"type": "DT_INT32"}}}, {"name": "StatefulPartitionedCall/cpm/sequential_13/separable_conv2d_12/separable_conv2d/required_space_to_batch_paddings/strided_slice_5/stack_1", "op": "Const", "attr": {"value": {"tensor": {"dtype": "DT_INT32", "tensorShape": {"dim": [{"size": "1"}]}}}, "dtype": {"type": "DT_INT32"}}}, {"name": "StatefulPartitionedCall/cpm/sequential_13/separable_conv2d_12/separable_conv2d/required_space_to_batch_paddings/strided_slice_5/stack_2", "op": "Const", "attr": {"value": {"tensor": {"dtype": "DT_INT32", "tensorShape": {"dim": [{"size": "1"}]}}}, "dtype": {"type": "DT_INT32"}}}, {"name": "StatefulPartitionedCall/cpm/sequential_13/separable_conv2d_12/separable_conv2d/ReadVariableOp", "op": "Const", "attr": {"value": {"tensor": {"dtype": "DT_FLOAT", "tensorShape": {"dim": [{"size": "3"}, {"size": "3"}, {"size": "32"}, {"size": "1"}]}}}, "dtype": {"type": "DT_FLOAT"}}}, {"name": "StatefulPartitionedCall/cpm/sequential_13/separable_conv2d_12/separable_conv2d/BatchToSpaceND/block_shape", "op": "Const", "attr": {"value": {"tensor": {"dtype": "DT_INT32", "tensorShape": {"dim": [{"size": "2"}]}}}, "dtype": {"type": "DT_INT32"}}}, {"name": "StatefulPartitionedCall/cpm/sequential_13/separable_conv2d_12/separable_conv2d/required_space_to_batch_paddings/crops/0/0", "op": "Const", "attr": {"value": {"tensor": {"dtype": "DT_INT32", "tensorShape": {}}}, "dtype": {"type": "DT_INT32"}}}, {"name": "StatefulPartitionedCall/cpm/sequential_13/separable_conv2d_12/separable_conv2d/required_space_to_batch_paddings/strided_slice_6/stack", "op": "Const", "attr": {"value": {"tensor": {"dtype": "DT_INT32", "tensorShape": {"dim": [{"size": "1"}]}}}, "dtype": {"type": "DT_INT32"}}}, {"name": "StatefulPartitionedCall/cpm/sequential_13/separable_conv2d_12/separable_conv2d/required_space_to_batch_paddings/strided_slice_6/stack_1", "op": "Const", "attr": {"value": {"tensor": {"dtype": "DT_INT32", "tensorShape": {"dim": [{"size": "1"}]}}}, "dtype": {"type": "DT_INT32"}}}, {"name": "StatefulPartitionedCall/cpm/sequential_13/separable_conv2d_12/separable_conv2d/required_space_to_batch_paddings/strided_slice_6/stack_2", "op": "Const", "attr": {"value": {"tensor": {"dtype": "DT_INT32", "tensorShape": {"dim": [{"size": "1"}]}}}, "dtype": {"type": "DT_INT32"}}}, {"name": "StatefulPartitionedCall/cpm/sequential_13/separable_conv2d_12/separable_conv2d/required_space_to_batch_paddings/crops/1/0", "op": "Const", "attr": {"value": {"tensor": {"dtype": "DT_INT32", "tensorShape": {}}}, "dtype": {"type": "DT_INT32"}}}, {"name": "StatefulPartitionedCall/cpm/sequential_13/separable_conv2d_12/separable_conv2d/strided_slice/stack", "op": "Const", "attr": {"value": {"tensor": {"dtype": "DT_INT32", "tensorShape": {"dim": [{"size": "1"}]}}}, "dtype": {"type": "DT_INT32"}}}, {"name": "StatefulPartitionedCall/cpm/sequential_13/separable_conv2d_12/separable_conv2d/strided_slice/stack_1", "op": "Const", "attr": {"value": {"tensor": {"dtype": "DT_INT32", "tensorShape": {"dim": [{"size": "1"}]}}}, "dtype": {"type": "DT_INT32"}}}, {"name": "StatefulPartitionedCall/cpm/sequential_13/separable_conv2d_12/separable_conv2d/strided_slice/stack_2", "op": "Const", "attr": {"value": {"tensor": {"dtype": "DT_INT32", "tensorShape": {"dim": [{"size": "1"}]}}}, "dtype": {"type": "DT_INT32"}}}, {"name": "StatefulPartitionedCall/cpm/sequential_12/separable_conv2d_11/separable_conv2d/SpaceToBatchND/block_shape", "op": "Const", "attr": {"value": {"tensor": {"dtype": "DT_INT32", "tensorShape": {"dim": [{"size": "2"}]}}}, "dtype": {"type": "DT_INT32"}}}, {"name": "StatefulPartitionedCall/cpm/sequential_12/separable_conv2d_11/separable_conv2d/required_space_to_batch_paddings/strided_slice_2", "op": "Const", "attr": {"value": {"tensor": {"dtype": "DT_INT32", "tensorShape": {}}}, "dtype": {"type": "DT_INT32"}}}, {"name": "StatefulPartitionedCall/cpm/sequential_12/separable_conv2d_11/separable_conv2d/required_space_to_batch_paddings/strided_slice_3/stack", "op": "Const", "attr": {"value": {"tensor": {"dtype": "DT_INT32", "tensorShape": {"dim": [{"size": "1"}]}}}, "dtype": {"type": "DT_INT32"}}}, {"name": "StatefulPartitionedCall/cpm/sequential_12/separable_conv2d_11/separable_conv2d/required_space_to_batch_paddings/strided_slice_3/stack_1", "op": "Const", "attr": {"value": {"tensor": {"dtype": "DT_INT32", "tensorShape": {"dim": [{"size": "1"}]}}}, "dtype": {"type": "DT_INT32"}}}, {"name": "StatefulPartitionedCall/cpm/sequential_12/separable_conv2d_11/separable_conv2d/required_space_to_batch_paddings/strided_slice_3/stack_2", "op": "Const", "attr": {"value": {"tensor": {"dtype": "DT_INT32", "tensorShape": {"dim": [{"size": "1"}]}}}, "dtype": {"type": "DT_INT32"}}}, {"name": "StatefulPartitionedCall/cpm/sequential_12/separable_conv2d_11/separable_conv2d/required_space_to_batch_paddings/strided_slice_4", "op": "Const", "attr": {"value": {"tensor": {"dtype": "DT_INT32", "tensorShape": {}}}, "dtype": {"type": "DT_INT32"}}}, {"name": "StatefulPartitionedCall/cpm/sequential_12/separable_conv2d_11/separable_conv2d/required_space_to_batch_paddings/strided_slice_1", "op": "Const", "attr": {"value": {"tensor": {"dtype": "DT_INT32", "tensorShape": {"dim": [{"size": "2"}]}}}, "dtype": {"type": "DT_INT32"}}}, {"name": "StatefulPartitionedCall/cpm/sequential_12/separable_conv2d_11/separable_conv2d/required_space_to_batch_paddings/strided_slice_5/stack", "op": "Const", "attr": {"value": {"tensor": {"dtype": "DT_INT32", "tensorShape": {"dim": [{"size": "1"}]}}}, "dtype": {"type": "DT_INT32"}}}, {"name": "StatefulPartitionedCall/cpm/sequential_12/separable_conv2d_11/separable_conv2d/required_space_to_batch_paddings/strided_slice_5/stack_1", "op": "Const", "attr": {"value": {"tensor": {"dtype": "DT_INT32", "tensorShape": {"dim": [{"size": "1"}]}}}, "dtype": {"type": "DT_INT32"}}}, {"name": "StatefulPartitionedCall/cpm/sequential_12/separable_conv2d_11/separable_conv2d/required_space_to_batch_paddings/strided_slice_5/stack_2", "op": "Const", "attr": {"value": {"tensor": {"dtype": "DT_INT32", "tensorShape": {"dim": [{"size": "1"}]}}}, "dtype": {"type": "DT_INT32"}}}, {"name": "StatefulPartitionedCall/cpm/sequential_12/separable_conv2d_11/separable_conv2d/ReadVariableOp", "op": "Const", "attr": {"value": {"tensor": {"dtype": "DT_FLOAT", "tensorShape": {"dim": [{"size": "3"}, {"size": "3"}, {"size": "128"}, {"size": "1"}]}}}, "dtype": {"type": "DT_FLOAT"}}}, {"name": "StatefulPartitionedCall/cpm/sequential_12/separable_conv2d_11/separable_conv2d/BatchToSpaceND/block_shape", "op": "Const", "attr": {"value": {"tensor": {"dtype": "DT_INT32", "tensorShape": {"dim": [{"size": "2"}]}}}, "dtype": {"type": "DT_INT32"}}}, {"name": "StatefulPartitionedCall/cpm/sequential_12/separable_conv2d_11/separable_conv2d/required_space_to_batch_paddings/crops/0/0", "op": "Const", "attr": {"value": {"tensor": {"dtype": "DT_INT32", "tensorShape": {}}}, "dtype": {"type": "DT_INT32"}}}, {"name": "StatefulPartitionedCall/cpm/sequential_12/separable_conv2d_11/separable_conv2d/required_space_to_batch_paddings/strided_slice_6/stack", "op": "Const", "attr": {"value": {"tensor": {"dtype": "DT_INT32", "tensorShape": {"dim": [{"size": "1"}]}}}, "dtype": {"type": "DT_INT32"}}}, {"name": "StatefulPartitionedCall/cpm/sequential_12/separable_conv2d_11/separable_conv2d/required_space_to_batch_paddings/strided_slice_6/stack_1", "op": "Const", "attr": {"value": {"tensor": {"dtype": "DT_INT32", "tensorShape": {"dim": [{"size": "1"}]}}}, "dtype": {"type": "DT_INT32"}}}, {"name": "StatefulPartitionedCall/cpm/sequential_12/separable_conv2d_11/separable_conv2d/required_space_to_batch_paddings/strided_slice_6/stack_2", "op": "Const", "attr": {"value": {"tensor": {"dtype": "DT_INT32", "tensorShape": {"dim": [{"size": "1"}]}}}, "dtype": {"type": "DT_INT32"}}}, {"name": "StatefulPartitionedCall/cpm/sequential_12/separable_conv2d_11/separable_conv2d/required_space_to_batch_paddings/crops/1/0", "op": "Const", "attr": {"value": {"tensor": {"dtype": "DT_INT32", "tensorShape": {}}}, "dtype": {"type": "DT_INT32"}}}, {"name": "StatefulPartitionedCall/cpm/sequential_12/separable_conv2d_11/separable_conv2d/strided_slice/stack", "op": "Const", "attr": {"value": {"tensor": {"dtype": "DT_INT32", "tensorShape": {"dim": [{"size": "1"}]}}}, "dtype": {"type": "DT_INT32"}}}, {"name": "StatefulPartitionedCall/cpm/sequential_12/separable_conv2d_11/separable_conv2d/strided_slice/stack_1", "op": "Const", "attr": {"value": {"tensor": {"dtype": "DT_INT32", "tensorShape": {"dim": [{"size": "1"}]}}}, "dtype": {"type": "DT_INT32"}}}, {"name": "StatefulPartitionedCall/cpm/sequential_12/separable_conv2d_11/separable_conv2d/strided_slice/stack_2", "op": "Const", "attr": {"value": {"tensor": {"dtype": "DT_INT32", "tensorShape": {"dim": [{"size": "1"}]}}}, "dtype": {"type": "DT_INT32"}}}, {"name": "StatefulPartitionedCall/conv2d_11/Conv2D/ReadVariableOp", "op": "Const", "attr": {"value": {"tensor": {"dtype": "DT_FLOAT", "tensorShape": {"dim": [{"size": "1"}, {"size": "1"}, {"size": "128"}, {"size": "128"}]}}}, "dtype": {"type": "DT_FLOAT"}}}, {"name": "StatefulPartitionedCall/conv2d_11/BiasAdd/ReadVariableOp", "op": "Const", "attr": {"value": {"tensor": {"dtype": "DT_FLOAT", "tensorShape": {"dim": [{"size": "128"}]}}}, "dtype": {"type": "DT_FLOAT"}}}, {"name": "StatefulPartitionedCall/up_sampling2d_1/strided_slice/stack", "op": "Const", "attr": {"value": {"tensor": {"dtype": "DT_INT32", "tensorShape": {"dim": [{"size": "1"}]}}}, "dtype": {"type": "DT_INT32"}}}, {"name": "StatefulPartitionedCall/up_sampling2d_1/strided_slice/stack_1", "op": "Const", "attr": {"value": {"tensor": {"dtype": "DT_INT32", "tensorShape": {"dim": [{"size": "1"}]}}}, "dtype": {"type": "DT_INT32"}}}, {"name": "StatefulPartitionedCall/up_sampling2d_1/strided_slice/stack_2", "op": "Const", "attr": {"value": {"tensor": {"dtype": "DT_INT32", "tensorShape": {"dim": [{"size": "1"}]}}}, "dtype": {"type": "DT_INT32"}}}, {"name": "StatefulPartitionedCall/up_sampling2d_1/Const", "op": "Const", "attr": {"value": {"tensor": {"dtype": "DT_INT32", "tensorShape": {"dim": [{"size": "2"}]}}}, "dtype": {"type": "DT_INT32"}}}, {"name": "StatefulPartitionedCall/conv2d_12/Conv2D/ReadVariableOp", "op": "Const", "attr": {"value": {"tensor": {"dtype": "DT_FLOAT", "tensorShape": {"dim": [{"size": "1"}, {"size": "1"}, {"size": "64"}, {"size": "128"}]}}}, "dtype": {"type": "DT_FLOAT"}}}, {"name": "StatefulPartitionedCall/conv2d_12/BiasAdd/ReadVariableOp", "op": "Const", "attr": {"value": {"tensor": {"dtype": "DT_FLOAT", "tensorShape": {"dim": [{"size": "128"}]}}}, "dtype": {"type": "DT_FLOAT"}}}, {"name": "StatefulPartitionedCall/cpm/sequential_12/separable_conv2d_11/separable_conv2d/strided_slice_1/stack", "op": "Const", "attr": {"value": {"tensor": {"dtype": "DT_INT32", "tensorShape": {"dim": [{"size": "1"}]}}}, "dtype": {"type": "DT_INT32"}}}, {"name": "StatefulPartitionedCall/cpm/sequential_12/separable_conv2d_11/separable_conv2d/strided_slice_1/stack_1", "op": "Const", "attr": {"value": {"tensor": {"dtype": "DT_INT32", "tensorShape": {"dim": [{"size": "1"}]}}}, "dtype": {"type": "DT_INT32"}}}, {"name": "StatefulPartitionedCall/cpm/sequential_12/separable_conv2d_11/separable_conv2d/strided_slice_1/stack_2", "op": "Const", "attr": {"value": {"tensor": {"dtype": "DT_INT32", "tensorShape": {"dim": [{"size": "1"}]}}}, "dtype": {"type": "DT_INT32"}}}, {"name": "StatefulPartitionedCall/cpm/sequential_12/separable_conv2d_11/separable_conv2d/required_space_to_batch_paddings/add", "op": "Const", "attr": {"value": {"tensor": {"dtype": "DT_INT32", "tensorShape": {"dim": [{"size": "2"}]}}}, "dtype": {"type": "DT_INT32"}}}, {"name": "StatefulPartitionedCall/cpm/sequential_12/separable_conv2d_11/separable_conv2d/dilation_rate", "op": "Const", "attr": {"value": {"tensor": {"dtype": "DT_INT32", "tensorShape": {"dim": [{"size": "2"}]}}}, "dtype": {"type": "DT_INT32"}}}, {"name": "StatefulPartitionedCall/cpm/sequential_12/separable_conv2d_11/separable_conv2d/required_space_to_batch_paddings/strided_slice_7/stack", "op": "Const", "attr": {"value": {"tensor": {"dtype": "DT_INT32", "tensorShape": {"dim": [{"size": "1"}]}}}, "dtype": {"type": "DT_INT32"}}}, {"name": "StatefulPartitionedCall/cpm/sequential_12/separable_conv2d_11/separable_conv2d/required_space_to_batch_paddings/strided_slice_7/stack_1", "op": "Const", "attr": {"value": {"tensor": {"dtype": "DT_INT32", "tensorShape": {"dim": [{"size": "1"}]}}}, "dtype": {"type": "DT_INT32"}}}, {"name": "StatefulPartitionedCall/cpm/sequential_12/separable_conv2d_11/separable_conv2d/required_space_to_batch_paddings/strided_slice_7/stack_2", "op": "Const", "attr": {"value": {"tensor": {"dtype": "DT_INT32", "tensorShape": {"dim": [{"size": "1"}]}}}, "dtype": {"type": "DT_INT32"}}}, {"name": "StatefulPartitionedCall/cpm/sequential_13/separable_conv2d_12/separable_conv2d/strided_slice_1/stack", "op": "Const", "attr": {"value": {"tensor": {"dtype": "DT_INT32", "tensorShape": {"dim": [{"size": "1"}]}}}, "dtype": {"type": "DT_INT32"}}}, {"name": "StatefulPartitionedCall/cpm/sequential_13/separable_conv2d_12/separable_conv2d/strided_slice_1/stack_1", "op": "Const", "attr": {"value": {"tensor": {"dtype": "DT_INT32", "tensorShape": {"dim": [{"size": "1"}]}}}, "dtype": {"type": "DT_INT32"}}}, {"name": "StatefulPartitionedCall/cpm/sequential_13/separable_conv2d_12/separable_conv2d/strided_slice_1/stack_2", "op": "Const", "attr": {"value": {"tensor": {"dtype": "DT_INT32", "tensorShape": {"dim": [{"size": "1"}]}}}, "dtype": {"type": "DT_INT32"}}}, {"name": "StatefulPartitionedCall/cpm/sequential_13/separable_conv2d_12/separable_conv2d/required_space_to_batch_paddings/add", "op": "Const", "attr": {"value": {"tensor": {"dtype": "DT_INT32", "tensorShape": {"dim": [{"size": "2"}]}}}, "dtype": {"type": "DT_INT32"}}}, {"name": "StatefulPartitionedCall/cpm/sequential_13/separable_conv2d_12/separable_conv2d/dilation_rate", "op": "Const", "attr": {"value": {"tensor": {"dtype": "DT_INT32", "tensorShape": {"dim": [{"size": "2"}]}}}, "dtype": {"type": "DT_INT32"}}}, {"name": "StatefulPartitionedCall/cpm/sequential_13/separable_conv2d_12/separable_conv2d/required_space_to_batch_paddings/strided_slice_7/stack", "op": "Const", "attr": {"value": {"tensor": {"dtype": "DT_INT32", "tensorShape": {"dim": [{"size": "1"}]}}}, "dtype": {"type": "DT_INT32"}}}, {"name": "StatefulPartitionedCall/cpm/sequential_13/separable_conv2d_12/separable_conv2d/required_space_to_batch_paddings/strided_slice_7/stack_1", "op": "Const", "attr": {"value": {"tensor": {"dtype": "DT_INT32", "tensorShape": {"dim": [{"size": "1"}]}}}, "dtype": {"type": "DT_INT32"}}}, {"name": "StatefulPartitionedCall/cpm/sequential_13/separable_conv2d_12/separable_conv2d/required_space_to_batch_paddings/strided_slice_7/stack_2", "op": "Const", "attr": {"value": {"tensor": {"dtype": "DT_INT32", "tensorShape": {"dim": [{"size": "1"}]}}}, "dtype": {"type": "DT_INT32"}}}, {"name": "StatefulPartitionedCall/cpm/concat/axis", "op": "Const", "attr": {"value": {"tensor": {"dtype": "DT_INT32", "tensorShape": {}}}, "dtype": {"type": "DT_INT32"}}}, {"name": "StatefulPartitionedCall/ssd_head/strided_slice_1/stack", "op": "Const", "attr": {"value": {"tensor": {"dtype": "DT_INT32", "tensorShape": {"dim": [{"size": "1"}]}}}, "dtype": {"type": "DT_INT32"}}}, {"name": "StatefulPartitionedCall/ssd_head/strided_slice_1/stack_1", "op": "Const", "attr": {"value": {"tensor": {"dtype": "DT_INT32", "tensorShape": {"dim": [{"size": "1"}]}}}, "dtype": {"type": "DT_INT32"}}}, {"name": "StatefulPartitionedCall/ssd_head/strided_slice_1/stack_2", "op": "Const", "attr": {"value": {"tensor": {"dtype": "DT_INT32", "tensorShape": {"dim": [{"size": "1"}]}}}, "dtype": {"type": "DT_INT32"}}}, {"name": "StatefulPartitionedCall/ssd_head/Reshape_3/shape/2", "op": "Const", "attr": {"value": {"tensor": {"dtype": "DT_INT32", "tensorShape": {}}}, "dtype": {"type": "DT_INT32"}}}, {"name": "StatefulPartitionedCall/ssd_head/conv2d_17/Conv2D/ReadVariableOp", "op": "Const", "attr": {"value": {"tensor": {"dtype": "DT_FLOAT", "tensorShape": {"dim": [{"size": "1"}, {"size": "1"}, {"size": "192"}, {"size": "4"}]}}}, "dtype": {"type": "DT_FLOAT"}}}, {"name": "StatefulPartitionedCall/ssd_head/conv2d_17/BiasAdd/ReadVariableOp", "op": "Const", "attr": {"value": {"tensor": {"dtype": "DT_FLOAT", "tensorShape": {"dim": [{"size": "4"}]}}}, "dtype": {"type": "DT_FLOAT"}}}, {"name": "StatefulPartitionedCall/ssd_head/Reshape_7/shape/0", "op": "Const", "attr": {"value": {"tensor": {"dtype": "DT_INT32", "tensorShape": {}}}, "dtype": {"type": "DT_INT32"}}}, {"name": "StatefulPartitionedCall/ssd_head/strided_slice_2/stack", "op": "Const", "attr": {"value": {"tensor": {"dtype": "DT_INT32", "tensorShape": {"dim": [{"size": "1"}]}}}, "dtype": {"type": "DT_INT32"}}}, {"name": "StatefulPartitionedCall/ssd_head/strided_slice_2/stack_1", "op": "Const", "attr": {"value": {"tensor": {"dtype": "DT_INT32", "tensorShape": {"dim": [{"size": "1"}]}}}, "dtype": {"type": "DT_INT32"}}}, {"name": "StatefulPartitionedCall/ssd_head/strided_slice_2/stack_2", "op": "Const", "attr": {"value": {"tensor": {"dtype": "DT_INT32", "tensorShape": {"dim": [{"size": "1"}]}}}, "dtype": {"type": "DT_INT32"}}}, {"name": "StatefulPartitionedCall/ssd_head/mul_7/y", "op": "Const", "attr": {"value": {"tensor": {"dtype": "DT_INT32", "tensorShape": {}}}, "dtype": {"type": "DT_INT32"}}}, {"name": "StatefulPartitionedCall/cpm_1/sequential_15/separable_conv2d_14/separable_conv2d/SpaceToBatchND/block_shape", "op": "Const", "attr": {"value": {"tensor": {"dtype": "DT_INT32", "tensorShape": {"dim": [{"size": "2"}]}}}, "dtype": {"type": "DT_INT32"}}}, {"name": "StatefulPartitionedCall/cpm_1/sequential_15/separable_conv2d_14/separable_conv2d/required_space_to_batch_paddings/strided_slice_2", "op": "Const", "attr": {"value": {"tensor": {"dtype": "DT_INT32", "tensorShape": {}}}, "dtype": {"type": "DT_INT32"}}}, {"name": "StatefulPartitionedCall/cpm_1/sequential_15/separable_conv2d_14/separable_conv2d/required_space_to_batch_paddings/strided_slice_3/stack", "op": "Const", "attr": {"value": {"tensor": {"dtype": "DT_INT32", "tensorShape": {"dim": [{"size": "1"}]}}}, "dtype": {"type": "DT_INT32"}}}, {"name": "StatefulPartitionedCall/cpm_1/sequential_15/separable_conv2d_14/separable_conv2d/required_space_to_batch_paddings/strided_slice_3/stack_1", "op": "Const", "attr": {"value": {"tensor": {"dtype": "DT_INT32", "tensorShape": {"dim": [{"size": "1"}]}}}, "dtype": {"type": "DT_INT32"}}}, {"name": "StatefulPartitionedCall/cpm_1/sequential_15/separable_conv2d_14/separable_conv2d/required_space_to_batch_paddings/strided_slice_3/stack_2", "op": "Const", "attr": {"value": {"tensor": {"dtype": "DT_INT32", "tensorShape": {"dim": [{"size": "1"}]}}}, "dtype": {"type": "DT_INT32"}}}, {"name": "StatefulPartitionedCall/cpm_1/sequential_15/separable_conv2d_14/separable_conv2d/required_space_to_batch_paddings/strided_slice_4", "op": "Const", "attr": {"value": {"tensor": {"dtype": "DT_INT32", "tensorShape": {}}}, "dtype": {"type": "DT_INT32"}}}, {"name": "StatefulPartitionedCall/cpm_1/sequential_15/separable_conv2d_14/separable_conv2d/required_space_to_batch_paddings/strided_slice_1", "op": "Const", "attr": {"value": {"tensor": {"dtype": "DT_INT32", "tensorShape": {"dim": [{"size": "2"}]}}}, "dtype": {"type": "DT_INT32"}}}, {"name": "StatefulPartitionedCall/cpm_1/sequential_15/separable_conv2d_14/separable_conv2d/required_space_to_batch_paddings/strided_slice_5/stack", "op": "Const", "attr": {"value": {"tensor": {"dtype": "DT_INT32", "tensorShape": {"dim": [{"size": "1"}]}}}, "dtype": {"type": "DT_INT32"}}}, {"name": "StatefulPartitionedCall/cpm_1/sequential_15/separable_conv2d_14/separable_conv2d/required_space_to_batch_paddings/strided_slice_5/stack_1", "op": "Const", "attr": {"value": {"tensor": {"dtype": "DT_INT32", "tensorShape": {"dim": [{"size": "1"}]}}}, "dtype": {"type": "DT_INT32"}}}, {"name": "StatefulPartitionedCall/cpm_1/sequential_15/separable_conv2d_14/separable_conv2d/required_space_to_batch_paddings/strided_slice_5/stack_2", "op": "Const", "attr": {"value": {"tensor": {"dtype": "DT_INT32", "tensorShape": {"dim": [{"size": "1"}]}}}, "dtype": {"type": "DT_INT32"}}}, {"name": "StatefulPartitionedCall/cpm_1/sequential_15/separable_conv2d_14/separable_conv2d/ReadVariableOp", "op": "Const", "attr": {"value": {"tensor": {"dtype": "DT_FLOAT", "tensorShape": {"dim": [{"size": "3"}, {"size": "3"}, {"size": "32"}, {"size": "1"}]}}}, "dtype": {"type": "DT_FLOAT"}}}, {"name": "StatefulPartitionedCall/cpm_1/sequential_15/separable_conv2d_14/separable_conv2d/BatchToSpaceND/block_shape", "op": "Const", "attr": {"value": {"tensor": {"dtype": "DT_INT32", "tensorShape": {"dim": [{"size": "2"}]}}}, "dtype": {"type": "DT_INT32"}}}, {"name": "StatefulPartitionedCall/cpm_1/sequential_15/separable_conv2d_14/separable_conv2d/required_space_to_batch_paddings/crops/0/0", "op": "Const", "attr": {"value": {"tensor": {"dtype": "DT_INT32", "tensorShape": {}}}, "dtype": {"type": "DT_INT32"}}}, {"name": "StatefulPartitionedCall/cpm_1/sequential_15/separable_conv2d_14/separable_conv2d/required_space_to_batch_paddings/strided_slice_6/stack", "op": "Const", "attr": {"value": {"tensor": {"dtype": "DT_INT32", "tensorShape": {"dim": [{"size": "1"}]}}}, "dtype": {"type": "DT_INT32"}}}, {"name": "StatefulPartitionedCall/cpm_1/sequential_15/separable_conv2d_14/separable_conv2d/required_space_to_batch_paddings/strided_slice_6/stack_1", "op": "Const", "attr": {"value": {"tensor": {"dtype": "DT_INT32", "tensorShape": {"dim": [{"size": "1"}]}}}, "dtype": {"type": "DT_INT32"}}}, {"name": "StatefulPartitionedCall/cpm_1/sequential_15/separable_conv2d_14/separable_conv2d/required_space_to_batch_paddings/strided_slice_6/stack_2", "op": "Const", "attr": {"value": {"tensor": {"dtype": "DT_INT32", "tensorShape": {"dim": [{"size": "1"}]}}}, "dtype": {"type": "DT_INT32"}}}, {"name": "StatefulPartitionedCall/cpm_1/sequential_15/separable_conv2d_14/separable_conv2d/required_space_to_batch_paddings/crops/1/0", "op": "Const", "attr": {"value": {"tensor": {"dtype": "DT_INT32", "tensorShape": {}}}, "dtype": {"type": "DT_INT32"}}}, {"name": "StatefulPartitionedCall/cpm_1/sequential_15/separable_conv2d_14/separable_conv2d/strided_slice/stack", "op": "Const", "attr": {"value": {"tensor": {"dtype": "DT_INT32", "tensorShape": {"dim": [{"size": "1"}]}}}, "dtype": {"type": "DT_INT32"}}}, {"name": "StatefulPartitionedCall/cpm_1/sequential_15/separable_conv2d_14/separable_conv2d/strided_slice/stack_1", "op": "Const", "attr": {"value": {"tensor": {"dtype": "DT_INT32", "tensorShape": {"dim": [{"size": "1"}]}}}, "dtype": {"type": "DT_INT32"}}}, {"name": "StatefulPartitionedCall/cpm_1/sequential_15/separable_conv2d_14/separable_conv2d/strided_slice/stack_2", "op": "Const", "attr": {"value": {"tensor": {"dtype": "DT_INT32", "tensorShape": {"dim": [{"size": "1"}]}}}, "dtype": {"type": "DT_INT32"}}}, {"name": "StatefulPartitionedCall/cpm_1/sequential_14/separable_conv2d_13/separable_conv2d/SpaceToBatchND/block_shape", "op": "Const", "attr": {"value": {"tensor": {"dtype": "DT_INT32", "tensorShape": {"dim": [{"size": "2"}]}}}, "dtype": {"type": "DT_INT32"}}}, {"name": "StatefulPartitionedCall/cpm_1/sequential_14/separable_conv2d_13/separable_conv2d/required_space_to_batch_paddings/strided_slice_2", "op": "Const", "attr": {"value": {"tensor": {"dtype": "DT_INT32", "tensorShape": {}}}, "dtype": {"type": "DT_INT32"}}}, {"name": "StatefulPartitionedCall/cpm_1/sequential_14/separable_conv2d_13/separable_conv2d/required_space_to_batch_paddings/strided_slice_3/stack", "op": "Const", "attr": {"value": {"tensor": {"dtype": "DT_INT32", "tensorShape": {"dim": [{"size": "1"}]}}}, "dtype": {"type": "DT_INT32"}}}, {"name": "StatefulPartitionedCall/cpm_1/sequential_14/separable_conv2d_13/separable_conv2d/required_space_to_batch_paddings/strided_slice_3/stack_1", "op": "Const", "attr": {"value": {"tensor": {"dtype": "DT_INT32", "tensorShape": {"dim": [{"size": "1"}]}}}, "dtype": {"type": "DT_INT32"}}}, {"name": "StatefulPartitionedCall/cpm_1/sequential_14/separable_conv2d_13/separable_conv2d/required_space_to_batch_paddings/strided_slice_3/stack_2", "op": "Const", "attr": {"value": {"tensor": {"dtype": "DT_INT32", "tensorShape": {"dim": [{"size": "1"}]}}}, "dtype": {"type": "DT_INT32"}}}, {"name": "StatefulPartitionedCall/cpm_1/sequential_14/separable_conv2d_13/separable_conv2d/required_space_to_batch_paddings/strided_slice_4", "op": "Const", "attr": {"value": {"tensor": {"dtype": "DT_INT32", "tensorShape": {}}}, "dtype": {"type": "DT_INT32"}}}, {"name": "StatefulPartitionedCall/cpm_1/sequential_14/separable_conv2d_13/separable_conv2d/required_space_to_batch_paddings/strided_slice_1", "op": "Const", "attr": {"value": {"tensor": {"dtype": "DT_INT32", "tensorShape": {"dim": [{"size": "2"}]}}}, "dtype": {"type": "DT_INT32"}}}, {"name": "StatefulPartitionedCall/cpm_1/sequential_14/separable_conv2d_13/separable_conv2d/required_space_to_batch_paddings/strided_slice_5/stack", "op": "Const", "attr": {"value": {"tensor": {"dtype": "DT_INT32", "tensorShape": {"dim": [{"size": "1"}]}}}, "dtype": {"type": "DT_INT32"}}}, {"name": "StatefulPartitionedCall/cpm_1/sequential_14/separable_conv2d_13/separable_conv2d/required_space_to_batch_paddings/strided_slice_5/stack_1", "op": "Const", "attr": {"value": {"tensor": {"dtype": "DT_INT32", "tensorShape": {"dim": [{"size": "1"}]}}}, "dtype": {"type": "DT_INT32"}}}, {"name": "StatefulPartitionedCall/cpm_1/sequential_14/separable_conv2d_13/separable_conv2d/required_space_to_batch_paddings/strided_slice_5/stack_2", "op": "Const", "attr": {"value": {"tensor": {"dtype": "DT_INT32", "tensorShape": {"dim": [{"size": "1"}]}}}, "dtype": {"type": "DT_INT32"}}}, {"name": "StatefulPartitionedCall/cpm_1/sequential_14/separable_conv2d_13/separable_conv2d/ReadVariableOp", "op": "Const", "attr": {"value": {"tensor": {"dtype": "DT_FLOAT", "tensorShape": {"dim": [{"size": "3"}, {"size": "3"}, {"size": "128"}, {"size": "1"}]}}}, "dtype": {"type": "DT_FLOAT"}}}, {"name": "StatefulPartitionedCall/cpm_1/sequential_14/separable_conv2d_13/separable_conv2d/BatchToSpaceND/block_shape", "op": "Const", "attr": {"value": {"tensor": {"dtype": "DT_INT32", "tensorShape": {"dim": [{"size": "2"}]}}}, "dtype": {"type": "DT_INT32"}}}, {"name": "StatefulPartitionedCall/cpm_1/sequential_14/separable_conv2d_13/separable_conv2d/required_space_to_batch_paddings/crops/0/0", "op": "Const", "attr": {"value": {"tensor": {"dtype": "DT_INT32", "tensorShape": {}}}, "dtype": {"type": "DT_INT32"}}}, {"name": "StatefulPartitionedCall/cpm_1/sequential_14/separable_conv2d_13/separable_conv2d/required_space_to_batch_paddings/strided_slice_6/stack", "op": "Const", "attr": {"value": {"tensor": {"dtype": "DT_INT32", "tensorShape": {"dim": [{"size": "1"}]}}}, "dtype": {"type": "DT_INT32"}}}, {"name": "StatefulPartitionedCall/cpm_1/sequential_14/separable_conv2d_13/separable_conv2d/required_space_to_batch_paddings/strided_slice_6/stack_1", "op": "Const", "attr": {"value": {"tensor": {"dtype": "DT_INT32", "tensorShape": {"dim": [{"size": "1"}]}}}, "dtype": {"type": "DT_INT32"}}}, {"name": "StatefulPartitionedCall/cpm_1/sequential_14/separable_conv2d_13/separable_conv2d/required_space_to_batch_paddings/strided_slice_6/stack_2", "op": "Const", "attr": {"value": {"tensor": {"dtype": "DT_INT32", "tensorShape": {"dim": [{"size": "1"}]}}}, "dtype": {"type": "DT_INT32"}}}, {"name": "StatefulPartitionedCall/cpm_1/sequential_14/separable_conv2d_13/separable_conv2d/required_space_to_batch_paddings/crops/1/0", "op": "Const", "attr": {"value": {"tensor": {"dtype": "DT_INT32", "tensorShape": {}}}, "dtype": {"type": "DT_INT32"}}}, {"name": "StatefulPartitionedCall/cpm_1/sequential_14/separable_conv2d_13/separable_conv2d/strided_slice/stack", "op": "Const", "attr": {"value": {"tensor": {"dtype": "DT_INT32", "tensorShape": {"dim": [{"size": "1"}]}}}, "dtype": {"type": "DT_INT32"}}}, {"name": "StatefulPartitionedCall/cpm_1/sequential_14/separable_conv2d_13/separable_conv2d/strided_slice/stack_1", "op": "Const", "attr": {"value": {"tensor": {"dtype": "DT_INT32", "tensorShape": {"dim": [{"size": "1"}]}}}, "dtype": {"type": "DT_INT32"}}}, {"name": "StatefulPartitionedCall/cpm_1/sequential_14/separable_conv2d_13/separable_conv2d/strided_slice/stack_2", "op": "Const", "attr": {"value": {"tensor": {"dtype": "DT_INT32", "tensorShape": {"dim": [{"size": "1"}]}}}, "dtype": {"type": "DT_INT32"}}}, {"name": "StatefulPartitionedCall/up_sampling2d/strided_slice/stack", "op": "Const", "attr": {"value": {"tensor": {"dtype": "DT_INT32", "tensorShape": {"dim": [{"size": "1"}]}}}, "dtype": {"type": "DT_INT32"}}}, {"name": "StatefulPartitionedCall/up_sampling2d/strided_slice/stack_1", "op": "Const", "attr": {"value": {"tensor": {"dtype": "DT_INT32", "tensorShape": {"dim": [{"size": "1"}]}}}, "dtype": {"type": "DT_INT32"}}}, {"name": "StatefulPartitionedCall/up_sampling2d/strided_slice/stack_2", "op": "Const", "attr": {"value": {"tensor": {"dtype": "DT_INT32", "tensorShape": {"dim": [{"size": "1"}]}}}, "dtype": {"type": "DT_INT32"}}}, {"name": "StatefulPartitionedCall/up_sampling2d/Const", "op": "Const", "attr": {"value": {"tensor": {"dtype": "DT_INT32", "tensorShape": {"dim": [{"size": "2"}]}}}, "dtype": {"type": "DT_INT32"}}}, {"name": "StatefulPartitionedCall/conv2d_10/Conv2D/ReadVariableOp", "op": "Const", "attr": {"value": {"tensor": {"dtype": "DT_FLOAT", "tensorShape": {"dim": [{"size": "1"}, {"size": "1"}, {"size": "128"}, {"size": "128"}]}}}, "dtype": {"type": "DT_FLOAT"}}}, {"name": "StatefulPartitionedCall/conv2d_10/BiasAdd/ReadVariableOp", "op": "Const", "attr": {"value": {"tensor": {"dtype": "DT_FLOAT", "tensorShape": {"dim": [{"size": "128"}]}}}, "dtype": {"type": "DT_FLOAT"}}}, {"name": "StatefulPartitionedCall/cpm_1/sequential_14/separable_conv2d_13/separable_conv2d/strided_slice_1/stack", "op": "Const", "attr": {"value": {"tensor": {"dtype": "DT_INT32", "tensorShape": {"dim": [{"size": "1"}]}}}, "dtype": {"type": "DT_INT32"}}}, {"name": "StatefulPartitionedCall/cpm_1/sequential_14/separable_conv2d_13/separable_conv2d/strided_slice_1/stack_1", "op": "Const", "attr": {"value": {"tensor": {"dtype": "DT_INT32", "tensorShape": {"dim": [{"size": "1"}]}}}, "dtype": {"type": "DT_INT32"}}}, {"name": "StatefulPartitionedCall/cpm_1/sequential_14/separable_conv2d_13/separable_conv2d/strided_slice_1/stack_2", "op": "Const", "attr": {"value": {"tensor": {"dtype": "DT_INT32", "tensorShape": {"dim": [{"size": "1"}]}}}, "dtype": {"type": "DT_INT32"}}}, {"name": "StatefulPartitionedCall/cpm_1/sequential_14/separable_conv2d_13/separable_conv2d/required_space_to_batch_paddings/add", "op": "Const", "attr": {"value": {"tensor": {"dtype": "DT_INT32", "tensorShape": {"dim": [{"size": "2"}]}}}, "dtype": {"type": "DT_INT32"}}}, {"name": "StatefulPartitionedCall/cpm_1/sequential_14/separable_conv2d_13/separable_conv2d/dilation_rate", "op": "Const", "attr": {"value": {"tensor": {"dtype": "DT_INT32", "tensorShape": {"dim": [{"size": "2"}]}}}, "dtype": {"type": "DT_INT32"}}}, {"name": "StatefulPartitionedCall/cpm_1/sequential_14/separable_conv2d_13/separable_conv2d/required_space_to_batch_paddings/strided_slice_7/stack", "op": "Const", "attr": {"value": {"tensor": {"dtype": "DT_INT32", "tensorShape": {"dim": [{"size": "1"}]}}}, "dtype": {"type": "DT_INT32"}}}, {"name": "StatefulPartitionedCall/cpm_1/sequential_14/separable_conv2d_13/separable_conv2d/required_space_to_batch_paddings/strided_slice_7/stack_1", "op": "Const", "attr": {"value": {"tensor": {"dtype": "DT_INT32", "tensorShape": {"dim": [{"size": "1"}]}}}, "dtype": {"type": "DT_INT32"}}}, {"name": "StatefulPartitionedCall/cpm_1/sequential_14/separable_conv2d_13/separable_conv2d/required_space_to_batch_paddings/strided_slice_7/stack_2", "op": "Const", "attr": {"value": {"tensor": {"dtype": "DT_INT32", "tensorShape": {"dim": [{"size": "1"}]}}}, "dtype": {"type": "DT_INT32"}}}, {"name": "StatefulPartitionedCall/cpm_1/sequential_15/separable_conv2d_14/separable_conv2d/strided_slice_1/stack", "op": "Const", "attr": {"value": {"tensor": {"dtype": "DT_INT32", "tensorShape": {"dim": [{"size": "1"}]}}}, "dtype": {"type": "DT_INT32"}}}, {"name": "StatefulPartitionedCall/cpm_1/sequential_15/separable_conv2d_14/separable_conv2d/strided_slice_1/stack_1", "op": "Const", "attr": {"value": {"tensor": {"dtype": "DT_INT32", "tensorShape": {"dim": [{"size": "1"}]}}}, "dtype": {"type": "DT_INT32"}}}, {"name": "StatefulPartitionedCall/cpm_1/sequential_15/separable_conv2d_14/separable_conv2d/strided_slice_1/stack_2", "op": "Const", "attr": {"value": {"tensor": {"dtype": "DT_INT32", "tensorShape": {"dim": [{"size": "1"}]}}}, "dtype": {"type": "DT_INT32"}}}, {"name": "StatefulPartitionedCall/cpm_1/sequential_15/separable_conv2d_14/separable_conv2d/required_space_to_batch_paddings/add", "op": "Const", "attr": {"value": {"tensor": {"dtype": "DT_INT32", "tensorShape": {"dim": [{"size": "2"}]}}}, "dtype": {"type": "DT_INT32"}}}, {"name": "StatefulPartitionedCall/cpm_1/sequential_15/separable_conv2d_14/separable_conv2d/dilation_rate", "op": "Const", "attr": {"value": {"tensor": {"dtype": "DT_INT32", "tensorShape": {"dim": [{"size": "2"}]}}}, "dtype": {"type": "DT_INT32"}}}, {"name": "StatefulPartitionedCall/cpm_1/sequential_15/separable_conv2d_14/separable_conv2d/required_space_to_batch_paddings/strided_slice_7/stack", "op": "Const", "attr": {"value": {"tensor": {"dtype": "DT_INT32", "tensorShape": {"dim": [{"size": "1"}]}}}, "dtype": {"type": "DT_INT32"}}}, {"name": "StatefulPartitionedCall/cpm_1/sequential_15/separable_conv2d_14/separable_conv2d/required_space_to_batch_paddings/strided_slice_7/stack_1", "op": "Const", "attr": {"value": {"tensor": {"dtype": "DT_INT32", "tensorShape": {"dim": [{"size": "1"}]}}}, "dtype": {"type": "DT_INT32"}}}, {"name": "StatefulPartitionedCall/cpm_1/sequential_15/separable_conv2d_14/separable_conv2d/required_space_to_batch_paddings/strided_slice_7/stack_2", "op": "Const", "attr": {"value": {"tensor": {"dtype": "DT_INT32", "tensorShape": {"dim": [{"size": "1"}]}}}, "dtype": {"type": "DT_INT32"}}}, {"name": "StatefulPartitionedCall/cpm_1/concat/axis", "op": "Const", "attr": {"value": {"tensor": {"dtype": "DT_INT32", "tensorShape": {}}}, "dtype": {"type": "DT_INT32"}}}, {"name": "StatefulPartitionedCall/ssd_head/strided_slice_3/stack", "op": "Const", "attr": {"value": {"tensor": {"dtype": "DT_INT32", "tensorShape": {"dim": [{"size": "1"}]}}}, "dtype": {"type": "DT_INT32"}}}, {"name": "StatefulPartitionedCall/ssd_head/strided_slice_3/stack_1", "op": "Const", "attr": {"value": {"tensor": {"dtype": "DT_INT32", "tensorShape": {"dim": [{"size": "1"}]}}}, "dtype": {"type": "DT_INT32"}}}, {"name": "StatefulPartitionedCall/ssd_head/strided_slice_3/stack_2", "op": "Const", "attr": {"value": {"tensor": {"dtype": "DT_INT32", "tensorShape": {"dim": [{"size": "1"}]}}}, "dtype": {"type": "DT_INT32"}}}, {"name": "StatefulPartitionedCall/ssd_head/Reshape_7/shape/2", "op": "Const", "attr": {"value": {"tensor": {"dtype": "DT_INT32", "tensorShape": {}}}, "dtype": {"type": "DT_INT32"}}}, {"name": "StatefulPartitionedCall/ssd_head/conv2d_18/Conv2D/ReadVariableOp", "op": "Const", "attr": {"value": {"tensor": {"dtype": "DT_FLOAT", "tensorShape": {"dim": [{"size": "1"}, {"size": "1"}, {"size": "192"}, {"size": "4"}]}}}, "dtype": {"type": "DT_FLOAT"}}}, {"name": "StatefulPartitionedCall/ssd_head/conv2d_18/BiasAdd/ReadVariableOp", "op": "Const", "attr": {"value": {"tensor": {"dtype": "DT_FLOAT", "tensorShape": {"dim": [{"size": "4"}]}}}, "dtype": {"type": "DT_FLOAT"}}}, {"name": "StatefulPartitionedCall/ssd_head/Reshape_11/shape/0", "op": "Const", "attr": {"value": {"tensor": {"dtype": "DT_INT32", "tensorShape": {}}}, "dtype": {"type": "DT_INT32"}}}, {"name": "StatefulPartitionedCall/ssd_head/strided_slice_4/stack", "op": "Const", "attr": {"value": {"tensor": {"dtype": "DT_INT32", "tensorShape": {"dim": [{"size": "1"}]}}}, "dtype": {"type": "DT_INT32"}}}, {"name": "StatefulPartitionedCall/ssd_head/strided_slice_4/stack_1", "op": "Const", "attr": {"value": {"tensor": {"dtype": "DT_INT32", "tensorShape": {"dim": [{"size": "1"}]}}}, "dtype": {"type": "DT_INT32"}}}, {"name": "StatefulPartitionedCall/ssd_head/strided_slice_4/stack_2", "op": "Const", "attr": {"value": {"tensor": {"dtype": "DT_INT32", "tensorShape": {"dim": [{"size": "1"}]}}}, "dtype": {"type": "DT_INT32"}}}, {"name": "StatefulPartitionedCall/ssd_head/mul_11/y", "op": "Const", "attr": {"value": {"tensor": {"dtype": "DT_INT32", "tensorShape": {}}}, "dtype": {"type": "DT_INT32"}}}, {"name": "StatefulPartitionedCall/cpm_2/sequential_17/separable_conv2d_16/separable_conv2d/SpaceToBatchND/block_shape", "op": "Const", "attr": {"value": {"tensor": {"dtype": "DT_INT32", "tensorShape": {"dim": [{"size": "2"}]}}}, "dtype": {"type": "DT_INT32"}}}, {"name": "StatefulPartitionedCall/cpm_2/sequential_17/separable_conv2d_16/separable_conv2d/required_space_to_batch_paddings/strided_slice_2", "op": "Const", "attr": {"value": {"tensor": {"dtype": "DT_INT32", "tensorShape": {}}}, "dtype": {"type": "DT_INT32"}}}, {"name": "StatefulPartitionedCall/cpm_2/sequential_17/separable_conv2d_16/separable_conv2d/required_space_to_batch_paddings/strided_slice_3/stack", "op": "Const", "attr": {"value": {"tensor": {"dtype": "DT_INT32", "tensorShape": {"dim": [{"size": "1"}]}}}, "dtype": {"type": "DT_INT32"}}}, {"name": "StatefulPartitionedCall/cpm_2/sequential_17/separable_conv2d_16/separable_conv2d/required_space_to_batch_paddings/strided_slice_3/stack_1", "op": "Const", "attr": {"value": {"tensor": {"dtype": "DT_INT32", "tensorShape": {"dim": [{"size": "1"}]}}}, "dtype": {"type": "DT_INT32"}}}, {"name": "StatefulPartitionedCall/cpm_2/sequential_17/separable_conv2d_16/separable_conv2d/required_space_to_batch_paddings/strided_slice_3/stack_2", "op": "Const", "attr": {"value": {"tensor": {"dtype": "DT_INT32", "tensorShape": {"dim": [{"size": "1"}]}}}, "dtype": {"type": "DT_INT32"}}}, {"name": "StatefulPartitionedCall/cpm_2/sequential_17/separable_conv2d_16/separable_conv2d/required_space_to_batch_paddings/strided_slice_4", "op": "Const", "attr": {"value": {"tensor": {"dtype": "DT_INT32", "tensorShape": {}}}, "dtype": {"type": "DT_INT32"}}}, {"name": "StatefulPartitionedCall/cpm_2/sequential_17/separable_conv2d_16/separable_conv2d/required_space_to_batch_paddings/strided_slice_1", "op": "Const", "attr": {"value": {"tensor": {"dtype": "DT_INT32", "tensorShape": {"dim": [{"size": "2"}]}}}, "dtype": {"type": "DT_INT32"}}}, {"name": "StatefulPartitionedCall/cpm_2/sequential_17/separable_conv2d_16/separable_conv2d/required_space_to_batch_paddings/strided_slice_5/stack", "op": "Const", "attr": {"value": {"tensor": {"dtype": "DT_INT32", "tensorShape": {"dim": [{"size": "1"}]}}}, "dtype": {"type": "DT_INT32"}}}, {"name": "StatefulPartitionedCall/cpm_2/sequential_17/separable_conv2d_16/separable_conv2d/required_space_to_batch_paddings/strided_slice_5/stack_1", "op": "Const", "attr": {"value": {"tensor": {"dtype": "DT_INT32", "tensorShape": {"dim": [{"size": "1"}]}}}, "dtype": {"type": "DT_INT32"}}}, {"name": "StatefulPartitionedCall/cpm_2/sequential_17/separable_conv2d_16/separable_conv2d/required_space_to_batch_paddings/strided_slice_5/stack_2", "op": "Const", "attr": {"value": {"tensor": {"dtype": "DT_INT32", "tensorShape": {"dim": [{"size": "1"}]}}}, "dtype": {"type": "DT_INT32"}}}, {"name": "StatefulPartitionedCall/cpm_2/sequential_17/separable_conv2d_16/separable_conv2d/ReadVariableOp", "op": "Const", "attr": {"value": {"tensor": {"dtype": "DT_FLOAT", "tensorShape": {"dim": [{"size": "3"}, {"size": "3"}, {"size": "32"}, {"size": "1"}]}}}, "dtype": {"type": "DT_FLOAT"}}}, {"name": "StatefulPartitionedCall/cpm_2/sequential_17/separable_conv2d_16/separable_conv2d/BatchToSpaceND/block_shape", "op": "Const", "attr": {"value": {"tensor": {"dtype": "DT_INT32", "tensorShape": {"dim": [{"size": "2"}]}}}, "dtype": {"type": "DT_INT32"}}}, {"name": "StatefulPartitionedCall/cpm_2/sequential_17/separable_conv2d_16/separable_conv2d/required_space_to_batch_paddings/crops/0/0", "op": "Const", "attr": {"value": {"tensor": {"dtype": "DT_INT32", "tensorShape": {}}}, "dtype": {"type": "DT_INT32"}}}, {"name": "StatefulPartitionedCall/cpm_2/sequential_17/separable_conv2d_16/separable_conv2d/required_space_to_batch_paddings/strided_slice_6/stack", "op": "Const", "attr": {"value": {"tensor": {"dtype": "DT_INT32", "tensorShape": {"dim": [{"size": "1"}]}}}, "dtype": {"type": "DT_INT32"}}}, {"name": "StatefulPartitionedCall/cpm_2/sequential_17/separable_conv2d_16/separable_conv2d/required_space_to_batch_paddings/strided_slice_6/stack_1", "op": "Const", "attr": {"value": {"tensor": {"dtype": "DT_INT32", "tensorShape": {"dim": [{"size": "1"}]}}}, "dtype": {"type": "DT_INT32"}}}, {"name": "StatefulPartitionedCall/cpm_2/sequential_17/separable_conv2d_16/separable_conv2d/required_space_to_batch_paddings/strided_slice_6/stack_2", "op": "Const", "attr": {"value": {"tensor": {"dtype": "DT_INT32", "tensorShape": {"dim": [{"size": "1"}]}}}, "dtype": {"type": "DT_INT32"}}}, {"name": "StatefulPartitionedCall/cpm_2/sequential_17/separable_conv2d_16/separable_conv2d/required_space_to_batch_paddings/crops/1/0", "op": "Const", "attr": {"value": {"tensor": {"dtype": "DT_INT32", "tensorShape": {}}}, "dtype": {"type": "DT_INT32"}}}, {"name": "StatefulPartitionedCall/cpm_2/sequential_17/separable_conv2d_16/separable_conv2d/strided_slice/stack", "op": "Const", "attr": {"value": {"tensor": {"dtype": "DT_INT32", "tensorShape": {"dim": [{"size": "1"}]}}}, "dtype": {"type": "DT_INT32"}}}, {"name": "StatefulPartitionedCall/cpm_2/sequential_17/separable_conv2d_16/separable_conv2d/strided_slice/stack_1", "op": "Const", "attr": {"value": {"tensor": {"dtype": "DT_INT32", "tensorShape": {"dim": [{"size": "1"}]}}}, "dtype": {"type": "DT_INT32"}}}, {"name": "StatefulPartitionedCall/cpm_2/sequential_17/separable_conv2d_16/separable_conv2d/strided_slice/stack_2", "op": "Const", "attr": {"value": {"tensor": {"dtype": "DT_INT32", "tensorShape": {"dim": [{"size": "1"}]}}}, "dtype": {"type": "DT_INT32"}}}, {"name": "StatefulPartitionedCall/cpm_2/sequential_16/separable_conv2d_15/separable_conv2d/SpaceToBatchND/block_shape", "op": "Const", "attr": {"value": {"tensor": {"dtype": "DT_INT32", "tensorShape": {"dim": [{"size": "2"}]}}}, "dtype": {"type": "DT_INT32"}}}, {"name": "StatefulPartitionedCall/cpm_2/sequential_16/separable_conv2d_15/separable_conv2d/required_space_to_batch_paddings/strided_slice_2", "op": "Const", "attr": {"value": {"tensor": {"dtype": "DT_INT32", "tensorShape": {}}}, "dtype": {"type": "DT_INT32"}}}, {"name": "StatefulPartitionedCall/cpm_2/sequential_16/separable_conv2d_15/separable_conv2d/required_space_to_batch_paddings/strided_slice_3/stack", "op": "Const", "attr": {"value": {"tensor": {"dtype": "DT_INT32", "tensorShape": {"dim": [{"size": "1"}]}}}, "dtype": {"type": "DT_INT32"}}}, {"name": "StatefulPartitionedCall/cpm_2/sequential_16/separable_conv2d_15/separable_conv2d/required_space_to_batch_paddings/strided_slice_3/stack_1", "op": "Const", "attr": {"value": {"tensor": {"dtype": "DT_INT32", "tensorShape": {"dim": [{"size": "1"}]}}}, "dtype": {"type": "DT_INT32"}}}, {"name": "StatefulPartitionedCall/cpm_2/sequential_16/separable_conv2d_15/separable_conv2d/required_space_to_batch_paddings/strided_slice_3/stack_2", "op": "Const", "attr": {"value": {"tensor": {"dtype": "DT_INT32", "tensorShape": {"dim": [{"size": "1"}]}}}, "dtype": {"type": "DT_INT32"}}}, {"name": "StatefulPartitionedCall/cpm_2/sequential_16/separable_conv2d_15/separable_conv2d/required_space_to_batch_paddings/strided_slice_4", "op": "Const", "attr": {"value": {"tensor": {"dtype": "DT_INT32", "tensorShape": {}}}, "dtype": {"type": "DT_INT32"}}}, {"name": "StatefulPartitionedCall/cpm_2/sequential_16/separable_conv2d_15/separable_conv2d/required_space_to_batch_paddings/strided_slice_1", "op": "Const", "attr": {"value": {"tensor": {"dtype": "DT_INT32", "tensorShape": {"dim": [{"size": "2"}]}}}, "dtype": {"type": "DT_INT32"}}}, {"name": "StatefulPartitionedCall/cpm_2/sequential_16/separable_conv2d_15/separable_conv2d/required_space_to_batch_paddings/strided_slice_5/stack", "op": "Const", "attr": {"value": {"tensor": {"dtype": "DT_INT32", "tensorShape": {"dim": [{"size": "1"}]}}}, "dtype": {"type": "DT_INT32"}}}, {"name": "StatefulPartitionedCall/cpm_2/sequential_16/separable_conv2d_15/separable_conv2d/required_space_to_batch_paddings/strided_slice_5/stack_1", "op": "Const", "attr": {"value": {"tensor": {"dtype": "DT_INT32", "tensorShape": {"dim": [{"size": "1"}]}}}, "dtype": {"type": "DT_INT32"}}}, {"name": "StatefulPartitionedCall/cpm_2/sequential_16/separable_conv2d_15/separable_conv2d/required_space_to_batch_paddings/strided_slice_5/stack_2", "op": "Const", "attr": {"value": {"tensor": {"dtype": "DT_INT32", "tensorShape": {"dim": [{"size": "1"}]}}}, "dtype": {"type": "DT_INT32"}}}, {"name": "StatefulPartitionedCall/cpm_2/sequential_16/separable_conv2d_15/separable_conv2d/ReadVariableOp", "op": "Const", "attr": {"value": {"tensor": {"dtype": "DT_FLOAT", "tensorShape": {"dim": [{"size": "3"}, {"size": "3"}, {"size": "128"}, {"size": "1"}]}}}, "dtype": {"type": "DT_FLOAT"}}}, {"name": "StatefulPartitionedCall/cpm_2/sequential_16/separable_conv2d_15/separable_conv2d/BatchToSpaceND/block_shape", "op": "Const", "attr": {"value": {"tensor": {"dtype": "DT_INT32", "tensorShape": {"dim": [{"size": "2"}]}}}, "dtype": {"type": "DT_INT32"}}}, {"name": "StatefulPartitionedCall/cpm_2/sequential_16/separable_conv2d_15/separable_conv2d/required_space_to_batch_paddings/crops/0/0", "op": "Const", "attr": {"value": {"tensor": {"dtype": "DT_INT32", "tensorShape": {}}}, "dtype": {"type": "DT_INT32"}}}, {"name": "StatefulPartitionedCall/cpm_2/sequential_16/separable_conv2d_15/separable_conv2d/required_space_to_batch_paddings/strided_slice_6/stack", "op": "Const", "attr": {"value": {"tensor": {"dtype": "DT_INT32", "tensorShape": {"dim": [{"size": "1"}]}}}, "dtype": {"type": "DT_INT32"}}}, {"name": "StatefulPartitionedCall/cpm_2/sequential_16/separable_conv2d_15/separable_conv2d/required_space_to_batch_paddings/strided_slice_6/stack_1", "op": "Const", "attr": {"value": {"tensor": {"dtype": "DT_INT32", "tensorShape": {"dim": [{"size": "1"}]}}}, "dtype": {"type": "DT_INT32"}}}, {"name": "StatefulPartitionedCall/cpm_2/sequential_16/separable_conv2d_15/separable_conv2d/required_space_to_batch_paddings/strided_slice_6/stack_2", "op": "Const", "attr": {"value": {"tensor": {"dtype": "DT_INT32", "tensorShape": {"dim": [{"size": "1"}]}}}, "dtype": {"type": "DT_INT32"}}}, {"name": "StatefulPartitionedCall/cpm_2/sequential_16/separable_conv2d_15/separable_conv2d/required_space_to_batch_paddings/crops/1/0", "op": "Const", "attr": {"value": {"tensor": {"dtype": "DT_INT32", "tensorShape": {}}}, "dtype": {"type": "DT_INT32"}}}, {"name": "StatefulPartitionedCall/cpm_2/sequential_16/separable_conv2d_15/separable_conv2d/strided_slice/stack", "op": "Const", "attr": {"value": {"tensor": {"dtype": "DT_INT32", "tensorShape": {"dim": [{"size": "1"}]}}}, "dtype": {"type": "DT_INT32"}}}, {"name": "StatefulPartitionedCall/cpm_2/sequential_16/separable_conv2d_15/separable_conv2d/strided_slice/stack_1", "op": "Const", "attr": {"value": {"tensor": {"dtype": "DT_INT32", "tensorShape": {"dim": [{"size": "1"}]}}}, "dtype": {"type": "DT_INT32"}}}, {"name": "StatefulPartitionedCall/cpm_2/sequential_16/separable_conv2d_15/separable_conv2d/strided_slice/stack_2", "op": "Const", "attr": {"value": {"tensor": {"dtype": "DT_INT32", "tensorShape": {"dim": [{"size": "1"}]}}}, "dtype": {"type": "DT_INT32"}}}, {"name": "StatefulPartitionedCall/lightnet/lightnet_block_2/basic_unit_4/sequential_11/separable_conv2d_10/separable_conv2d/ReadVariableOp", "op": "Const", "attr": {"value": {"tensor": {"dtype": "DT_FLOAT", "tensorShape": {"dim": [{"size": "5"}, {"size": "5"}, {"size": "64"}, {"size": "1"}]}}}, "dtype": {"type": "DT_FLOAT"}}}, {"name": "StatefulPartitionedCall/lightnet/lightnet_block_2/basic_unit_with_downsampling_2/sequential_9/separable_conv2d_8/separable_conv2d/ReadVariableOp", "op": "Const", "attr": {"value": {"tensor": {"dtype": "DT_FLOAT", "tensorShape": {"dim": [{"size": "3"}, {"size": "3"}, {"size": "64"}, {"size": "1"}]}}}, "dtype": {"type": "DT_FLOAT"}}}, {"name": "StatefulPartitionedCall/lightnet/lightnet_block_2/strided_slice/stack", "op": "Const", "attr": {"value": {"tensor": {"dtype": "DT_INT32", "tensorShape": {"dim": [{"size": "4"}]}}}, "dtype": {"type": "DT_INT32"}}}, {"name": "StatefulPartitionedCall/lightnet/lightnet_block_2/strided_slice/stack_1", "op": "Const", "attr": {"value": {"tensor": {"dtype": "DT_INT32", "tensorShape": {"dim": [{"size": "4"}]}}}, "dtype": {"type": "DT_INT32"}}}, {"name": "StatefulPartitionedCall/lightnet/lightnet_block_2/strided_slice/stack_2", "op": "Const", "attr": {"value": {"tensor": {"dtype": "DT_INT32", "tensorShape": {"dim": [{"size": "4"}]}}}, "dtype": {"type": "DT_INT32"}}}, {"name": "StatefulPartitionedCall/lightnet/lightnet_block_2/strided_slice_1/stack", "op": "Const", "attr": {"value": {"tensor": {"dtype": "DT_INT32", "tensorShape": {"dim": [{"size": "4"}]}}}, "dtype": {"type": "DT_INT32"}}}, {"name": "StatefulPartitionedCall/lightnet/lightnet_block_2/strided_slice_1/stack_1", "op": "Const", "attr": {"value": {"tensor": {"dtype": "DT_INT32", "tensorShape": {"dim": [{"size": "4"}]}}}, "dtype": {"type": "DT_INT32"}}}, {"name": "StatefulPartitionedCall/lightnet/lightnet_block_2/strided_slice_1/stack_2", "op": "Const", "attr": {"value": {"tensor": {"dtype": "DT_INT32", "tensorShape": {"dim": [{"size": "4"}]}}}, "dtype": {"type": "DT_INT32"}}}, {"name": "StatefulPartitionedCall/lightnet/lightnet_block_2/concat/axis", "op": "Const", "attr": {"value": {"tensor": {"dtype": "DT_INT32", "tensorShape": {}}}, "dtype": {"type": "DT_INT32"}}}, {"name": "StatefulPartitionedCall/lightnet/lightnet_block_2/strided_slice_2/stack", "op": "Const", "attr": {"value": {"tensor": {"dtype": "DT_INT32", "tensorShape": {"dim": [{"size": "4"}]}}}, "dtype": {"type": "DT_INT32"}}}, {"name": "StatefulPartitionedCall/lightnet/lightnet_block_2/strided_slice_2/stack_1", "op": "Const", "attr": {"value": {"tensor": {"dtype": "DT_INT32", "tensorShape": {"dim": [{"size": "4"}]}}}, "dtype": {"type": "DT_INT32"}}}, {"name": "StatefulPartitionedCall/lightnet/lightnet_block_2/strided_slice_2/stack_2", "op": "Const", "attr": {"value": {"tensor": {"dtype": "DT_INT32", "tensorShape": {"dim": [{"size": "4"}]}}}, "dtype": {"type": "DT_INT32"}}}, {"name": "StatefulPartitionedCall/lightnet/lightnet_block_1/basic_unit_3/sequential_8/separable_conv2d_7/separable_conv2d/ReadVariableOp", "op": "Const", "attr": {"value": {"tensor": {"dtype": "DT_FLOAT", "tensorShape": {"dim": [{"size": "5"}, {"size": "5"}, {"size": "64"}, {"size": "1"}]}}}, "dtype": {"type": "DT_FLOAT"}}}, {"name": "StatefulPartitionedCall/lightnet/lightnet_block_1/basic_unit_2/sequential_7/separable_conv2d_6/separable_conv2d/ReadVariableOp", "op": "Const", "attr": {"value": {"tensor": {"dtype": "DT_FLOAT", "tensorShape": {"dim": [{"size": "5"}, {"size": "5"}, {"size": "64"}, {"size": "1"}]}}}, "dtype": {"type": "DT_FLOAT"}}}, {"name": "StatefulPartitionedCall/lightnet/lightnet_block_1/strided_slice_8/stack", "op": "Const", "attr": {"value": {"tensor": {"dtype": "DT_INT32", "tensorShape": {"dim": [{"size": "4"}]}}}, "dtype": {"type": "DT_INT32"}}}, {"name": "StatefulPartitionedCall/lightnet/lightnet_block_1/strided_slice_8/stack_1", "op": "Const", "attr": {"value": {"tensor": {"dtype": "DT_INT32", "tensorShape": {"dim": [{"size": "4"}]}}}, "dtype": {"type": "DT_INT32"}}}, {"name": "StatefulPartitionedCall/lightnet/lightnet_block_1/strided_slice_8/stack_2", "op": "Const", "attr": {"value": {"tensor": {"dtype": "DT_INT32", "tensorShape": {"dim": [{"size": "4"}]}}}, "dtype": {"type": "DT_INT32"}}}, {"name": "StatefulPartitionedCall/lightnet/lightnet_block_1/strided_slice_9/stack", "op": "Const", "attr": {"value": {"tensor": {"dtype": "DT_INT32", "tensorShape": {"dim": [{"size": "4"}]}}}, "dtype": {"type": "DT_INT32"}}}, {"name": "StatefulPartitionedCall/lightnet/lightnet_block_1/strided_slice_9/stack_1", "op": "Const", "attr": {"value": {"tensor": {"dtype": "DT_INT32", "tensorShape": {"dim": [{"size": "4"}]}}}, "dtype": {"type": "DT_INT32"}}}, {"name": "StatefulPartitionedCall/lightnet/lightnet_block_1/strided_slice_9/stack_2", "op": "Const", "attr": {"value": {"tensor": {"dtype": "DT_INT32", "tensorShape": {"dim": [{"size": "4"}]}}}, "dtype": {"type": "DT_INT32"}}}, {"name": "StatefulPartitionedCall/lightnet/lightnet_block_1/concat_4/axis", "op": "Const", "attr": {"value": {"tensor": {"dtype": "DT_INT32", "tensorShape": {}}}, "dtype": {"type": "DT_INT32"}}}, {"name": "StatefulPartitionedCall/lightnet/lightnet_block_1/strided_slice_10/stack", "op": "Const", "attr": {"value": {"tensor": {"dtype": "DT_INT32", "tensorShape": {"dim": [{"size": "4"}]}}}, "dtype": {"type": "DT_INT32"}}}, {"name": "StatefulPartitionedCall/lightnet/lightnet_block_1/strided_slice_10/stack_1", "op": "Const", "attr": {"value": {"tensor": {"dtype": "DT_INT32", "tensorShape": {"dim": [{"size": "4"}]}}}, "dtype": {"type": "DT_INT32"}}}, {"name": "StatefulPartitionedCall/lightnet/lightnet_block_1/strided_slice_10/stack_2", "op": "Const", "attr": {"value": {"tensor": {"dtype": "DT_INT32", "tensorShape": {"dim": [{"size": "4"}]}}}, "dtype": {"type": "DT_INT32"}}}, {"name": "StatefulPartitionedCall/lightnet/lightnet_block_1/basic_unit_1/sequential_6/separable_conv2d_5/separable_conv2d/ReadVariableOp", "op": "Const", "attr": {"value": {"tensor": {"dtype": "DT_FLOAT", "tensorShape": {"dim": [{"size": "5"}, {"size": "5"}, {"size": "64"}, {"size": "1"}]}}}, "dtype": {"type": "DT_FLOAT"}}}, {"name": "StatefulPartitionedCall/lightnet/lightnet_block_1/strided_slice_4/stack", "op": "Const", "attr": {"value": {"tensor": {"dtype": "DT_INT32", "tensorShape": {"dim": [{"size": "4"}]}}}, "dtype": {"type": "DT_INT32"}}}, {"name": "StatefulPartitionedCall/lightnet/lightnet_block_1/strided_slice_4/stack_1", "op": "Const", "attr": {"value": {"tensor": {"dtype": "DT_INT32", "tensorShape": {"dim": [{"size": "4"}]}}}, "dtype": {"type": "DT_INT32"}}}, {"name": "StatefulPartitionedCall/lightnet/lightnet_block_1/strided_slice_4/stack_2", "op": "Const", "attr": {"value": {"tensor": {"dtype": "DT_INT32", "tensorShape": {"dim": [{"size": "4"}]}}}, "dtype": {"type": "DT_INT32"}}}, {"name": "StatefulPartitionedCall/lightnet/lightnet_block_1/strided_slice_5/stack", "op": "Const", "attr": {"value": {"tensor": {"dtype": "DT_INT32", "tensorShape": {"dim": [{"size": "4"}]}}}, "dtype": {"type": "DT_INT32"}}}, {"name": "StatefulPartitionedCall/lightnet/lightnet_block_1/strided_slice_5/stack_1", "op": "Const", "attr": {"value": {"tensor": {"dtype": "DT_INT32", "tensorShape": {"dim": [{"size": "4"}]}}}, "dtype": {"type": "DT_INT32"}}}, {"name": "StatefulPartitionedCall/lightnet/lightnet_block_1/strided_slice_5/stack_2", "op": "Const", "attr": {"value": {"tensor": {"dtype": "DT_INT32", "tensorShape": {"dim": [{"size": "4"}]}}}, "dtype": {"type": "DT_INT32"}}}, {"name": "StatefulPartitionedCall/lightnet/lightnet_block_1/concat_2/axis", "op": "Const", "attr": {"value": {"tensor": {"dtype": "DT_INT32", "tensorShape": {}}}, "dtype": {"type": "DT_INT32"}}}, {"name": "StatefulPartitionedCall/lightnet/lightnet_block_1/strided_slice_6/stack", "op": "Const", "attr": {"value": {"tensor": {"dtype": "DT_INT32", "tensorShape": {"dim": [{"size": "4"}]}}}, "dtype": {"type": "DT_INT32"}}}, {"name": "StatefulPartitionedCall/lightnet/lightnet_block_1/strided_slice_6/stack_1", "op": "Const", "attr": {"value": {"tensor": {"dtype": "DT_INT32", "tensorShape": {"dim": [{"size": "4"}]}}}, "dtype": {"type": "DT_INT32"}}}, {"name": "StatefulPartitionedCall/lightnet/lightnet_block_1/strided_slice_6/stack_2", "op": "Const", "attr": {"value": {"tensor": {"dtype": "DT_INT32", "tensorShape": {"dim": [{"size": "4"}]}}}, "dtype": {"type": "DT_INT32"}}}, {"name": "StatefulPartitionedCall/lightnet/lightnet_block_1/basic_unit_with_downsampling_1/sequential_4/separable_conv2d_3/separable_conv2d/ReadVariableOp", "op": "Const", "attr": {"value": {"tensor": {"dtype": "DT_FLOAT", "tensorShape": {"dim": [{"size": "3"}, {"size": "3"}, {"size": "64"}, {"size": "1"}]}}}, "dtype": {"type": "DT_FLOAT"}}}, {"name": "StatefulPartitionedCall/lightnet/lightnet_block_1/strided_slice/stack", "op": "Const", "attr": {"value": {"tensor": {"dtype": "DT_INT32", "tensorShape": {"dim": [{"size": "4"}]}}}, "dtype": {"type": "DT_INT32"}}}, {"name": "StatefulPartitionedCall/lightnet/lightnet_block_1/strided_slice/stack_1", "op": "Const", "attr": {"value": {"tensor": {"dtype": "DT_INT32", "tensorShape": {"dim": [{"size": "4"}]}}}, "dtype": {"type": "DT_INT32"}}}, {"name": "StatefulPartitionedCall/lightnet/lightnet_block_1/strided_slice/stack_2", "op": "Const", "attr": {"value": {"tensor": {"dtype": "DT_INT32", "tensorShape": {"dim": [{"size": "4"}]}}}, "dtype": {"type": "DT_INT32"}}}, {"name": "StatefulPartitionedCall/lightnet/lightnet_block_1/strided_slice_1/stack", "op": "Const", "attr": {"value": {"tensor": {"dtype": "DT_INT32", "tensorShape": {"dim": [{"size": "4"}]}}}, "dtype": {"type": "DT_INT32"}}}, {"name": "StatefulPartitionedCall/lightnet/lightnet_block_1/strided_slice_1/stack_1", "op": "Const", "attr": {"value": {"tensor": {"dtype": "DT_INT32", "tensorShape": {"dim": [{"size": "4"}]}}}, "dtype": {"type": "DT_INT32"}}}, {"name": "StatefulPartitionedCall/lightnet/lightnet_block_1/strided_slice_1/stack_2", "op": "Const", "attr": {"value": {"tensor": {"dtype": "DT_INT32", "tensorShape": {"dim": [{"size": "4"}]}}}, "dtype": {"type": "DT_INT32"}}}, {"name": "StatefulPartitionedCall/lightnet/lightnet_block_1/concat/axis", "op": "Const", "attr": {"value": {"tensor": {"dtype": "DT_INT32", "tensorShape": {}}}, "dtype": {"type": "DT_INT32"}}}, {"name": "StatefulPartitionedCall/lightnet/lightnet_block_1/strided_slice_2/stack", "op": "Const", "attr": {"value": {"tensor": {"dtype": "DT_INT32", "tensorShape": {"dim": [{"size": "4"}]}}}, "dtype": {"type": "DT_INT32"}}}, {"name": "StatefulPartitionedCall/lightnet/lightnet_block_1/strided_slice_2/stack_1", "op": "Const", "attr": {"value": {"tensor": {"dtype": "DT_INT32", "tensorShape": {"dim": [{"size": "4"}]}}}, "dtype": {"type": "DT_INT32"}}}, {"name": "StatefulPartitionedCall/lightnet/lightnet_block_1/strided_slice_2/stack_2", "op": "Const", "attr": {"value": {"tensor": {"dtype": "DT_INT32", "tensorShape": {"dim": [{"size": "4"}]}}}, "dtype": {"type": "DT_INT32"}}}, {"name": "StatefulPartitionedCall/lightnet/lightnet_block/basic_unit/sequential_3/separable_conv2d_2/separable_conv2d/ReadVariableOp", "op": "Const", "attr": {"value": {"tensor": {"dtype": "DT_FLOAT", "tensorShape": {"dim": [{"size": "5"}, {"size": "5"}, {"size": "32"}, {"size": "1"}]}}}, "dtype": {"type": "DT_FLOAT"}}}, {"name": "StatefulPartitionedCall/lightnet/lightnet_block/basic_unit_with_downsampling/sequential_1/separable_conv2d/separable_conv2d/ReadVariableOp", "op": "Const", "attr": {"value": {"tensor": {"dtype": "DT_FLOAT", "tensorShape": {"dim": [{"size": "3"}, {"size": "3"}, {"size": "32"}, {"size": "1"}]}}}, "dtype": {"type": "DT_FLOAT"}}}, {"name": "StatefulPartitionedCall/lightnet/lightnet_block/strided_slice/stack", "op": "Const", "attr": {"value": {"tensor": {"dtype": "DT_INT32", "tensorShape": {"dim": [{"size": "4"}]}}}, "dtype": {"type": "DT_INT32"}}}, {"name": "StatefulPartitionedCall/lightnet/lightnet_block/strided_slice/stack_1", "op": "Const", "attr": {"value": {"tensor": {"dtype": "DT_INT32", "tensorShape": {"dim": [{"size": "4"}]}}}, "dtype": {"type": "DT_INT32"}}}, {"name": "StatefulPartitionedCall/lightnet/lightnet_block/strided_slice/stack_2", "op": "Const", "attr": {"value": {"tensor": {"dtype": "DT_INT32", "tensorShape": {"dim": [{"size": "4"}]}}}, "dtype": {"type": "DT_INT32"}}}, {"name": "StatefulPartitionedCall/lightnet/lightnet_block/strided_slice_1/stack", "op": "Const", "attr": {"value": {"tensor": {"dtype": "DT_INT32", "tensorShape": {"dim": [{"size": "4"}]}}}, "dtype": {"type": "DT_INT32"}}}, {"name": "StatefulPartitionedCall/lightnet/lightnet_block/strided_slice_1/stack_1", "op": "Const", "attr": {"value": {"tensor": {"dtype": "DT_INT32", "tensorShape": {"dim": [{"size": "4"}]}}}, "dtype": {"type": "DT_INT32"}}}, {"name": "StatefulPartitionedCall/lightnet/lightnet_block/strided_slice_1/stack_2", "op": "Const", "attr": {"value": {"tensor": {"dtype": "DT_INT32", "tensorShape": {"dim": [{"size": "4"}]}}}, "dtype": {"type": "DT_INT32"}}}, {"name": "StatefulPartitionedCall/lightnet/lightnet_block/concat/axis", "op": "Const", "attr": {"value": {"tensor": {"dtype": "DT_INT32", "tensorShape": {}}}, "dtype": {"type": "DT_INT32"}}}, {"name": "StatefulPartitionedCall/lightnet/lightnet_block/strided_slice_2/stack", "op": "Const", "attr": {"value": {"tensor": {"dtype": "DT_INT32", "tensorShape": {"dim": [{"size": "4"}]}}}, "dtype": {"type": "DT_INT32"}}}, {"name": "StatefulPartitionedCall/lightnet/lightnet_block/strided_slice_2/stack_1", "op": "Const", "attr": {"value": {"tensor": {"dtype": "DT_INT32", "tensorShape": {"dim": [{"size": "4"}]}}}, "dtype": {"type": "DT_INT32"}}}, {"name": "StatefulPartitionedCall/lightnet/lightnet_block/strided_slice_2/stack_2", "op": "Const", "attr": {"value": {"tensor": {"dtype": "DT_INT32", "tensorShape": {"dim": [{"size": "4"}]}}}, "dtype": {"type": "DT_INT32"}}}, {"name": "StatefulPartitionedCall/Const", "op": "Const", "attr": {"value": {"tensor": {"dtype": "DT_FLOAT", "tensorShape": {"dim": [{"size": "3"}]}}}, "dtype": {"type": "DT_FLOAT"}}}, {"name": "ConstantFolding/StatefulPartitionedCall/truediv_recip", "op": "Const", "attr": {"value": {"tensor": {"dtype": "DT_FLOAT", "tensorShape": {"dim": [{"size": "3"}]}}}, "dtype": {"type": "DT_FLOAT"}}}, {"name": "StatefulPartitionedCall/lightnet/lightnet_block/basic_unit_with_downsampling/sequential_2/separable_conv2d_1/separable_conv2d/ReadVariableOp", "op": "Const", "attr": {"value": {"tensor": {"dtype": "DT_FLOAT", "tensorShape": {"dim": [{"size": "3"}, {"size": "3"}, {"size": "16"}, {"size": "1"}]}}}, "dtype": {"type": "DT_FLOAT"}}}, {"name": "StatefulPartitionedCall/lightnet/lightnet_block/strided_slice_3/stack", "op": "Const", "attr": {"value": {"tensor": {"dtype": "DT_INT32", "tensorShape": {"dim": [{"size": "4"}]}}}, "dtype": {"type": "DT_INT32"}}}, {"name": "StatefulPartitionedCall/lightnet/lightnet_block/strided_slice_3/stack_1", "op": "Const", "attr": {"value": {"tensor": {"dtype": "DT_INT32", "tensorShape": {"dim": [{"size": "4"}]}}}, "dtype": {"type": "DT_INT32"}}}, {"name": "StatefulPartitionedCall/lightnet/lightnet_block/strided_slice_3/stack_2", "op": "Const", "attr": {"value": {"tensor": {"dtype": "DT_INT32", "tensorShape": {"dim": [{"size": "4"}]}}}, "dtype": {"type": "DT_INT32"}}}, {"name": "StatefulPartitionedCall/lightnet/lightnet_block/concat_2/axis", "op": "Const", "attr": {"value": {"tensor": {"dtype": "DT_INT32", "tensorShape": {}}}, "dtype": {"type": "DT_INT32"}}}, {"name": "StatefulPartitionedCall/lightnet/lightnet_block_1/basic_unit_with_downsampling_1/sequential_5/separable_conv2d_4/separable_conv2d/ReadVariableOp", "op": "Const", "attr": {"value": {"tensor": {"dtype": "DT_FLOAT", "tensorShape": {"dim": [{"size": "3"}, {"size": "3"}, {"size": "64"}, {"size": "1"}]}}}, "dtype": {"type": "DT_FLOAT"}}}, {"name": "StatefulPartitionedCall/lightnet/lightnet_block_1/strided_slice_3/stack", "op": "Const", "attr": {"value": {"tensor": {"dtype": "DT_INT32", "tensorShape": {"dim": [{"size": "4"}]}}}, "dtype": {"type": "DT_INT32"}}}, {"name": "StatefulPartitionedCall/lightnet/lightnet_block_1/strided_slice_3/stack_1", "op": "Const", "attr": {"value": {"tensor": {"dtype": "DT_INT32", "tensorShape": {"dim": [{"size": "4"}]}}}, "dtype": {"type": "DT_INT32"}}}, {"name": "StatefulPartitionedCall/lightnet/lightnet_block_1/strided_slice_3/stack_2", "op": "Const", "attr": {"value": {"tensor": {"dtype": "DT_INT32", "tensorShape": {"dim": [{"size": "4"}]}}}, "dtype": {"type": "DT_INT32"}}}, {"name": "StatefulPartitionedCall/lightnet/lightnet_block_1/concat_1/axis", "op": "Const", "attr": {"value": {"tensor": {"dtype": "DT_INT32", "tensorShape": {}}}, "dtype": {"type": "DT_INT32"}}}, {"name": "StatefulPartitionedCall/lightnet/lightnet_block_1/strided_slice_7/stack", "op": "Const", "attr": {"value": {"tensor": {"dtype": "DT_INT32", "tensorShape": {"dim": [{"size": "4"}]}}}, "dtype": {"type": "DT_INT32"}}}, {"name": "StatefulPartitionedCall/lightnet/lightnet_block_1/strided_slice_7/stack_1", "op": "Const", "attr": {"value": {"tensor": {"dtype": "DT_INT32", "tensorShape": {"dim": [{"size": "4"}]}}}, "dtype": {"type": "DT_INT32"}}}, {"name": "StatefulPartitionedCall/lightnet/lightnet_block_1/strided_slice_7/stack_2", "op": "Const", "attr": {"value": {"tensor": {"dtype": "DT_INT32", "tensorShape": {"dim": [{"size": "4"}]}}}, "dtype": {"type": "DT_INT32"}}}, {"name": "StatefulPartitionedCall/lightnet/lightnet_block_1/concat_3/axis", "op": "Const", "attr": {"value": {"tensor": {"dtype": "DT_INT32", "tensorShape": {}}}, "dtype": {"type": "DT_INT32"}}}, {"name": "StatefulPartitionedCall/lightnet/lightnet_block_1/strided_slice_11/stack", "op": "Const", "attr": {"value": {"tensor": {"dtype": "DT_INT32", "tensorShape": {"dim": [{"size": "4"}]}}}, "dtype": {"type": "DT_INT32"}}}, {"name": "StatefulPartitionedCall/lightnet/lightnet_block_1/strided_slice_11/stack_1", "op": "Const", "attr": {"value": {"tensor": {"dtype": "DT_INT32", "tensorShape": {"dim": [{"size": "4"}]}}}, "dtype": {"type": "DT_INT32"}}}, {"name": "StatefulPartitionedCall/lightnet/lightnet_block_1/strided_slice_11/stack_2", "op": "Const", "attr": {"value": {"tensor": {"dtype": "DT_INT32", "tensorShape": {"dim": [{"size": "4"}]}}}, "dtype": {"type": "DT_INT32"}}}, {"name": "StatefulPartitionedCall/lightnet/lightnet_block_1/concat_6/axis", "op": "Const", "attr": {"value": {"tensor": {"dtype": "DT_INT32", "tensorShape": {}}}, "dtype": {"type": "DT_INT32"}}}, {"name": "StatefulPartitionedCall/lightnet/lightnet_block_2/basic_unit_with_downsampling_2/sequential_10/separable_conv2d_9/separable_conv2d/ReadVariableOp", "op": "Const", "attr": {"value": {"tensor": {"dtype": "DT_FLOAT", "tensorShape": {"dim": [{"size": "3"}, {"size": "3"}, {"size": "128"}, {"size": "1"}]}}}, "dtype": {"type": "DT_FLOAT"}}}, {"name": "StatefulPartitionedCall/lightnet/lightnet_block_2/strided_slice_3/stack", "op": "Const", "attr": {"value": {"tensor": {"dtype": "DT_INT32", "tensorShape": {"dim": [{"size": "4"}]}}}, "dtype": {"type": "DT_INT32"}}}, {"name": "StatefulPartitionedCall/lightnet/lightnet_block_2/strided_slice_3/stack_1", "op": "Const", "attr": {"value": {"tensor": {"dtype": "DT_INT32", "tensorShape": {"dim": [{"size": "4"}]}}}, "dtype": {"type": "DT_INT32"}}}, {"name": "StatefulPartitionedCall/lightnet/lightnet_block_2/strided_slice_3/stack_2", "op": "Const", "attr": {"value": {"tensor": {"dtype": "DT_INT32", "tensorShape": {"dim": [{"size": "4"}]}}}, "dtype": {"type": "DT_INT32"}}}, {"name": "StatefulPartitionedCall/lightnet/lightnet_block_2/concat_2/axis", "op": "Const", "attr": {"value": {"tensor": {"dtype": "DT_INT32", "tensorShape": {}}}, "dtype": {"type": "DT_INT32"}}}, {"name": "StatefulPartitionedCall/conv2d_9/Conv2D/ReadVariableOp", "op": "Const", "attr": {"value": {"tensor": {"dtype": "DT_FLOAT", "tensorShape": {"dim": [{"size": "1"}, {"size": "1"}, {"size": "128"}, {"size": "128"}]}}}, "dtype": {"type": "DT_FLOAT"}}}, {"name": "StatefulPartitionedCall/conv2d_9/BiasAdd/ReadVariableOp", "op": "Const", "attr": {"value": {"tensor": {"dtype": "DT_FLOAT", "tensorShape": {"dim": [{"size": "128"}]}}}, "dtype": {"type": "DT_FLOAT"}}}, {"name": "StatefulPartitionedCall/cpm_2/sequential_16/separable_conv2d_15/separable_conv2d/strided_slice_1/stack", "op": "Const", "attr": {"value": {"tensor": {"dtype": "DT_INT32", "tensorShape": {"dim": [{"size": "1"}]}}}, "dtype": {"type": "DT_INT32"}}}, {"name": "StatefulPartitionedCall/cpm_2/sequential_16/separable_conv2d_15/separable_conv2d/strided_slice_1/stack_1", "op": "Const", "attr": {"value": {"tensor": {"dtype": "DT_INT32", "tensorShape": {"dim": [{"size": "1"}]}}}, "dtype": {"type": "DT_INT32"}}}, {"name": "StatefulPartitionedCall/cpm_2/sequential_16/separable_conv2d_15/separable_conv2d/strided_slice_1/stack_2", "op": "Const", "attr": {"value": {"tensor": {"dtype": "DT_INT32", "tensorShape": {"dim": [{"size": "1"}]}}}, "dtype": {"type": "DT_INT32"}}}, {"name": "StatefulPartitionedCall/cpm_2/sequential_16/separable_conv2d_15/separable_conv2d/required_space_to_batch_paddings/add", "op": "Const", "attr": {"value": {"tensor": {"dtype": "DT_INT32", "tensorShape": {"dim": [{"size": "2"}]}}}, "dtype": {"type": "DT_INT32"}}}, {"name": "StatefulPartitionedCall/cpm_2/sequential_16/separable_conv2d_15/separable_conv2d/dilation_rate", "op": "Const", "attr": {"value": {"tensor": {"dtype": "DT_INT32", "tensorShape": {"dim": [{"size": "2"}]}}}, "dtype": {"type": "DT_INT32"}}}, {"name": "StatefulPartitionedCall/cpm_2/sequential_16/separable_conv2d_15/separable_conv2d/required_space_to_batch_paddings/strided_slice_7/stack", "op": "Const", "attr": {"value": {"tensor": {"dtype": "DT_INT32", "tensorShape": {"dim": [{"size": "1"}]}}}, "dtype": {"type": "DT_INT32"}}}, {"name": "StatefulPartitionedCall/cpm_2/sequential_16/separable_conv2d_15/separable_conv2d/required_space_to_batch_paddings/strided_slice_7/stack_1", "op": "Const", "attr": {"value": {"tensor": {"dtype": "DT_INT32", "tensorShape": {"dim": [{"size": "1"}]}}}, "dtype": {"type": "DT_INT32"}}}, {"name": "StatefulPartitionedCall/cpm_2/sequential_16/separable_conv2d_15/separable_conv2d/required_space_to_batch_paddings/strided_slice_7/stack_2", "op": "Const", "attr": {"value": {"tensor": {"dtype": "DT_INT32", "tensorShape": {"dim": [{"size": "1"}]}}}, "dtype": {"type": "DT_INT32"}}}, {"name": "StatefulPartitionedCall/cpm_2/sequential_17/separable_conv2d_16/separable_conv2d/strided_slice_1/stack", "op": "Const", "attr": {"value": {"tensor": {"dtype": "DT_INT32", "tensorShape": {"dim": [{"size": "1"}]}}}, "dtype": {"type": "DT_INT32"}}}, {"name": "StatefulPartitionedCall/cpm_2/sequential_17/separable_conv2d_16/separable_conv2d/strided_slice_1/stack_1", "op": "Const", "attr": {"value": {"tensor": {"dtype": "DT_INT32", "tensorShape": {"dim": [{"size": "1"}]}}}, "dtype": {"type": "DT_INT32"}}}, {"name": "StatefulPartitionedCall/cpm_2/sequential_17/separable_conv2d_16/separable_conv2d/strided_slice_1/stack_2", "op": "Const", "attr": {"value": {"tensor": {"dtype": "DT_INT32", "tensorShape": {"dim": [{"size": "1"}]}}}, "dtype": {"type": "DT_INT32"}}}, {"name": "StatefulPartitionedCall/cpm_2/sequential_17/separable_conv2d_16/separable_conv2d/required_space_to_batch_paddings/add", "op": "Const", "attr": {"value": {"tensor": {"dtype": "DT_INT32", "tensorShape": {"dim": [{"size": "2"}]}}}, "dtype": {"type": "DT_INT32"}}}, {"name": "StatefulPartitionedCall/cpm_2/sequential_17/separable_conv2d_16/separable_conv2d/dilation_rate", "op": "Const", "attr": {"value": {"tensor": {"dtype": "DT_INT32", "tensorShape": {"dim": [{"size": "2"}]}}}, "dtype": {"type": "DT_INT32"}}}, {"name": "StatefulPartitionedCall/cpm_2/sequential_17/separable_conv2d_16/separable_conv2d/required_space_to_batch_paddings/strided_slice_7/stack", "op": "Const", "attr": {"value": {"tensor": {"dtype": "DT_INT32", "tensorShape": {"dim": [{"size": "1"}]}}}, "dtype": {"type": "DT_INT32"}}}, {"name": "StatefulPartitionedCall/cpm_2/sequential_17/separable_conv2d_16/separable_conv2d/required_space_to_batch_paddings/strided_slice_7/stack_1", "op": "Const", "attr": {"value": {"tensor": {"dtype": "DT_INT32", "tensorShape": {"dim": [{"size": "1"}]}}}, "dtype": {"type": "DT_INT32"}}}, {"name": "StatefulPartitionedCall/cpm_2/sequential_17/separable_conv2d_16/separable_conv2d/required_space_to_batch_paddings/strided_slice_7/stack_2", "op": "Const", "attr": {"value": {"tensor": {"dtype": "DT_INT32", "tensorShape": {"dim": [{"size": "1"}]}}}, "dtype": {"type": "DT_INT32"}}}, {"name": "StatefulPartitionedCall/cpm_2/concat/axis", "op": "Const", "attr": {"value": {"tensor": {"dtype": "DT_INT32", "tensorShape": {}}}, "dtype": {"type": "DT_INT32"}}}, {"name": "StatefulPartitionedCall/ssd_head/strided_slice_5/stack", "op": "Const", "attr": {"value": {"tensor": {"dtype": "DT_INT32", "tensorShape": {"dim": [{"size": "1"}]}}}, "dtype": {"type": "DT_INT32"}}}, {"name": "StatefulPartitionedCall/ssd_head/strided_slice_5/stack_1", "op": "Const", "attr": {"value": {"tensor": {"dtype": "DT_INT32", "tensorShape": {"dim": [{"size": "1"}]}}}, "dtype": {"type": "DT_INT32"}}}, {"name": "StatefulPartitionedCall/ssd_head/strided_slice_5/stack_2", "op": "Const", "attr": {"value": {"tensor": {"dtype": "DT_INT32", "tensorShape": {"dim": [{"size": "1"}]}}}, "dtype": {"type": "DT_INT32"}}}, {"name": "StatefulPartitionedCall/ssd_head/Reshape_11/shape/2", "op": "Const", "attr": {"value": {"tensor": {"dtype": "DT_INT32", "tensorShape": {}}}, "dtype": {"type": "DT_INT32"}}}, {"name": "StatefulPartitionedCall/ssd_head/concat_1/axis", "op": "Const", "attr": {"value": {"tensor": {"dtype": "DT_INT32", "tensorShape": {}}}, "dtype": {"type": "DT_INT32"}}}, {"name": "StatefulPartitionedCall/postprocessing/strided_slice_2/stack", "op": "Const", "attr": {"value": {"tensor": {"dtype": "DT_INT32", "tensorShape": {"dim": [{"size": "3"}]}}}, "dtype": {"type": "DT_INT32"}}}, {"name": "StatefulPartitionedCall/postprocessing/strided_slice_2/stack_1", "op": "Const", "attr": {"value": {"tensor": {"dtype": "DT_INT32", "tensorShape": {"dim": [{"size": "3"}]}}}, "dtype": {"type": "DT_INT32"}}}, {"name": "StatefulPartitionedCall/postprocessing/strided_slice_2/stack_2", "op": "Const", "attr": {"value": {"tensor": {"dtype": "DT_INT32", "tensorShape": {"dim": [{"size": "3"}]}}}, "dtype": {"type": "DT_INT32"}}}, {"name": "StatefulPartitionedCall/postprocessing/Max/reduction_indices", "op": "Const", "attr": {"value": {"tensor": {"dtype": "DT_INT32", "tensorShape": {}}}, "dtype": {"type": "DT_INT32"}}}, {"name": "StatefulPartitionedCall/postprocessing/ExpandDims_1/dim", "op": "Const", "attr": {"value": {"tensor": {"dtype": "DT_INT32", "tensorShape": {}}}, "dtype": {"type": "DT_INT32"}}}, {"name": "StatefulPartitionedCall/postprocessing/concat/axis", "op": "Const", "attr": {"value": {"tensor": {"dtype": "DT_INT32", "tensorShape": {}}}, "dtype": {"type": "DT_INT32"}}}, {"name": "images", "op": "Placeholder", "attr": {"shape": {"shape": {"dim": [{"size": "-1"}, {"size": "-1"}, {"size": "-1"}, {"size": "3"}]}}, "dtype": {"type": "DT_FLOAT"}}}, {"name": "StatefulPartitionedCall/lightnet/sequential/conv2d/Conv2D_weights", "op": "Const", "attr": {"value": {"tensor": {"dtype": "DT_FLOAT", "tensorShape": {"dim": [{"size": "3"}, {"size": "3"}, {"size": "3"}, {"size": "16"}]}}}, "dtype": {"type": "DT_FLOAT"}}}, {"name": "StatefulPartitionedCall/lightnet/sequential/conv2d/Conv2D_bn_offset", "op": "Const", "attr": {"value": {"tensor": {"dtype": "DT_FLOAT", "tensorShape": {"dim": [{"size": "16"}]}}}, "dtype": {"type": "DT_FLOAT"}}}, {"name": "StatefulPartitionedCall/lightnet/lightnet_block/basic_unit_with_downsampling/sequential_1/conv2d_1/Conv2D_weights", "op": "Const", "attr": {"value": {"tensor": {"dtype": "DT_FLOAT", "tensorShape": {"dim": [{"size": "1"}, {"size": "1"}, {"size": "16"}, {"size": "32"}]}}}, "dtype": {"type": "DT_FLOAT"}}}, {"name": "StatefulPartitionedCall/lightnet/lightnet_block/basic_unit_with_downsampling/sequential_1/conv2d_1/Conv2D_bn_offset", "op": "Const", "attr": {"value": {"tensor": {"dtype": "DT_FLOAT", "tensorShape": {"dim": [{"size": "32"}]}}}, "dtype": {"type": "DT_FLOAT"}}}, {"name": "StatefulPartitionedCall/lightnet/lightnet_block/basic_unit_with_downsampling/sequential_2/separable_conv2d_1/separable_conv2d_weights", "op": "Const", "attr": {"value": {"tensor": {"dtype": "DT_FLOAT", "tensorShape": {"dim": [{"size": "1"}, {"size": "1"}, {"size": "16"}, {"size": "32"}]}}}, "dtype": {"type": "DT_FLOAT"}}}, {"name": "StatefulPartitionedCall/lightnet/lightnet_block/basic_unit_with_downsampling/sequential_2/separable_conv2d_1/separable_conv2d_bn_offset", "op": "Const", "attr": {"value": {"tensor": {"dtype": "DT_FLOAT", "tensorShape": {"dim": [{"size": "32"}]}}}, "dtype": {"type": "DT_FLOAT"}}}, {"name": "StatefulPartitionedCall/lightnet/lightnet_block/basic_unit_with_downsampling/sequential_1/separable_conv2d/separable_conv2d_weights", "op": "Const", "attr": {"value": {"tensor": {"dtype": "DT_FLOAT", "tensorShape": {"dim": [{"size": "1"}, {"size": "1"}, {"size": "32"}, {"size": "32"}]}}}, "dtype": {"type": "DT_FLOAT"}}}, {"name": "StatefulPartitionedCall/lightnet/lightnet_block/basic_unit_with_downsampling/sequential_1/separable_conv2d/separable_conv2d_bn_offset", "op": "Const", "attr": {"value": {"tensor": {"dtype": "DT_FLOAT", "tensorShape": {"dim": [{"size": "32"}]}}}, "dtype": {"type": "DT_FLOAT"}}}, {"name": "StatefulPartitionedCall/lightnet/lightnet_block/basic_unit/sequential_3/conv2d_2/Conv2D_weights", "op": "Const", "attr": {"value": {"tensor": {"dtype": "DT_FLOAT", "tensorShape": {"dim": [{"size": "1"}, {"size": "1"}, {"size": "32"}, {"size": "32"}]}}}, "dtype": {"type": "DT_FLOAT"}}}, {"name": "StatefulPartitionedCall/lightnet/lightnet_block/basic_unit/sequential_3/conv2d_2/Conv2D_bn_offset", "op": "Const", "attr": {"value": {"tensor": {"dtype": "DT_FLOAT", "tensorShape": {"dim": [{"size": "32"}]}}}, "dtype": {"type": "DT_FLOAT"}}}, {"name": "StatefulPartitionedCall/lightnet/lightnet_block/basic_unit/sequential_3/separable_conv2d_2/separable_conv2d_weights", "op": "Const", "attr": {"value": {"tensor": {"dtype": "DT_FLOAT", "tensorShape": {"dim": [{"size": "1"}, {"size": "1"}, {"size": "32"}, {"size": "32"}]}}}, "dtype": {"type": "DT_FLOAT"}}}, {"name": "StatefulPartitionedCall/lightnet/lightnet_block/basic_unit/sequential_3/separable_conv2d_2/separable_conv2d_bn_offset", "op": "Const", "attr": {"value": {"tensor": {"dtype": "DT_FLOAT", "tensorShape": {"dim": [{"size": "32"}]}}}, "dtype": {"type": "DT_FLOAT"}}}, {"name": "StatefulPartitionedCall/lightnet/lightnet_block_1/basic_unit_with_downsampling_1/sequential_4/conv2d_3/Conv2D_weights", "op": "Const", "attr": {"value": {"tensor": {"dtype": "DT_FLOAT", "tensorShape": {"dim": [{"size": "1"}, {"size": "1"}, {"size": "64"}, {"size": "64"}]}}}, "dtype": {"type": "DT_FLOAT"}}}, {"name": "StatefulPartitionedCall/lightnet/lightnet_block_1/basic_unit_with_downsampling_1/sequential_4/conv2d_3/Conv2D_bn_offset", "op": "Const", "attr": {"value": {"tensor": {"dtype": "DT_FLOAT", "tensorShape": {"dim": [{"size": "64"}]}}}, "dtype": {"type": "DT_FLOAT"}}}, {"name": "StatefulPartitionedCall/lightnet/lightnet_block_1/basic_unit_with_downsampling_1/sequential_5/separable_conv2d_4/separable_conv2d_weights", "op": "Const", "attr": {"value": {"tensor": {"dtype": "DT_FLOAT", "tensorShape": {"dim": [{"size": "1"}, {"size": "1"}, {"size": "64"}, {"size": "64"}]}}}, "dtype": {"type": "DT_FLOAT"}}}, {"name": "StatefulPartitionedCall/lightnet/lightnet_block_1/basic_unit_with_downsampling_1/sequential_5/separable_conv2d_4/separable_conv2d_bn_offset", "op": "Const", "attr": {"value": {"tensor": {"dtype": "DT_FLOAT", "tensorShape": {"dim": [{"size": "64"}]}}}, "dtype": {"type": "DT_FLOAT"}}}, {"name": "StatefulPartitionedCall/lightnet/lightnet_block_1/basic_unit_with_downsampling_1/sequential_4/separable_conv2d_3/separable_conv2d_weights", "op": "Const", "attr": {"value": {"tensor": {"dtype": "DT_FLOAT", "tensorShape": {"dim": [{"size": "1"}, {"size": "1"}, {"size": "64"}, {"size": "64"}]}}}, "dtype": {"type": "DT_FLOAT"}}}, {"name": "StatefulPartitionedCall/lightnet/lightnet_block_1/basic_unit_with_downsampling_1/sequential_4/separable_conv2d_3/separable_conv2d_bn_offset", "op": "Const", "attr": {"value": {"tensor": {"dtype": "DT_FLOAT", "tensorShape": {"dim": [{"size": "64"}]}}}, "dtype": {"type": "DT_FLOAT"}}}, {"name": "StatefulPartitionedCall/lightnet/lightnet_block_1/basic_unit_1/sequential_6/conv2d_4/Conv2D_weights", "op": "Const", "attr": {"value": {"tensor": {"dtype": "DT_FLOAT", "tensorShape": {"dim": [{"size": "1"}, {"size": "1"}, {"size": "64"}, {"size": "64"}]}}}, "dtype": {"type": "DT_FLOAT"}}}, {"name": "StatefulPartitionedCall/lightnet/lightnet_block_1/basic_unit_1/sequential_6/conv2d_4/Conv2D_bn_offset", "op": "Const", "attr": {"value": {"tensor": {"dtype": "DT_FLOAT", "tensorShape": {"dim": [{"size": "64"}]}}}, "dtype": {"type": "DT_FLOAT"}}}, {"name": "StatefulPartitionedCall/lightnet/lightnet_block_1/basic_unit_1/sequential_6/separable_conv2d_5/separable_conv2d_weights", "op": "Const", "attr": {"value": {"tensor": {"dtype": "DT_FLOAT", "tensorShape": {"dim": [{"size": "1"}, {"size": "1"}, {"size": "64"}, {"size": "64"}]}}}, "dtype": {"type": "DT_FLOAT"}}}, {"name": "StatefulPartitionedCall/lightnet/lightnet_block_1/basic_unit_1/sequential_6/separable_conv2d_5/separable_conv2d_bn_offset", "op": "Const", "attr": {"value": {"tensor": {"dtype": "DT_FLOAT", "tensorShape": {"dim": [{"size": "64"}]}}}, "dtype": {"type": "DT_FLOAT"}}}, {"name": "StatefulPartitionedCall/lightnet/lightnet_block_1/basic_unit_2/sequential_7/conv2d_5/Conv2D_weights", "op": "Const", "attr": {"value": {"tensor": {"dtype": "DT_FLOAT", "tensorShape": {"dim": [{"size": "1"}, {"size": "1"}, {"size": "64"}, {"size": "64"}]}}}, "dtype": {"type": "DT_FLOAT"}}}, {"name": "StatefulPartitionedCall/lightnet/lightnet_block_1/basic_unit_2/sequential_7/conv2d_5/Conv2D_bn_offset", "op": "Const", "attr": {"value": {"tensor": {"dtype": "DT_FLOAT", "tensorShape": {"dim": [{"size": "64"}]}}}, "dtype": {"type": "DT_FLOAT"}}}, {"name": "StatefulPartitionedCall/lightnet/lightnet_block_1/basic_unit_2/sequential_7/separable_conv2d_6/separable_conv2d_weights", "op": "Const", "attr": {"value": {"tensor": {"dtype": "DT_FLOAT", "tensorShape": {"dim": [{"size": "1"}, {"size": "1"}, {"size": "64"}, {"size": "64"}]}}}, "dtype": {"type": "DT_FLOAT"}}}, {"name": "StatefulPartitionedCall/lightnet/lightnet_block_1/basic_unit_2/sequential_7/separable_conv2d_6/separable_conv2d_bn_offset", "op": "Const", "attr": {"value": {"tensor": {"dtype": "DT_FLOAT", "tensorShape": {"dim": [{"size": "64"}]}}}, "dtype": {"type": "DT_FLOAT"}}}, {"name": "StatefulPartitionedCall/lightnet/lightnet_block_1/basic_unit_3/sequential_8/conv2d_6/Conv2D_weights", "op": "Const", "attr": {"value": {"tensor": {"dtype": "DT_FLOAT", "tensorShape": {"dim": [{"size": "1"}, {"size": "1"}, {"size": "64"}, {"size": "64"}]}}}, "dtype": {"type": "DT_FLOAT"}}}, {"name": "StatefulPartitionedCall/lightnet/lightnet_block_1/basic_unit_3/sequential_8/conv2d_6/Conv2D_bn_offset", "op": "Const", "attr": {"value": {"tensor": {"dtype": "DT_FLOAT", "tensorShape": {"dim": [{"size": "64"}]}}}, "dtype": {"type": "DT_FLOAT"}}}, {"name": "StatefulPartitionedCall/lightnet/lightnet_block_1/basic_unit_3/sequential_8/separable_conv2d_7/separable_conv2d_weights", "op": "Const", "attr": {"value": {"tensor": {"dtype": "DT_FLOAT", "tensorShape": {"dim": [{"size": "1"}, {"size": "1"}, {"size": "64"}, {"size": "64"}]}}}, "dtype": {"type": "DT_FLOAT"}}}, {"name": "StatefulPartitionedCall/lightnet/lightnet_block_1/basic_unit_3/sequential_8/separable_conv2d_7/separable_conv2d_bn_offset", "op": "Const", "attr": {"value": {"tensor": {"dtype": "DT_FLOAT", "tensorShape": {"dim": [{"size": "64"}]}}}, "dtype": {"type": "DT_FLOAT"}}}, {"name": "StatefulPartitionedCall/lightnet/lightnet_block_2/basic_unit_with_downsampling_2/sequential_9/conv2d_7/Conv2D_weights", "op": "Const", "attr": {"value": {"tensor": {"dtype": "DT_FLOAT", "tensorShape": {"dim": [{"size": "1"}, {"size": "1"}, {"size": "128"}, {"size": "64"}]}}}, "dtype": {"type": "DT_FLOAT"}}}, {"name": "StatefulPartitionedCall/lightnet/lightnet_block_2/basic_unit_with_downsampling_2/sequential_9/conv2d_7/Conv2D_bn_offset", "op": "Const", "attr": {"value": {"tensor": {"dtype": "DT_FLOAT", "tensorShape": {"dim": [{"size": "64"}]}}}, "dtype": {"type": "DT_FLOAT"}}}, {"name": "StatefulPartitionedCall/lightnet/lightnet_block_2/basic_unit_with_downsampling_2/sequential_10/separable_conv2d_9/separable_conv2d_weights", "op": "Const", "attr": {"value": {"tensor": {"dtype": "DT_FLOAT", "tensorShape": {"dim": [{"size": "1"}, {"size": "1"}, {"size": "128"}, {"size": "64"}]}}}, "dtype": {"type": "DT_FLOAT"}}}, {"name": "StatefulPartitionedCall/lightnet/lightnet_block_2/basic_unit_with_downsampling_2/sequential_10/separable_conv2d_9/separable_conv2d_bn_offset", "op": "Const", "attr": {"value": {"tensor": {"dtype": "DT_FLOAT", "tensorShape": {"dim": [{"size": "64"}]}}}, "dtype": {"type": "DT_FLOAT"}}}, {"name": "StatefulPartitionedCall/lightnet/lightnet_block_2/basic_unit_with_downsampling_2/sequential_9/separable_conv2d_8/separable_conv2d_weights", "op": "Const", "attr": {"value": {"tensor": {"dtype": "DT_FLOAT", "tensorShape": {"dim": [{"size": "1"}, {"size": "1"}, {"size": "64"}, {"size": "64"}]}}}, "dtype": {"type": "DT_FLOAT"}}}, {"name": "StatefulPartitionedCall/lightnet/lightnet_block_2/basic_unit_with_downsampling_2/sequential_9/separable_conv2d_8/separable_conv2d_bn_offset", "op": "Const", "attr": {"value": {"tensor": {"dtype": "DT_FLOAT", "tensorShape": {"dim": [{"size": "64"}]}}}, "dtype": {"type": "DT_FLOAT"}}}, {"name": "StatefulPartitionedCall/lightnet/lightnet_block_2/basic_unit_4/sequential_11/conv2d_8/Conv2D_weights", "op": "Const", "attr": {"value": {"tensor": {"dtype": "DT_FLOAT", "tensorShape": {"dim": [{"size": "1"}, {"size": "1"}, {"size": "64"}, {"size": "64"}]}}}, "dtype": {"type": "DT_FLOAT"}}}, {"name": "StatefulPartitionedCall/lightnet/lightnet_block_2/basic_unit_4/sequential_11/conv2d_8/Conv2D_bn_offset", "op": "Const", "attr": {"value": {"tensor": {"dtype": "DT_FLOAT", "tensorShape": {"dim": [{"size": "64"}]}}}, "dtype": {"type": "DT_FLOAT"}}}, {"name": "StatefulPartitionedCall/lightnet/lightnet_block_2/basic_unit_4/sequential_11/separable_conv2d_10/separable_conv2d_weights", "op": "Const", "attr": {"value": {"tensor": {"dtype": "DT_FLOAT", "tensorShape": {"dim": [{"size": "1"}, {"size": "1"}, {"size": "64"}, {"size": "64"}]}}}, "dtype": {"type": "DT_FLOAT"}}}, {"name": "StatefulPartitionedCall/lightnet/lightnet_block_2/basic_unit_4/sequential_11/separable_conv2d_10/separable_conv2d_bn_offset", "op": "Const", "attr": {"value": {"tensor": {"dtype": "DT_FLOAT", "tensorShape": {"dim": [{"size": "64"}]}}}, "dtype": {"type": "DT_FLOAT"}}}, {"name": "StatefulPartitionedCall/cpm_2/sequential_16/separable_conv2d_15/separable_conv2d_weights", "op": "Const", "attr": {"value": {"tensor": {"dtype": "DT_FLOAT", "tensorShape": {"dim": [{"size": "1"}, {"size": "1"}, {"size": "128"}, {"size": "32"}]}}}, "dtype": {"type": "DT_FLOAT"}}}, {"name": "StatefulPartitionedCall/cpm_2/sequential_16/separable_conv2d_15/separable_conv2d_bn_offset", "op": "Const", "attr": {"value": {"tensor": {"dtype": "DT_FLOAT", "tensorShape": {"dim": [{"size": "32"}]}}}, "dtype": {"type": "DT_FLOAT"}}}, {"name": "StatefulPartitionedCall/cpm_1/sequential_14/separable_conv2d_13/separable_conv2d_weights", "op": "Const", "attr": {"value": {"tensor": {"dtype": "DT_FLOAT", "tensorShape": {"dim": [{"size": "1"}, {"size": "1"}, {"size": "128"}, {"size": "32"}]}}}, "dtype": {"type": "DT_FLOAT"}}}, {"name": "StatefulPartitionedCall/cpm_1/sequential_14/separable_conv2d_13/separable_conv2d_bn_offset", "op": "Const", "attr": {"value": {"tensor": {"dtype": "DT_FLOAT", "tensorShape": {"dim": [{"size": "32"}]}}}, "dtype": {"type": "DT_FLOAT"}}}, {"name": "StatefulPartitionedCall/cpm/sequential_12/separable_conv2d_11/separable_conv2d_weights", "op": "Const", "attr": {"value": {"tensor": {"dtype": "DT_FLOAT", "tensorShape": {"dim": [{"size": "1"}, {"size": "1"}, {"size": "128"}, {"size": "32"}]}}}, "dtype": {"type": "DT_FLOAT"}}}, {"name": "StatefulPartitionedCall/cpm/sequential_12/separable_conv2d_11/separable_conv2d_bn_offset", "op": "Const", "attr": {"value": {"tensor": {"dtype": "DT_FLOAT", "tensorShape": {"dim": [{"size": "32"}]}}}, "dtype": {"type": "DT_FLOAT"}}}, {"name": "StatefulPartitionedCall/cpm_2/sequential_17/separable_conv2d_16/separable_conv2d_weights", "op": "Const", "attr": {"value": {"tensor": {"dtype": "DT_FLOAT", "tensorShape": {"dim": [{"size": "1"}, {"size": "1"}, {"size": "32"}, {"size": "32"}]}}}, "dtype": {"type": "DT_FLOAT"}}}, {"name": "StatefulPartitionedCall/cpm_2/sequential_17/separable_conv2d_16/separable_conv2d_bn_offset", "op": "Const", "attr": {"value": {"tensor": {"dtype": "DT_FLOAT", "tensorShape": {"dim": [{"size": "32"}]}}}, "dtype": {"type": "DT_FLOAT"}}}, {"name": "StatefulPartitionedCall/cpm_1/sequential_15/separable_conv2d_14/separable_conv2d_weights", "op": "Const", "attr": {"value": {"tensor": {"dtype": "DT_FLOAT", "tensorShape": {"dim": [{"size": "1"}, {"size": "1"}, {"size": "32"}, {"size": "32"}]}}}, "dtype": {"type": "DT_FLOAT"}}}, {"name": "StatefulPartitionedCall/cpm_1/sequential_15/separable_conv2d_14/separable_conv2d_bn_offset", "op": "Const", "attr": {"value": {"tensor": {"dtype": "DT_FLOAT", "tensorShape": {"dim": [{"size": "32"}]}}}, "dtype": {"type": "DT_FLOAT"}}}, {"name": "StatefulPartitionedCall/cpm/sequential_13/separable_conv2d_12/separable_conv2d_weights", "op": "Const", "attr": {"value": {"tensor": {"dtype": "DT_FLOAT", "tensorShape": {"dim": [{"size": "1"}, {"size": "1"}, {"size": "32"}, {"size": "32"}]}}}, "dtype": {"type": "DT_FLOAT"}}}, {"name": "StatefulPartitionedCall/cpm/sequential_13/separable_conv2d_12/separable_conv2d_bn_offset", "op": "Const", "attr": {"value": {"tensor": {"dtype": "DT_FLOAT", "tensorShape": {"dim": [{"size": "32"}]}}}, "dtype": {"type": "DT_FLOAT"}}}, {"name": "StatefulPartitionedCall/Shape_1", "op": "Shape", "input": ["images"], "attr": {"T": {"type": "DT_FLOAT"}, "out_type": {"type": "DT_INT32"}}}, {"name": "StatefulPartitionedCall/Shape", "op": "Shape", "input": ["images"], "attr": {"out_type": {"type": "DT_INT32"}, "T": {"type": "DT_FLOAT"}}}, {"name": "StatefulPartitionedCall/sub", "op": "Sub", "input": ["images", "StatefulPartitionedCall/Const"], "attr": {"T": {"type": "DT_FLOAT"}}}, {"name": "StatefulPartitionedCall/strided_slice_1", "op": "StridedSlice", "input": ["StatefulPartitionedCall/Shape_1", "StatefulPartitionedCall/strided_slice_1/stack", "StatefulPartitionedCall/strided_slice_1/stack_1", "StatefulPartitionedCall/strided_slice_1/stack_2"], "attr": {"shrink_axis_mask": {"i": "1"}, "ellipsis_mask": {"i": "0"}, "begin_mask": {"i": "0"}, "new_axis_mask": {"i": "0"}, "end_mask": {"i": "0"}, "T": {"type": "DT_INT32"}, "Index": {"type": "DT_INT32"}}}, {"name": "StatefulPartitionedCall/strided_slice", "op": "StridedSlice", "input": ["StatefulPartitionedCall/Shape", "StatefulPartitionedCall/strided_slice/stack", "StatefulPartitionedCall/strided_slice/stack_1", "StatefulPartitionedCall/strided_slice/stack_2"], "attr": {"Index": {"type": "DT_INT32"}, "T": {"type": "DT_INT32"}, "shrink_axis_mask": {"i": "1"}, "ellipsis_mask": {"i": "0"}, "begin_mask": {"i": "0"}, "new_axis_mask": {"i": "0"}, "end_mask": {"i": "0"}}}, {"name": "StatefulPartitionedCall/truediv", "op": "Mul", "input": ["StatefulPartitionedCall/sub", "ConstantFolding/StatefulPartitionedCall/truediv_recip"], "attr": {"T": {"type": "DT_FLOAT"}}}, {"name": "StatefulPartitionedCall/Cast_3", "op": "Cast", "input": ["StatefulPartitionedCall/strided_slice_1"], "attr": {"Truncate": {"b": false}, "DstT": {"type": "DT_FLOAT"}, "SrcT": {"type": "DT_INT32"}}}, {"name": "StatefulPartitionedCall/truediv_2/Cast", "op": "Cast", "input": ["StatefulPartitionedCall/strided_slice_1"], "attr": {"DstT": {"type": "DT_DOUBLE"}, "SrcT": {"type": "DT_INT32"}, "Truncate": {"b": false}}}, {"name": "StatefulPartitionedCall/Cast_7", "op": "Cast", "input": ["StatefulPartitionedCall/strided_slice_1"], "attr": {"DstT": {"type": "DT_FLOAT"}, "SrcT": {"type": "DT_INT32"}, "Truncate": {"b": false}}}, {"name": "StatefulPartitionedCall/truediv_8/Cast", "op": "Cast", "input": ["StatefulPartitionedCall/strided_slice_1"], "attr": {"SrcT": {"type": "DT_INT32"}, "Truncate": {"b": false}, "DstT": {"type": "DT_DOUBLE"}}}, {"name": "StatefulPartitionedCall/Cast_11", "op": "Cast", "input": ["StatefulPartitionedCall/strided_slice_1"], "attr": {"Truncate": {"b": false}, "DstT": {"type": "DT_FLOAT"}, "SrcT": {"type": "DT_INT32"}}}, {"name": "StatefulPartitionedCall/truediv_14/Cast", "op": "Cast", "input": ["StatefulPartitionedCall/strided_slice_1"], "attr": {"Truncate": {"b": false}, "DstT": {"type": "DT_DOUBLE"}, "SrcT": {"type": "DT_INT32"}}}, {"name": "StatefulPartitionedCall/truediv_1/Cast", "op": "Cast", "input": ["StatefulPartitionedCall/strided_slice"], "attr": {"SrcT": {"type": "DT_INT32"}, "Truncate": {"b": false}, "DstT": {"type": "DT_DOUBLE"}}}, {"name": "StatefulPartitionedCall/Cast_2", "op": "Cast", "input": ["StatefulPartitionedCall/strided_slice"], "attr": {"DstT": {"type": "DT_FLOAT"}, "SrcT": {"type": "DT_INT32"}, "Truncate": {"b": false}}}, {"name": "StatefulPartitionedCall/truediv_7/Cast", "op": "Cast", "input": ["StatefulPartitionedCall/strided_slice"], "attr": {"Truncate": {"b": false}, "DstT": {"type": "DT_DOUBLE"}, "SrcT": {"type": "DT_INT32"}}}, {"name": "StatefulPartitionedCall/Cast_6", "op": "Cast", "input": ["StatefulPartitionedCall/strided_slice"], "attr": {"SrcT": {"type": "DT_INT32"}, "Truncate": {"b": false}, "DstT": {"type": "DT_FLOAT"}}}, {"name": "StatefulPartitionedCall/truediv_13/Cast", "op": "Cast", "input": ["StatefulPartitionedCall/strided_slice"], "attr": {"DstT": {"type": "DT_DOUBLE"}, "SrcT": {"type": "DT_INT32"}, "Truncate": {"b": false}}}, {"name": "StatefulPartitionedCall/Cast_10", "op": "Cast", "input": ["StatefulPartitionedCall/strided_slice"], "attr": {"Truncate": {"b": false}, "DstT": {"type": "DT_FLOAT"}, "SrcT": {"type": "DT_INT32"}}}, {"name": "StatefulPartitionedCall/lightnet/sequential/re_lu/Relu", "op": "_FusedConv2D", "input": ["StatefulPartitionedCall/truediv", "StatefulPartitionedCall/lightnet/sequential/conv2d/Conv2D_weights", "StatefulPartitionedCall/lightnet/sequential/conv2d/Conv2D_bn_offset"], "device": "/device:CPU:0", "attr": {"dilations": {"list": {"i": ["1", "1", "1", "1"]}}, "T": {"type": "DT_FLOAT"}, "strides": {"list": {"i": ["1", "2", "2", "1"]}}, "data_format": {"s": "TkhXQw=="}, "use_cudnn_on_gpu": {"b": true}, "explicit_paddings": {"list": {}}, "num_args": {"i": "1"}, "epsilon": {"f": 0.0}, "padding": {"s": "U0FNRQ=="}, "fused_ops": {"list": {"s": ["Qmlhc0FkZA==", "UmVsdQ=="]}}}}, {"name": "StatefulPartitionedCall/truediv_2", "op": "Mul", "input": ["StatefulPartitionedCall/truediv_2/Cast", "ConstantFolding/StatefulPartitionedCall/truediv_2_recip"], "attr": {"T": {"type": "DT_DOUBLE"}}}, {"name": "StatefulPartitionedCall/truediv_8", "op": "Mul", "input": ["StatefulPartitionedCall/truediv_8/Cast", "ConstantFolding/StatefulPartitionedCall/truediv_8_recip"], "attr": {"T": {"type": "DT_DOUBLE"}}}, {"name": "StatefulPartitionedCall/truediv_14", "op": "Mul", "input": ["StatefulPartitionedCall/truediv_14/Cast", "ConstantFolding/StatefulPartitionedCall/truediv_14_recip"], "attr": {"T": {"type": "DT_DOUBLE"}}}, {"name": "StatefulPartitionedCall/truediv_1", "op": "Mul", "input": ["StatefulPartitionedCall/truediv_1/Cast", "ConstantFolding/StatefulPartitionedCall/truediv_1_recip"], "attr": {"T": {"type": "DT_DOUBLE"}}}, {"name": "StatefulPartitionedCall/truediv_7", "op": "Mul", "input": ["StatefulPartitionedCall/truediv_7/Cast", "ConstantFolding/StatefulPartitionedCall/truediv_7_recip"], "attr": {"T": {"type": "DT_DOUBLE"}}}, {"name": "StatefulPartitionedCall/truediv_13", "op": "Mul", "input": ["StatefulPartitionedCall/truediv_13/Cast", "ConstantFolding/StatefulPartitionedCall/truediv_13_recip"], "attr": {"T": {"type": "DT_DOUBLE"}}}, {"name": "StatefulPartitionedCall/lightnet/sequential/max_pooling2d/MaxPool", "op": "MaxPool", "input": ["StatefulPartitionedCall/lightnet/sequential/re_lu/Relu"], "attr": {"ksize": {"list": {"i": ["1", "3", "3", "1"]}}, "padding": {"s": "VkFMSUQ="}, "T": {"type": "DT_FLOAT"}, "data_format": {"s": "TkhXQw=="}, "strides": {"list": {"i": ["1", "2", "2", "1"]}}}}, {"name": "StatefulPartitionedCall/Ceil_1", "op": "Ceil", "input": ["StatefulPartitionedCall/truediv_2"], "attr": {"T": {"type": "DT_DOUBLE"}}}, {"name": "StatefulPartitionedCall/Ceil_3", "op": "Ceil", "input": ["StatefulPartitionedCall/truediv_8"], "attr": {"T": {"type": "DT_DOUBLE"}}}, {"name": "StatefulPartitionedCall/Ceil_5", "op": "Ceil", "input": ["StatefulPartitionedCall/truediv_14"], "attr": {"T": {"type": "DT_DOUBLE"}}}, {"name": "StatefulPartitionedCall/Ceil", "op": "Ceil", "input": ["StatefulPartitionedCall/truediv_1"], "attr": {"T": {"type": "DT_DOUBLE"}}}, {"name": "StatefulPartitionedCall/Ceil_2", "op": "Ceil", "input": ["StatefulPartitionedCall/truediv_7"], "attr": {"T": {"type": "DT_DOUBLE"}}}, {"name": "StatefulPartitionedCall/Ceil_4", "op": "Ceil", "input": ["StatefulPartitionedCall/truediv_13"], "attr": {"T": {"type": "DT_DOUBLE"}}}, {"name": "StatefulPartitionedCall/lightnet/lightnet_block/basic_unit_with_downsampling/sequential_2/separable_conv2d_1/separable_conv2d/depthwise", "op": "DepthwiseConv2dNative", "input": ["StatefulPartitionedCall/lightnet/sequential/max_pooling2d/MaxPool", "StatefulPartitionedCall/lightnet/lightnet_block/basic_unit_with_downsampling/sequential_2/separable_conv2d_1/separable_conv2d/ReadVariableOp"], "attr": {"padding": {"s": "U0FNRQ=="}, "dilations": {"list": {"i": ["1", "1", "1", "1"]}}, "T": {"type": "DT_FLOAT"}, "strides": {"list": {"i": ["1", "2", "2", "1"]}}, "data_format": {"s": "TkhXQw=="}, "explicit_paddings": {"list": {}}}}, {"name": "StatefulPartitionedCall/lightnet/lightnet_block/basic_unit_with_downsampling/sequential_1/re_lu_1/Relu", "op": "_FusedConv2D", "input": ["StatefulPartitionedCall/lightnet/sequential/max_pooling2d/MaxPool", "StatefulPartitionedCall/lightnet/lightnet_block/basic_unit_with_downsampling/sequential_1/conv2d_1/Conv2D_weights", "StatefulPartitionedCall/lightnet/lightnet_block/basic_unit_with_downsampling/sequential_1/conv2d_1/Conv2D_bn_offset"], "device": "/device:CPU:0", "attr": {"use_cudnn_on_gpu": {"b": true}, "explicit_paddings": {"list": {}}, "num_args": {"i": "1"}, "epsilon": {"f": 0.0}, "padding": {"s": "U0FNRQ=="}, "fused_ops": {"list": {"s": ["Qmlhc0FkZA==", "UmVsdQ=="]}}, "dilations": {"list": {"i": ["1", "1", "1", "1"]}}, "T": {"type": "DT_FLOAT"}, "strides": {"list": {"i": ["1", "1", "1", "1"]}}, "data_format": {"s": "TkhXQw=="}}}, {"name": "StatefulPartitionedCall/Cast_1", "op": "Cast", "input": ["StatefulPartitionedCall/Ceil_1"], "attr": {"DstT": {"type": "DT_FLOAT"}, "SrcT": {"type": "DT_DOUBLE"}, "Truncate": {"b": false}}}, {"name": "StatefulPartitionedCall/Cast_5", "op": "Cast", "input": ["StatefulPartitionedCall/Ceil_3"], "attr": {"SrcT": {"type": "DT_DOUBLE"}, "Truncate": {"b": false}, "DstT": {"type": "DT_FLOAT"}}}, {"name": "StatefulPartitionedCall/Cast_9", "op": "Cast", "input": ["StatefulPartitionedCall/Ceil_5"], "attr": {"SrcT": {"type": "DT_DOUBLE"}, "Truncate": {"b": false}, "DstT": {"type": "DT_FLOAT"}}}, {"name": "StatefulPartitionedCall/Cast", "op": "Cast", "input": ["StatefulPartitionedCall/Ceil"], "attr": {"SrcT": {"type": "DT_DOUBLE"}, "Truncate": {"b": false}, "DstT": {"type": "DT_FLOAT"}}}, {"name": "StatefulPartitionedCall/Cast_4", "op": "Cast", "input": ["StatefulPartitionedCall/Ceil_2"], "attr": {"SrcT": {"type": "DT_DOUBLE"}, "Truncate": {"b": false}, "DstT": {"type": "DT_FLOAT"}}}, {"name": "StatefulPartitionedCall/Cast_8", "op": "Cast", "input": ["StatefulPartitionedCall/Ceil_4"], "attr": {"SrcT": {"type": "DT_DOUBLE"}, "Truncate": {"b": false}, "DstT": {"type": "DT_FLOAT"}}}, {"name": "StatefulPartitionedCall/lightnet/lightnet_block/basic_unit_with_downsampling/sequential_2/re_lu_3/Relu", "op": "_FusedConv2D", "input": ["StatefulPartitionedCall/lightnet/lightnet_block/basic_unit_with_downsampling/sequential_2/separable_conv2d_1/separable_conv2d/depthwise", "StatefulPartitionedCall/lightnet/lightnet_block/basic_unit_with_downsampling/sequential_2/separable_conv2d_1/separable_conv2d_weights", "StatefulPartitionedCall/lightnet/lightnet_block/basic_unit_with_downsampling/sequential_2/separable_conv2d_1/separable_conv2d_bn_offset"], "device": "/device:CPU:0", "attr": {"dilations": {"list": {"i": ["1", "1", "1", "1"]}}, "T": {"type": "DT_FLOAT"}, "data_format": {"s": "TkhXQw=="}, "strides": {"list": {"i": ["1", "1", "1", "1"]}}, "explicit_paddings": {"list": {}}, "use_cudnn_on_gpu": {"b": true}, "num_args": {"i": "1"}, "epsilon": {"f": 0.0}, "padding": {"s": "VkFMSUQ="}, "fused_ops": {"list": {"s": ["Qmlhc0FkZA==", "UmVsdQ=="]}}}}, {"name": "StatefulPartitionedCall/lightnet/lightnet_block/basic_unit_with_downsampling/sequential_1/separable_conv2d/separable_conv2d/depthwise", "op": "DepthwiseConv2dNative", "input": ["StatefulPartitionedCall/lightnet/lightnet_block/basic_unit_with_downsampling/sequential_1/re_lu_1/Relu", "StatefulPartitionedCall/lightnet/lightnet_block/basic_unit_with_downsampling/sequential_1/separable_conv2d/separable_conv2d/ReadVariableOp"], "attr": {"padding": {"s": "U0FNRQ=="}, "dilations": {"list": {"i": ["1", "1", "1", "1"]}}, "T": {"type": "DT_FLOAT"}, "data_format": {"s": "TkhXQw=="}, "strides": {"list": {"i": ["1", "2", "2", "1"]}}, "explicit_paddings": {"list": {}}}}, {"name": "StatefulPartitionedCall/range", "op": "Range", "input": ["StatefulPartitionedCall/range/Cast", "StatefulPartitionedCall/Cast_1", "StatefulPartitionedCall/range/Cast_1"], "attr": {"Tidx": {"type": "DT_FLOAT"}}}, {"name": "StatefulPartitionedCall/Reshape_4/Cast_1", "op": "Cast", "input": ["StatefulPartitionedCall/Cast_1"], "attr": {"DstT": {"type": "DT_INT32"}, "SrcT": {"type": "DT_FLOAT"}, "Truncate": {"b": false}}}, {"name": "StatefulPartitionedCall/range_2", "op": "Range", "input": ["StatefulPartitionedCall/range_2/Cast", "StatefulPartitionedCall/Cast_5", "StatefulPartitionedCall/range_2/Cast_1"], "attr": {"Tidx": {"type": "DT_FLOAT"}}}, {"name": "StatefulPartitionedCall/Reshape_9/Cast_1", "op": "Cast", "input": ["StatefulPartitionedCall/Cast_5"], "attr": {"SrcT": {"type": "DT_FLOAT"}, "Truncate": {"b": false}, "DstT": {"type": "DT_INT32"}}}, {"name": "StatefulPartitionedCall/range_4", "op": "Range", "input": ["StatefulPartitionedCall/range_4/Cast", "StatefulPartitionedCall/Cast_9", "StatefulPartitionedCall/range_4/Cast_1"], "attr": {"Tidx": {"type": "DT_FLOAT"}}}, {"name": "StatefulPartitionedCall/Reshape_14/Cast_1", "op": "Cast", "input": ["StatefulPartitionedCall/Cast_9"], "attr": {"DstT": {"type": "DT_INT32"}, "SrcT": {"type": "DT_FLOAT"}, "Truncate": {"b": false}}}, {"name": "StatefulPartitionedCall/range_1", "op": "Range", "input": ["StatefulPartitionedCall/range_1/Cast", "StatefulPartitionedCall/Cast", "StatefulPartitionedCall/range_1/Cast_1"], "attr": {"Tidx": {"type": "DT_FLOAT"}}}, {"name": "StatefulPartitionedCall/Reshape_4/Cast", "op": "Cast", "input": ["StatefulPartitionedCall/Cast"], "attr": {"SrcT": {"type": "DT_FLOAT"}, "Truncate": {"b": false}, "DstT": {"type": "DT_INT32"}}}, {"name": "StatefulPartitionedCall/range_3", "op": "Range", "input": ["StatefulPartitionedCall/range_3/Cast", "StatefulPartitionedCall/Cast_4", "StatefulPartitionedCall/range_3/Cast_1"], "attr": {"Tidx": {"type": "DT_FLOAT"}}}, {"name": "StatefulPartitionedCall/Reshape_9/Cast", "op": "Cast", "input": ["StatefulPartitionedCall/Cast_4"], "attr": {"SrcT": {"type": "DT_FLOAT"}, "Truncate": {"b": false}, "DstT": {"type": "DT_INT32"}}}, {"name": "StatefulPartitionedCall/range_5", "op": "Range", "input": ["StatefulPartitionedCall/range_5/Cast", "StatefulPartitionedCall/Cast_8", "StatefulPartitionedCall/range_5/Cast_1"], "attr": {"Tidx": {"type": "DT_FLOAT"}}}, {"name": "StatefulPartitionedCall/Reshape_14/Cast", "op": "Cast", "input": ["StatefulPartitionedCall/Cast_8"], "attr": {"DstT": {"type": "DT_INT32"}, "SrcT": {"type": "DT_FLOAT"}, "Truncate": {"b": false}}}, {"name": "StatefulPartitionedCall/lightnet/lightnet_block/strided_slice_1", "op": "StridedSlice", "input": ["StatefulPartitionedCall/lightnet/lightnet_block/basic_unit_with_downsampling/sequential_2/re_lu_3/Relu", "StatefulPartitionedCall/lightnet/lightnet_block/strided_slice_1/stack", "StatefulPartitionedCall/lightnet/lightnet_block/strided_slice_1/stack_1", "StatefulPartitionedCall/lightnet/lightnet_block/strided_slice_1/stack_2"], "attr": {"Index": {"type": "DT_INT32"}, "T": {"type": "DT_FLOAT"}, "shrink_axis_mask": {"i": "0"}, "ellipsis_mask": {"i": "0"}, "begin_mask": {"i": "7"}, "new_axis_mask": {"i": "0"}, "end_mask": {"i": "15"}}}, {"name": "StatefulPartitionedCall/lightnet/lightnet_block/strided_slice_3", "op": "StridedSlice", "input": ["StatefulPartitionedCall/lightnet/lightnet_block/basic_unit_with_downsampling/sequential_2/re_lu_3/Relu", "StatefulPartitionedCall/lightnet/lightnet_block/strided_slice_3/stack", "StatefulPartitionedCall/lightnet/lightnet_block/strided_slice_3/stack_1", "StatefulPartitionedCall/lightnet/lightnet_block/strided_slice_3/stack_2"], "attr": {"T": {"type": "DT_FLOAT"}, "Index": {"type": "DT_INT32"}, "shrink_axis_mask": {"i": "0"}, "begin_mask": {"i": "7"}, "ellipsis_mask": {"i": "0"}, "new_axis_mask": {"i": "0"}, "end_mask": {"i": "15"}}}, {"name": "StatefulPartitionedCall/lightnet/lightnet_block/basic_unit_with_downsampling/sequential_1/re_lu_2/Relu", "op": "_FusedConv2D", "input": ["StatefulPartitionedCall/lightnet/lightnet_block/basic_unit_with_downsampling/sequential_1/separable_conv2d/separable_conv2d/depthwise", "StatefulPartitionedCall/lightnet/lightnet_block/basic_unit_with_downsampling/sequential_1/separable_conv2d/separable_conv2d_weights", "StatefulPartitionedCall/lightnet/lightnet_block/basic_unit_with_downsampling/sequential_1/separable_conv2d/separable_conv2d_bn_offset"], "device": "/device:CPU:0", "attr": {"dilations": {"list": {"i": ["1", "1", "1", "1"]}}, "T": {"type": "DT_FLOAT"}, "strides": {"list": {"i": ["1", "1", "1", "1"]}}, "data_format": {"s": "TkhXQw=="}, "use_cudnn_on_gpu": {"b": true}, "explicit_paddings": {"list": {}}, "num_args": {"i": "1"}, "epsilon": {"f": 0.0}, "padding": {"s": "VkFMSUQ="}, "fused_ops": {"list": {"s": ["Qmlhc0FkZA==", "UmVsdQ=="]}}}}, {"name": "StatefulPartitionedCall/mul_2", "op": "Mul", "input": ["StatefulPartitionedCall/range", "StatefulPartitionedCall/mul_2/y"], "attr": {"T": {"type": "DT_FLOAT"}}}, {"name": "StatefulPartitionedCall/mul_4", "op": "Mul", "input": ["StatefulPartitionedCall/range_2", "StatefulPartitionedCall/mul_4/y"], "attr": {"T": {"type": "DT_FLOAT"}}}, {"name": "StatefulPartitionedCall/mul_6", "op": "Mul", "input": ["StatefulPartitionedCall/range_4", "StatefulPartitionedCall/mul_6/y"], "attr": {"T": {"type": "DT_FLOAT"}}}, {"name": "StatefulPartitionedCall/mul_3", "op": "Mul", "input": ["StatefulPartitionedCall/range_1", "StatefulPartitionedCall/mul_3/y"], "attr": {"T": {"type": "DT_FLOAT"}}}, {"name": "StatefulPartitionedCall/Reshape_4/shape", "op": "Pack", "input": ["StatefulPartitionedCall/Reshape_4/Cast", "StatefulPartitionedCall/Reshape_4/Cast_1", "StatefulPartitionedCall/Reshape_4/shape/2", "StatefulPartitionedCall/Reshape_4/shape/3"], "attr": {"axis": {"i": "0"}, "N": {"i": "4"}, "T": {"type": "DT_INT32"}}}, {"name": "StatefulPartitionedCall/mul_5", "op": "Mul", "input": ["StatefulPartitionedCall/range_3", "StatefulPartitionedCall/mul_5/y"], "attr": {"T": {"type": "DT_FLOAT"}}}, {"name": "StatefulPartitionedCall/Reshape_9/shape", "op": "Pack", "input": ["StatefulPartitionedCall/Reshape_9/Cast", "StatefulPartitionedCall/Reshape_9/Cast_1", "StatefulPartitionedCall/Reshape_9/shape/2", "StatefulPartitionedCall/Reshape_9/shape/3"], "attr": {"T": {"type": "DT_INT32"}, "axis": {"i": "0"}, "N": {"i": "4"}}}, {"name": "StatefulPartitionedCall/mul_7", "op": "Mul", "input": ["StatefulPartitionedCall/range_5", "StatefulPartitionedCall/mul_7/y"], "attr": {"T": {"type": "DT_FLOAT"}}}, {"name": "StatefulPartitionedCall/Reshape_14/shape", "op": "Pack", "input": ["StatefulPartitionedCall/Reshape_14/Cast", "StatefulPartitionedCall/Reshape_14/Cast_1", "StatefulPartitionedCall/Reshape_14/shape/2", "StatefulPartitionedCall/Reshape_14/shape/3"], "attr": {"T": {"type": "DT_INT32"}, "axis": {"i": "0"}, "N": {"i": "4"}}}, {"name": "StatefulPartitionedCall/lightnet/lightnet_block/strided_slice", "op": "StridedSlice", "input": ["StatefulPartitionedCall/lightnet/lightnet_block/basic_unit_with_downsampling/sequential_1/re_lu_2/Relu", "StatefulPartitionedCall/lightnet/lightnet_block/strided_slice/stack", "StatefulPartitionedCall/lightnet/lightnet_block/strided_slice/stack_1", "StatefulPartitionedCall/lightnet/lightnet_block/strided_slice/stack_2"], "attr": {"new_axis_mask": {"i": "0"}, "end_mask": {"i": "15"}, "T": {"type": "DT_FLOAT"}, "Index": {"type": "DT_INT32"}, "shrink_axis_mask": {"i": "0"}, "begin_mask": {"i": "7"}, "ellipsis_mask": {"i": "0"}}}, {"name": "StatefulPartitionedCall/meshgrid/Reshape_2", "op": "Reshape", "input": ["StatefulPartitionedCall/mul_2", "StatefulPartitionedCall/meshgrid/Reshape_2/shape"], "attr": {"T": {"type": "DT_FLOAT"}, "Tshape": {"type": "DT_INT32"}}}, {"name": "StatefulPartitionedCall/meshgrid/Size", "op": "Size", "input": ["StatefulPartitionedCall/mul_2"], "attr": {"T": {"type": "DT_FLOAT"}, "out_type": {"type": "DT_INT32"}}}, {"name": "StatefulPartitionedCall/meshgrid_1/Reshape_2", "op": "Reshape", "input": ["StatefulPartitionedCall/mul_4", "StatefulPartitionedCall/meshgrid_1/Reshape_2/shape"], "attr": {"T": {"type": "DT_FLOAT"}, "Tshape": {"type": "DT_INT32"}}}, {"name": "StatefulPartitionedCall/meshgrid_1/Size", "op": "Size", "input": ["StatefulPartitionedCall/mul_4"], "attr": {"out_type": {"type": "DT_INT32"}, "T": {"type": "DT_FLOAT"}}}, {"name": "StatefulPartitionedCall/meshgrid_2/Reshape_2", "op": "Reshape", "input": ["StatefulPartitionedCall/mul_6", "StatefulPartitionedCall/meshgrid_2/Reshape_2/shape"], "attr": {"Tshape": {"type": "DT_INT32"}, "T": {"type": "DT_FLOAT"}}}, {"name": "StatefulPartitionedCall/meshgrid_2/Size", "op": "Size", "input": ["StatefulPartitionedCall/mul_6"], "attr": {"T": {"type": "DT_FLOAT"}, "out_type": {"type": "DT_INT32"}}}, {"name": "StatefulPartitionedCall/meshgrid/Reshape_3", "op": "Reshape", "input": ["StatefulPartitionedCall/mul_3", "StatefulPartitionedCall/meshgrid/Reshape_3/shape"], "attr": {"T": {"type": "DT_FLOAT"}, "Tshape": {"type": "DT_INT32"}}}, {"name": "StatefulPartitionedCall/meshgrid/Size_1", "op": "Size", "input": ["StatefulPartitionedCall/mul_3"], "attr": {"out_type": {"type": "DT_INT32"}, "T": {"type": "DT_FLOAT"}}}, {"name": "StatefulPartitionedCall/meshgrid_1/Reshape_3", "op": "Reshape", "input": ["StatefulPartitionedCall/mul_5", "StatefulPartitionedCall/meshgrid_1/Reshape_3/shape"], "attr": {"T": {"type": "DT_FLOAT"}, "Tshape": {"type": "DT_INT32"}}}, {"name": "StatefulPartitionedCall/meshgrid_1/Size_1", "op": "Size", "input": ["StatefulPartitionedCall/mul_5"], "attr": {"out_type": {"type": "DT_INT32"}, "T": {"type": "DT_FLOAT"}}}, {"name": "StatefulPartitionedCall/meshgrid_2/Reshape_3", "op": "Reshape", "input": ["StatefulPartitionedCall/mul_7", "StatefulPartitionedCall/meshgrid_2/Reshape_3/shape"], "attr": {"T": {"type": "DT_FLOAT"}, "Tshape": {"type": "DT_INT32"}}}, {"name": "StatefulPartitionedCall/meshgrid_2/Size_1", "op": "Size", "input": ["StatefulPartitionedCall/mul_7"], "attr": {"T": {"type": "DT_FLOAT"}, "out_type": {"type": "DT_INT32"}}}, {"name": "StatefulPartitionedCall/lightnet/lightnet_block/concat", "op": "ConcatV2", "input": ["StatefulPartitionedCall/lightnet/lightnet_block/str…
ck", "shape": [1], "dtype": "int32"}, {"name": "StatefulPartitionedCall/cpm/sequential_13/separable_conv2d_12/separable_conv2d/required_space_to_batch_paddings/strided_slice_6/stack_1", "shape": [1], "dtype": "int32"}, {"name": "StatefulPartitionedCall/cpm/sequential_13/separable_conv2d_12/separable_conv2d/required_space_to_batch_paddings/strided_slice_6/stack_2", "shape": [1], "dtype": "int32"}, {"name": "StatefulPartitionedCall/cpm/sequential_13/separable_conv2d_12/separable_conv2d/required_space_to_batch_paddings/crops/1/0", "shape": [], "dtype": "int32"}, {"name": "StatefulPartitionedCall/cpm/sequential_13/separable_conv2d_12/separable_conv2d/strided_slice/stack", "shape": [1], "dtype": "int32"}, {"name": "StatefulPartitionedCall/cpm/sequential_13/separable_conv2d_12/separable_conv2d/strided_slice/stack_1", "shape": [1], "dtype": "int32"}, {"name": "StatefulPartitionedCall/cpm/sequential_13/separable_conv2d_12/separable_conv2d/strided_slice/stack_2", "shape": [1], "dtype": "int32"}, {"name": "StatefulPartitionedCall/cpm/sequential_12/separable_conv2d_11/separable_conv2d/SpaceToBatchND/block_shape", "shape": [2], "dtype": "int32"}, {"name": "StatefulPartitionedCall/cpm/sequential_12/separable_conv2d_11/separable_conv2d/required_space_to_batch_paddings/strided_slice_2", "shape": [], "dtype": "int32"}, {"name": "StatefulPartitionedCall/cpm/sequential_12/separable_conv2d_11/separable_conv2d/required_space_to_batch_paddings/strided_slice_3/stack", "shape": [1], "dtype": "int32"}, {"name": "StatefulPartitionedCall/cpm/sequential_12/separable_conv2d_11/separable_conv2d/required_space_to_batch_paddings/strided_slice_3/stack_1", "shape": [1], "dtype": "int32"}, {"name": "StatefulPartitionedCall/cpm/sequential_12/separable_conv2d_11/separable_conv2d/required_space_to_batch_paddings/strided_slice_3/stack_2", "shape": [1], "dtype": "int32"}, {"name": "StatefulPartitionedCall/cpm/sequential_12/separable_conv2d_11/separable_conv2d/required_space_to_batch_paddings/strided_slice_4", "shape": [], "dtype": "int32"}, {"name": "StatefulPartitionedCall/cpm/sequential_12/separable_conv2d_11/separable_conv2d/required_space_to_batch_paddings/strided_slice_1", "shape": [2], "dtype": "int32"}, {"name": "StatefulPartitionedCall/cpm/sequential_12/separable_conv2d_11/separable_conv2d/required_space_to_batch_paddings/strided_slice_5/stack", "shape": [1], "dtype": "int32"}, {"name": "StatefulPartitionedCall/cpm/sequential_12/separable_conv2d_11/separable_conv2d/required_space_to_batch_paddings/strided_slice_5/stack_1", "shape": [1], "dtype": "int32"}, {"name": "StatefulPartitionedCall/cpm/sequential_12/separable_conv2d_11/separable_conv2d/required_space_to_batch_paddings/strided_slice_5/stack_2", "shape": [1], "dtype": "int32"}, {"name": "StatefulPartitionedCall/cpm/sequential_12/separable_conv2d_11/separable_conv2d/ReadVariableOp", "shape": [3, 3, 128, 1], "dtype": "float32"}, {"name": "StatefulPartitionedCall/cpm/sequential_12/separable_conv2d_11/separable_conv2d/BatchToSpaceND/block_shape", "shape": [2], "dtype": "int32"}, {"name": "StatefulPartitionedCall/cpm/sequential_12/separable_conv2d_11/separable_conv2d/required_space_to_batch_paddings/crops/0/0", "shape": [], "dtype": "int32"}, {"name": "StatefulPartitionedCall/cpm/sequential_12/separable_conv2d_11/separable_conv2d/required_space_to_batch_paddings/strided_slice_6/stack", "shape": [1], "dtype": "int32"}, {"name": "StatefulPartitionedCall/cpm/sequential_12/separable_conv2d_11/separable_conv2d/required_space_to_batch_paddings/strided_slice_6/stack_1", "shape": [1], "dtype": "int32"}, {"name": "StatefulPartitionedCall/cpm/sequential_12/separable_conv2d_11/separable_conv2d/required_space_to_batch_paddings/strided_slice_6/stack_2", "shape": [1], "dtype": "int32"}, {"name": "StatefulPartitionedCall/cpm/sequential_12/separable_conv2d_11/separable_conv2d/required_space_to_batch_paddings/crops/1/0", "shape": [], "dtype": "int32"}, {"name": "StatefulPartitionedCall/cpm/sequential_12/separable_conv2d_11/separable_conv2d/strided_slice/stack", "shape": [1], "dtype": "int32"}, {"name": "StatefulPartitionedCall/cpm/sequential_12/separable_conv2d_11/separable_conv2d/strided_slice/stack_1", "shape": [1], "dtype": "int32"}, {"name": "StatefulPartitionedCall/cpm/sequential_12/separable_conv2d_11/separable_conv2d/strided_slice/stack_2", "shape": [1], "dtype": "int32"}, {"name": "StatefulPartitionedCall/conv2d_11/Conv2D/ReadVariableOp", "shape": [1, 1, 128, 128], "dtype": "float32"}, {"name": "StatefulPartitionedCall/conv2d_11/BiasAdd/ReadVariableOp", "shape": [128], "dtype": "float32"}, {"name": "StatefulPartitionedCall/up_sampling2d_1/strided_slice/stack", "shape": [1], "dtype": "int32"}, {"name": "StatefulPartitionedCall/up_sampling2d_1/strided_slice/stack_1", "shape": [1], "dtype": "int32"}, {"name": "StatefulPartitionedCall/up_sampling2d_1/strided_slice/stack_2", "shape": [1], "dtype": "int32"}, {"name": "StatefulPartitionedCall/up_sampling2d_1/Const", "shape": [2], "dtype": "int32"}, {"name": "StatefulPartitionedCall/conv2d_12/Conv2D/ReadVariableOp", "shape": [1, 1, 64, 128], "dtype": "float32"}, {"name": "StatefulPartitionedCall/conv2d_12/BiasAdd/ReadVariableOp", "shape": [128], "dtype": "float32"}, {"name": "StatefulPartitionedCall/cpm/sequential_12/separable_conv2d_11/separable_conv2d/strided_slice_1/stack", "shape": [1], "dtype": "int32"}, {"name": "StatefulPartitionedCall/cpm/sequential_12/separable_conv2d_11/separable_conv2d/strided_slice_1/stack_1", "shape": [1], "dtype": "int32"}, {"name": "StatefulPartitionedCall/cpm/sequential_12/separable_conv2d_11/separable_conv2d/strided_slice_1/stack_2", "shape": [1], "dtype": "int32"}, {"name": "StatefulPartitionedCall/cpm/sequential_12/separable_conv2d_11/separable_conv2d/required_space_to_batch_paddings/add", "shape": [2], "dtype": "int32"}, {"name": "StatefulPartitionedCall/cpm/sequential_12/separable_conv2d_11/separable_conv2d/dilation_rate", "shape": [2], "dtype": "int32"}, {"name": "StatefulPartitionedCall/cpm/sequential_12/separable_conv2d_11/separable_conv2d/required_space_to_batch_paddings/strided_slice_7/stack", "shape": [1], "dtype": "int32"}, {"name": "StatefulPartitionedCall/cpm/sequential_12/separable_conv2d_11/separable_conv2d/required_space_to_batch_paddings/strided_slice_7/stack_1", "shape": [1], "dtype": "int32"}, {"name": "StatefulPartitionedCall/cpm/sequential_12/separable_conv2d_11/separable_conv2d/required_space_to_batch_paddings/strided_slice_7/stack_2", "shape": [1], "dtype": "int32"}, {"name": "StatefulPartitionedCall/cpm/sequential_13/separable_conv2d_12/separable_conv2d/strided_slice_1/stack", "shape": [1], "dtype": "int32"}, {"name": "StatefulPartitionedCall/cpm/sequential_13/separable_conv2d_12/separable_conv2d/strided_slice_1/stack_1", "shape": [1], "dtype": "int32"}, {"name": "StatefulPartitionedCall/cpm/sequential_13/separable_conv2d_12/separable_conv2d/strided_slice_1/stack_2", "shape": [1], "dtype": "int32"}, {"name": "StatefulPartitionedCall/cpm/sequential_13/separable_conv2d_12/separable_conv2d/required_space_to_batch_paddings/add", "shape": [2], "dtype": "int32"}, {"name": "StatefulPartitionedCall/cpm/sequential_13/separable_conv2d_12/separable_conv2d/dilation_rate", "shape": [2], "dtype": "int32"}, {"name": "StatefulPartitionedCall/cpm/sequential_13/separable_conv2d_12/separable_conv2d/required_space_to_batch_paddings/strided_slice_7/stack", "shape": [1], "dtype": "int32"}, {"name": "StatefulPartitionedCall/cpm/sequential_13/separable_conv2d_12/separable_conv2d/required_space_to_batch_paddings/strided_slice_7/stack_1", "shape": [1], "dtype": "int32"}, {"name": "StatefulPartitionedCall/cpm/sequential_13/separable_conv2d_12/separable_conv2d/required_space_to_batch_paddings/strided_slice_7/stack_2", "shape": [1], "dtype": "int32"}, {"name": "StatefulPartitionedCall/cpm/concat/axis", "shape": [], "dtype": "int32"}, {"name": "StatefulPartitionedCall/ssd_head/strided_slice_1/stack", "shape": [1], "dtype": "int32"}, {"name": "StatefulPartitionedCall/ssd_head/strided_slice_1/stack_1", "shape": [1], "dtype": "int32"}, {"name": "StatefulPartitionedCall/ssd_head/strided_slice_1/stack_2", "shape": [1], "dtype": "int32"}, {"name": "StatefulPartitionedCall/ssd_head/Reshape_3/shape/2", "shape": [], "dtype": "int32"}, {"name": "StatefulPartitionedCall/ssd_head/conv2d_17/Conv2D/ReadVariableOp", "shape": [1, 1, 192, 4], "dtype": "float32"}, {"name": "StatefulPartitionedCall/ssd_head/conv2d_17/BiasAdd/ReadVariableOp", "shape": [4], "dtype": "float32"}, {"name": "StatefulPartitionedCall/ssd_head/Reshape_7/shape/0", "shape": [], "dtype": "int32"}, {"name": "StatefulPartitionedCall/ssd_head/strided_slice_2/stack", "shape": [1], "dtype": "int32"}, {"name": "StatefulPartitionedCall/ssd_head/strided_slice_2/stack_1", "shape": [1], "dtype": "int32"}, {"name": "StatefulPartitionedCall/ssd_head/strided_slice_2/stack_2", "shape": [1], "dtype": "int32"}, {"name": "StatefulPartitionedCall/ssd_head/mul_7/y", "shape": [], "dtype": "int32"}, {"name": "StatefulPartitionedCall/cpm_1/sequential_15/separable_conv2d_14/separable_conv2d/SpaceToBatchND/block_shape", "shape": [2], "dtype": "int32"}, {"name": "StatefulPartitionedCall/cpm_1/sequential_15/separable_conv2d_14/separable_conv2d/required_space_to_batch_paddings/strided_slice_2", "shape": [], "dtype": "int32"}, {"name": "StatefulPartitionedCall/cpm_1/sequential_15/separable_conv2d_14/separable_conv2d/required_space_to_batch_paddings/strided_slice_3/stack", "shape": [1], "dtype": "int32"}, {"name": "StatefulPartitionedCall/cpm_1/sequential_15/separable_conv2d_14/separable_conv2d/required_space_to_batch_paddings/strided_slice_3/stack_1", "shape": [1], "dtype": "int32"}, {"name": "StatefulPartitionedCall/cpm_1/sequential_15/separable_conv2d_14/separable_conv2d/required_space_to_batch_paddings/strided_slice_3/stack_2", "shape": [1], "dtype": "int32"}, {"name": "StatefulPartitionedCall/cpm_1/sequential_15/separable_conv2d_14/separable_conv2d/required_space_to_batch_paddings/strided_slice_4", "shape": [], "dtype": "int32"}, {"name": "StatefulPartitionedCall/cpm_1/sequential_15/separable_conv2d_14/separable_conv2d/required_space_to_batch_paddings/strided_slice_1", "shape": [2], "dtype": "int32"}, {"name": "StatefulPartitionedCall/cpm_1/sequential_15/separable_conv2d_14/separable_conv2d/required_space_to_batch_paddings/strided_slice_5/stack", "shape": [1], "dtype": "int32"}, {"name": "StatefulPartitionedCall/cpm_1/sequential_15/separable_conv2d_14/separable_conv2d/required_space_to_batch_paddings/strided_slice_5/stack_1", "shape": [1], "dtype": "int32"}, {"name": "StatefulPartitionedCall/cpm_1/sequential_15/separable_conv2d_14/separable_conv2d/required_space_to_batch_paddings/strided_slice_5/stack_2", "shape": [1], "dtype": "int32"}, {"name": "StatefulPartitionedCall/cpm_1/sequential_15/separable_conv2d_14/separable_conv2d/ReadVariableOp", "shape": [3, 3, 32, 1], "dtype": "float32"}, {"name": "StatefulPartitionedCall/cpm_1/sequential_15/separable_conv2d_14/separable_conv2d/BatchToSpaceND/block_shape", "shape": [2], "dtype": "int32"}, {"name": "StatefulPartitionedCall/cpm_1/sequential_15/separable_conv2d_14/separable_conv2d/required_space_to_batch_paddings/crops/0/0", "shape": [], "dtype": "int32"}, {"name": "StatefulPartitionedCall/cpm_1/sequential_15/separable_conv2d_14/separable_conv2d/required_space_to_batch_paddings/strided_slice_6/stack", "shape": [1], "dtype": "int32"}, {"name": "StatefulPartitionedCall/cpm_1/sequential_15/separable_conv2d_14/separable_conv2d/required_space_to_batch_paddings/strided_slice_6/stack_1", "shape": [1], "dtype": "int32"}, {"name": "StatefulPartitionedCall/cpm_1/sequential_15/separable_conv2d_14/separable_conv2d/required_space_to_batch_paddings/strided_slice_6/stack_2", "shape": [1], "dtype": "int32"}, {"name": "StatefulPartitionedCall/cpm_1/sequential_15/separable_conv2d_14/separable_conv2d/required_space_to_batch_paddings/crops/1/0", "shape": [], "dtype": "int32"}, {"name": "StatefulPartitionedCall/cpm_1/sequential_15/separable_conv2d_14/separable_conv2d/strided_slice/stack", "shape": [1], "dtype": "int32"}, {"name": "StatefulPartitionedCall/cpm_1/sequential_15/separable_conv2d_14/separable_conv2d/strided_slice/stack_1", "shape": [1], "dtype": "int32"}, {"name": "StatefulPartitionedCall/cpm_1/sequential_15/separable_conv2d_14/separable_conv2d/strided_slice/stack_2", "shape": [1], "dtype": "int32"}, {"name": "StatefulPartitionedCall/cpm_1/sequential_14/separable_conv2d_13/separable_conv2d/SpaceToBatchND/block_shape", "shape": [2], "dtype": "int32"}, {"name": "StatefulPartitionedCall/cpm_1/sequential_14/separable_conv2d_13/separable_conv2d/required_space_to_batch_paddings/strided_slice_2", "shape": [], "dtype": "int32"}, {"name": "StatefulPartitionedCall/cpm_1/sequential_14/separable_conv2d_13/separable_conv2d/required_space_to_batch_paddings/strided_slice_3/stack", "shape": [1], "dtype": "int32"}, {"name": "StatefulPartitionedCall/cpm_1/sequential_14/separable_conv2d_13/separable_conv2d/required_space_to_batch_paddings/strided_slice_3/stack_1", "shape": [1], "dtype": "int32"}, {"name": "StatefulPartitionedCall/cpm_1/sequential_14/separable_conv2d_13/separable_conv2d/required_space_to_batch_paddings/strided_slice_3/stack_2", "shape": [1], "dtype": "int32"}, {"name": "StatefulPartitionedCall/cpm_1/sequential_14/separable_conv2d_13/separable_conv2d/required_space_to_batch_paddings/strided_slice_4", "shape": [], "dtype": "int32"}, {"name": "StatefulPartitionedCall/cpm_1/sequential_14/separable_conv2d_13/separable_conv2d/required_space_to_batch_paddings/strided_slice_1", "shape": [2], "dtype": "int32"}, {"name": "StatefulPartitionedCall/cpm_1/sequential_14/separable_conv2d_13/separable_conv2d/required_space_to_batch_paddings/strided_slice_5/stack", "shape": [1], "dtype": "int32"}, {"name": "StatefulPartitionedCall/cpm_1/sequential_14/separable_conv2d_13/separable_conv2d/required_space_to_batch_paddings/strided_slice_5/stack_1", "shape": [1], "dtype": "int32"}, {"name": "StatefulPartitionedCall/cpm_1/sequential_14/separable_conv2d_13/separable_conv2d/required_space_to_batch_paddings/strided_slice_5/stack_2", "shape": [1], "dtype": "int32"}, {"name": "StatefulPartitionedCall/cpm_1/sequential_14/separable_conv2d_13/separable_conv2d/ReadVariableOp", "shape": [3, 3, 128, 1], "dtype": "float32"}, {"name": "StatefulPartitionedCall/cpm_1/sequential_14/separable_conv2d_13/separable_conv2d/BatchToSpaceND/block_shape", "shape": [2], "dtype": "int32"}, {"name": "StatefulPartitionedCall/cpm_1/sequential_14/separable_conv2d_13/separable_conv2d/required_space_to_batch_paddings/crops/0/0", "shape": [], "dtype": "int32"}, {"name": "StatefulPartitionedCall/cpm_1/sequential_14/separable_conv2d_13/separable_conv2d/required_space_to_batch_paddings/strided_slice_6/stack", "shape": [1], "dtype": "int32"}, {"name": "StatefulPartitionedCall/cpm_1/sequential_14/separable_conv2d_13/separable_conv2d/required_space_to_batch_paddings/strided_slice_6/stack_1", "shape": [1], "dtype": "int32"}, {"name": "StatefulPartitionedCall/cpm_1/sequential_14/separable_conv2d_13/separable_conv2d/required_space_to_batch_paddings/strided_slice_6/stack_2", "shape": [1], "dtype": "int32"}, {"name": "StatefulPartitionedCall/cpm_1/sequential_14/separable_conv2d_13/separable_conv2d/required_space_to_batch_paddings/crops/1/0", "shape": [], "dtype": "int32"}, {"name": "StatefulPartitionedCall/cpm_1/sequential_14/separable_conv2d_13/separable_conv2d/strided_slice/stack", "shape": [1], "dtype": "int32"}, {"name": "StatefulPartitionedCall/cpm_1/sequential_14/separable_conv2d_13/separable_conv2d/strided_slice/stack_1", "shape": [1], "dtype": "int32"}, {"name": "StatefulPartitionedCall/cpm_1/sequential_14/separable_conv2d_13/separable_conv2d/strided_slice/stack_2", "shape": [1], "dtype": "int32"}, {"name": "StatefulPartitionedCall/up_sampling2d/strided_slice/stack", "shape": [1], "dtype": "int32"}, {"name": "StatefulPartitionedCall/up_sampling2d/strided_slice/stack_1", "shape": [1], "dtype": "int32"}, {"name": "StatefulPartitionedCall/up_sampling2d/strided_slice/stack_2", "shape": [1], "dtype": "int32"}, {"name": "StatefulPartitionedCall/up_sampling2d/Const", "shape": [2], "dtype": "int32"}, {"name": "StatefulPartitionedCall/conv2d_10/Conv2D/ReadVariableOp", "shape": [1, 1, 128, 128], "dtype": "float32"}, {"name": "StatefulPartitionedCall/conv2d_10/BiasAdd/ReadVariableOp", "shape": [128], "dtype": "float32"}, {"name": "StatefulPartitionedCall/cpm_1/sequential_14/separable_conv2d_13/separable_conv2d/strided_slice_1/stack", "shape": [1], "dtype": "int32"}, {"name": "StatefulPartitionedCall/cpm_1/sequential_14/separable_conv2d_13/separable_conv2d/strided_slice_1/stack_1", "shape": [1], "dtype": "int32"}, {"name": "StatefulPartitionedCall/cpm_1/sequential_14/separable_conv2d_13/separable_conv2d/strided_slice_1/stack_2", "shape": [1], "dtype": "int32"}, {"name": "StatefulPartitionedCall/cpm_1/sequential_14/separable_conv2d_13/separable_conv2d/required_space_to_batch_paddings/add", "shape": [2], "dtype": "int32"}, {"name": "StatefulPartitionedCall/cpm_1/sequential_14/separable_conv2d_13/separable_conv2d/dilation_rate", "shape": [2], "dtype": "int32"}, {"name": "StatefulPartitionedCall/cpm_1/sequential_14/separable_conv2d_13/separable_conv2d/required_space_to_batch_paddings/strided_slice_7/stack", "shape": [1], "dtype": "int32"}, {"name": "StatefulPartitionedCall/cpm_1/sequential_14/separable_conv2d_13/separable_conv2d/required_space_to_batch_paddings/strided_slice_7/stack_1", "shape": [1], "dtype": "int32"}, {"name": "StatefulPartitionedCall/cpm_1/sequential_14/separable_conv2d_13/separable_conv2d/required_space_to_batch_paddings/strided_slice_7/stack_2", "shape": [1], "dtype": "int32"}, {"name": "StatefulPartitionedCall/cpm_1/sequential_15/separable_conv2d_14/separable_conv2d/strided_slice_1/stack", "shape": [1], "dtype": "int32"}, {"name": "StatefulPartitionedCall/cpm_1/sequential_15/separable_conv2d_14/separable_conv2d/strided_slice_1/stack_1", "shape": [1], "dtype": "int32"}, {"name": "StatefulPartitionedCall/cpm_1/sequential_15/separable_conv2d_14/separable_conv2d/strided_slice_1/stack_2", "shape": [1], "dtype": "int32"}, {"name": "StatefulPartitionedCall/cpm_1/sequential_15/separable_conv2d_14/separable_conv2d/required_space_to_batch_paddings/add", "shape": [2], "dtype": "int32"}, {"name": "StatefulPartitionedCall/cpm_1/sequential_15/separable_conv2d_14/separable_conv2d/dilation_rate", "shape": [2], "dtype": "int32"}, {"name": "StatefulPartitionedCall/cpm_1/sequential_15/separable_conv2d_14/separable_conv2d/required_space_to_batch_paddings/strided_slice_7/stack", "shape": [1], "dtype": "int32"}, {"name": "StatefulPartitionedCall/cpm_1/sequential_15/separable_conv2d_14/separable_conv2d/required_space_to_batch_paddings/strided_slice_7/stack_1", "shape": [1], "dtype": "int32"}, {"name": "StatefulPartitionedCall/cpm_1/sequential_15/separable_conv2d_14/separable_conv2d/required_space_to_batch_paddings/strided_slice_7/stack_2", "shape": [1], "dtype": "int32"}, {"name": "StatefulPartitionedCall/cpm_1/concat/axis", "shape": [], "dtype": "int32"}, {"name": "StatefulPartitionedCall/ssd_head/strided_slice_3/stack", "shape": [1], "dtype": "int32"}, {"name": "StatefulPartitionedCall/ssd_head/strided_slice_3/stack_1", "shape": [1], "dtype": "int32"}, {"name": "StatefulPartitionedCall/ssd_head/strided_slice_3/stack_2", "shape": [1], "dtype": "int32"}, {"name": "StatefulPartitionedCall/ssd_head/Reshape_7/shape/2", "shape": [], "dtype": "int32"}, {"name": "StatefulPartitionedCall/ssd_head/conv2d_18/Conv2D/ReadVariableOp", "shape": [1, 1, 192, 4], "dtype": "float32"}, {"name": "StatefulPartitionedCall/ssd_head/conv2d_18/BiasAdd/ReadVariableOp", "shape": [4], "dtype": "float32"}, {"name": "StatefulPartitionedCall/ssd_head/Reshape_11/shape/0", "shape": [], "dtype": "int32"}, {"name": "StatefulPartitionedCall/ssd_head/strided_slice_4/stack", "shape": [1], "dtype": "int32"}, {"name": "StatefulPartitionedCall/ssd_head/strided_slice_4/stack_1", "shape": [1], "dtype": "int32"}, {"name": "StatefulPartitionedCall/ssd_head/strided_slice_4/stack_2", "shape": [1], "dtype": "int32"}, {"name": "StatefulPartitionedCall/ssd_head/mul_11/y", "shape": [], "dtype": "int32"}, {"name": "StatefulPartitionedCall/cpm_2/sequential_17/separable_conv2d_16/separable_conv2d/SpaceToBatchND/block_shape", "shape": [2], "dtype": "int32"}, {"name": "StatefulPartitionedCall/cpm_2/sequential_17/separable_conv2d_16/separable_conv2d/required_space_to_batch_paddings/strided_slice_2", "shape": [], "dtype": "int32"}, {"name": "StatefulPartitionedCall/cpm_2/sequential_17/separable_conv2d_16/separable_conv2d/required_space_to_batch_paddings/strided_slice_3/stack", "shape": [1], "dtype": "int32"}, {"name": "StatefulPartitionedCall/cpm_2/sequential_17/separable_conv2d_16/separable_conv2d/required_space_to_batch_paddings/strided_slice_3/stack_1", "shape": [1], "dtype": "int32"}, {"name": "StatefulPartitionedCall/cpm_2/sequential_17/separable_conv2d_16/separable_conv2d/required_space_to_batch_paddings/strided_slice_3/stack_2", "shape": [1], "dtype": "int32"}, {"name": "StatefulPartitionedCall/cpm_2/sequential_17/separable_conv2d_16/separable_conv2d/required_space_to_batch_paddings/strided_slice_4", "shape": [], "dtype": "int32"}, {"name": "StatefulPartitionedCall/cpm_2/sequential_17/separable_conv2d_16/separable_conv2d/required_space_to_batch_paddings/strided_slice_1", "shape": [2], "dtype": "int32"}, {"name": "StatefulPartitionedCall/cpm_2/sequential_17/separable_conv2d_16/separable_conv2d/required_space_to_batch_paddings/strided_slice_5/stack", "shape": [1], "dtype": "int32"}, {"name": "StatefulPartitionedCall/cpm_2/sequential_17/separable_conv2d_16/separable_conv2d/required_space_to_batch_paddings/strided_slice_5/stack_1", "shape": [1], "dtype": "int32"}, {"name": "StatefulPartitionedCall/cpm_2/sequential_17/separable_conv2d_16/separable_conv2d/required_space_to_batch_paddings/strided_slice_5/stack_2", "shape": [1], "dtype": "int32"}, {"name": "StatefulPartitionedCall/cpm_2/sequential_17/separable_conv2d_16/separable_conv2d/ReadVariableOp", "shape": [3, 3, 32, 1], "dtype": "float32"}, {"name": "StatefulPartitionedCall/cpm_2/sequential_17/separable_conv2d_16/separable_conv2d/BatchToSpaceND/block_shape", "shape": [2], "dtype": "int32"}, {"name": "StatefulPartitionedCall/cpm_2/sequential_17/separable_conv2d_16/separable_conv2d/required_space_to_batch_paddings/crops/0/0", "shape": [], "dtype": "int32"}, {"name": "StatefulPartitionedCall/cpm_2/sequential_17/separable_conv2d_16/separable_conv2d/required_space_to_batch_paddings/strided_slice_6/stack", "shape": [1], "dtype": "int32"}, {"name": "StatefulPartitionedCall/cpm_2/sequential_17/separable_conv2d_16/separable_conv2d/required_space_to_batch_paddings/strided_slice_6/stack_1", "shape": [1], "dtype": "int32"}, {"name": "StatefulPartitionedCall/cpm_2/sequential_17/separable_conv2d_16/separable_conv2d/required_space_to_batch_paddings/strided_slice_6/stack_2", "shape": [1], "dtype": "int32"}, {"name": "StatefulPartitionedCall/cpm_2/sequential_17/separable_conv2d_16/separable_conv2d/required_space_to_batch_paddings/crops/1/0", "shape": [], "dtype": "int32"}, {"name": "StatefulPartitionedCall/cpm_2/sequential_17/separable_conv2d_16/separable_conv2d/strided_slice/stack", "shape": [1], "dtype": "int32"}, {"name": "StatefulPartitionedCall/cpm_2/sequential_17/separable_conv2d_16/separable_conv2d/strided_slice/stack_1", "shape": [1], "dtype": "int32"}, {"name": "StatefulPartitionedCall/cpm_2/sequential_17/separable_conv2d_16/separable_conv2d/strided_slice/stack_2", "shape": [1], "dtype": "int32"}, {"name": "StatefulPartitionedCall/cpm_2/sequential_16/separable_conv2d_15/separable_conv2d/SpaceToBatchND/block_shape", "shape": [2], "dtype": "int32"}, {"name": "StatefulPartitionedCall/cpm_2/sequential_16/separable_conv2d_15/separable_conv2d/required_space_to_batch_paddings/strided_slice_2", "shape": [], "dtype": "int32"}, {"name": "StatefulPartitionedCall/cpm_2/sequential_16/separable_conv2d_15/separable_conv2d/required_space_to_batch_paddings/strided_slice_3/stack", "shape": [1], "dtype": "int32"}, {"name": "StatefulPartitionedCall/cpm_2/sequential_16/separable_conv2d_15/separable_conv2d/required_space_to_batch_paddings/strided_slice_3/stack_1", "shape": [1], "dtype": "int32"}, {"name": "StatefulPartitionedCall/cpm_2/sequential_16/separable_conv2d_15/separable_conv2d/required_space_to_batch_paddings/strided_slice_3/stack_2", "shape": [1], "dtype": "int32"}, {"name": "StatefulPartitionedCall/cpm_2/sequential_16/separable_conv2d_15/separable_conv2d/required_space_to_batch_paddings/strided_slice_4", "shape": [], "dtype": "int32"}, {"name": "StatefulPartitionedCall/cpm_2/sequential_16/separable_conv2d_15/separable_conv2d/required_space_to_batch_paddings/strided_slice_1", "shape": [2], "dtype": "int32"}, {"name": "StatefulPartitionedCall/cpm_2/sequential_16/separable_conv2d_15/separable_conv2d/required_space_to_batch_paddings/strided_slice_5/stack", "shape": [1], "dtype": "int32"}, {"name": "StatefulPartitionedCall/cpm_2/sequential_16/separable_conv2d_15/separable_conv2d/required_space_to_batch_paddings/strided_slice_5/stack_1", "shape": [1], "dtype": "int32"}, {"name": "StatefulPartitionedCall/cpm_2/sequential_16/separable_conv2d_15/separable_conv2d/required_space_to_batch_paddings/strided_slice_5/stack_2", "shape": [1], "dtype": "int32"}, {"name": "StatefulPartitionedCall/cpm_2/sequential_16/separable_conv2d_15/separable_conv2d/ReadVariableOp", "shape": [3, 3, 128, 1], "dtype": "float32"}, {"name": "StatefulPartitionedCall/cpm_2/sequential_16/separable_conv2d_15/separable_conv2d/BatchToSpaceND/block_shape", "shape": [2], "dtype": "int32"}, {"name": "StatefulPartitionedCall/cpm_2/sequential_16/separable_conv2d_15/separable_conv2d/required_space_to_batch_paddings/crops/0/0", "shape": [], "dtype": "int32"}, {"name": "StatefulPartitionedCall/cpm_2/sequential_16/separable_conv2d_15/separable_conv2d/required_space_to_batch_paddings/strided_slice_6/stack", "shape": [1], "dtype": "int32"}, {"name": "StatefulPartitionedCall/cpm_2/sequential_16/separable_conv2d_15/separable_conv2d/required_space_to_batch_paddings/strided_slice_6/stack_1", "shape": [1], "dtype": "int32"}, {"name": "StatefulPartitionedCall/cpm_2/sequential_16/separable_conv2d_15/separable_conv2d/required_space_to_batch_paddings/strided_slice_6/stack_2", "shape": [1], "dtype": "int32"}, {"name": "StatefulPartitionedCall/cpm_2/sequential_16/separable_conv2d_15/separable_conv2d/required_space_to_batch_paddings/crops/1/0", "shape": [], "dtype": "int32"}, {"name": "StatefulPartitionedCall/cpm_2/sequential_16/separable_conv2d_15/separable_conv2d/strided_slice/stack", "shape": [1], "dtype": "int32"}, {"name": "StatefulPartitionedCall/cpm_2/sequential_16/separable_conv2d_15/separable_conv2d/strided_slice/stack_1", "shape": [1], "dtype": "int32"}, {"name": "StatefulPartitionedCall/cpm_2/sequential_16/separable_conv2d_15/separable_conv2d/strided_slice/stack_2", "shape": [1], "dtype": "int32"}, {"name": "StatefulPartitionedCall/lightnet/lightnet_block_2/basic_unit_4/sequential_11/separable_conv2d_10/separable_conv2d/ReadVariableOp", "shape": [5, 5, 64, 1], "dtype": "float32"}, {"name": "StatefulPartitionedCall/lightnet/lightnet_block_2/basic_unit_with_downsampling_2/sequential_9/separable_conv2d_8/separable_conv2d/ReadVariableOp", "shape": [3, 3, 64, 1], "dtype": "float32"}, {"name": "StatefulPartitionedCall/lightnet/lightnet_block_2/strided_slice/stack", "shape": [4], "dtype": "int32"}, {"name": "StatefulPartitionedCall/lightnet/lightnet_block_2/strided_slice/stack_1", "shape": [4], "dtype": "int32"}, {"name": "StatefulPartitionedCall/lightnet/lightnet_block_2/strided_slice/stack_2", "shape": [4], "dtype": "int32"}, {"name": "StatefulPartitionedCall/lightnet/lightnet_block_2/strided_slice_1/stack", "shape": [4], "dtype": "int32"}, {"name": "StatefulPartitionedCall/lightnet/lightnet_block_2/strided_slice_1/stack_1", "shape": [4], "dtype": "int32"}, {"name": "StatefulPartitionedCall/lightnet/lightnet_block_2/strided_slice_1/stack_2", "shape": [4], "dtype": "int32"}, {"name": "StatefulPartitionedCall/lightnet/lightnet_block_2/concat/axis", "shape": [], "dtype": "int32"}, {"name": "StatefulPartitionedCall/lightnet/lightnet_block_2/strided_slice_2/stack", "shape": [4], "dtype": "int32"}, {"name": "StatefulPartitionedCall/lightnet/lightnet_block_2/strided_slice_2/stack_1", "shape": [4], "dtype": "int32"}, {"name": "StatefulPartitionedCall/lightnet/lightnet_block_2/strided_slice_2/stack_2", "shape": [4], "dtype": "int32"}, {"name": "StatefulPartitionedCall/lightnet/lightnet_block_1/basic_unit_3/sequential_8/separable_conv2d_7/separable_conv2d/ReadVariableOp", "shape": [5, 5, 64, 1], "dtype": "float32"}, {"name": "StatefulPartitionedCall/lightnet/lightnet_block_1/basic_unit_2/sequential_7/separable_conv2d_6/separable_conv2d/ReadVariableOp", "shape": [5, 5, 64, 1], "dtype": "float32"}, {"name": "StatefulPartitionedCall/lightnet/lightnet_block_1/strided_slice_8/stack", "shape": [4], "dtype": "int32"}, {"name": "StatefulPartitionedCall/lightnet/lightnet_block_1/strided_slice_8/stack_1", "shape": [4], "dtype": "int32"}, {"name": "StatefulPartitionedCall/lightnet/lightnet_block_1/strided_slice_8/stack_2", "shape": [4], "dtype": "int32"}, {"name": "StatefulPartitionedCall/lightnet/lightnet_block_1/strided_slice_9/stack", "shape": [4], "dtype": "int32"}, {"name": "StatefulPartitionedCall/lightnet/lightnet_block_1/strided_slice_9/stack_1", "shape": [4], "dtype": "int32"}, {"name": "StatefulPartitionedCall/lightnet/lightnet_block_1/strided_slice_9/stack_2", "shape": [4], "dtype": "int32"}, {"name": "StatefulPartitionedCall/lightnet/lightnet_block_1/concat_4/axis", "shape": [], "dtype": "int32"}, {"name": "StatefulPartitionedCall/lightnet/lightnet_block_1/strided_slice_10/stack", "shape": [4], "dtype": "int32"}, {"name": "StatefulPartitionedCall/lightnet/lightnet_block_1/strided_slice_10/stack_1", "shape": [4], "dtype": "int32"}, {"name": "StatefulPartitionedCall/lightnet/lightnet_block_1/strided_slice_10/stack_2", "shape": [4], "dtype": "int32"}, {"name": "StatefulPartitionedCall/lightnet/lightnet_block_1/basic_unit_1/sequential_6/separable_conv2d_5/separable_conv2d/ReadVariableOp", "shape": [5, 5, 64, 1], "dtype": "float32"}, {"name": "StatefulPartitionedCall/lightnet/lightnet_block_1/strided_slice_4/stack", "shape": [4], "dtype": "int32"}, {"name": "StatefulPartitionedCall/lightnet/lightnet_block_1/strided_slice_4/stack_1", "shape": [4], "dtype": "int32"}, {"name": "StatefulPartitionedCall/lightnet/lightnet_block_1/strided_slice_4/stack_2", "shape": [4], "dtype": "int32"}, {"name": "StatefulPartitionedCall/lightnet/lightnet_block_1/strided_slice_5/stack", "shape": [4], "dtype": "int32"}, {"name": "StatefulPartitionedCall/lightnet/lightnet_block_1/strided_slice_5/stack_1", "shape": [4], "dtype": "int32"}, {"name": "StatefulPartitionedCall/lightnet/lightnet_block_1/strided_slice_5/stack_2", "shape": [4], "dtype": "int32"}, {"name": "StatefulPartitionedCall/lightnet/lightnet_block_1/concat_2/axis", "shape": [], "dtype": "int32"}, {"name": "StatefulPartitionedCall/lightnet/lightnet_block_1/strided_slice_6/stack", "shape": [4], "dtype": "int32"}, {"name": "StatefulPartitionedCall/lightnet/lightnet_block_1/strided_slice_6/stack_1", "shape": [4], "dtype": "int32"}, {"name": "StatefulPartitionedCall/lightnet/lightnet_block_1/strided_slice_6/stack_2", "shape": [4], "dtype": "int32"}, {"name": "StatefulPartitionedCall/lightnet/lightnet_block_1/basic_unit_with_downsampling_1/sequential_4/separable_conv2d_3/separable_conv2d/ReadVariableOp", "shape": [3, 3, 64, 1], "dtype": "float32"}, {"name": "StatefulPartitionedCall/lightnet/lightnet_block_1/strided_slice/stack", "shape": [4], "dtype": "int32"}, {"name": "StatefulPartitionedCall/lightnet/lightnet_block_1/strided_slice/stack_1", "shape": [4], "dtype": "int32"}, {"name": "StatefulPartitionedCall/lightnet/lightnet_block_1/strided_slice/stack_2", "shape": [4], "dtype": "int32"}, {"name": "StatefulPartitionedCall/lightnet/lightnet_block_1/strided_slice_1/stack", "shape": [4], "dtype": "int32"}, {"name": "StatefulPartitionedCall/lightnet/lightnet_block_1/strided_slice_1/stack_1", "shape": [4], "dtype": "int32"}, {"name": "StatefulPartitionedCall/lightnet/lightnet_block_1/strided_slice_1/stack_2", "shape": [4], "dtype": "int32"}, {"name": "StatefulPartitionedCall/lightnet/lightnet_block_1/concat/axis", "shape": [], "dtype": "int32"}, {"name": "StatefulPartitionedCall/lightnet/lightnet_block_1/strided_slice_2/stack", "shape": [4], "dtype": "int32"}, {"name": "StatefulPartitionedCall/lightnet/lightnet_block_1/strided_slice_2/stack_1", "shape": [4], "dtype": "int32"}, {"name": "StatefulPartitionedCall/lightnet/lightnet_block_1/strided_slice_2/stack_2", "shape": [4], "dtype": "int32"}, {"name": "StatefulPartitionedCall/lightnet/lightnet_block/basic_unit/sequential_3/separable_conv2d_2/separable_conv2d/ReadVariableOp", "shape": [5, 5, 32, 1], "dtype": "float32"}, {"name": "StatefulPartitionedCall/lightnet/lightnet_block/basic_unit_with_downsampling/sequential_1/separable_conv2d/separable_conv2d/ReadVariableOp", "shape": [3, 3, 32, 1], "dtype": "float32"}, {"name": "StatefulPartitionedCall/lightnet/lightnet_block/strided_slice/stack", "shape": [4], "dtype": "int32"}, {"name": "StatefulPartitionedCall/lightnet/lightnet_block/strided_slice/stack_1", "shape": [4], "dtype": "int32"}, {"name": "StatefulPartitionedCall/lightnet/lightnet_block/strided_slice/stack_2", "shape": [4], "dtype": "int32"}, {"name": "StatefulPartitionedCall/lightnet/lightnet_block/strided_slice_1/stack", "shape": [4], "dtype": "int32"}, {"name": "StatefulPartitionedCall/lightnet/lightnet_block/strided_slice_1/stack_1", "shape": [4], "dtype": "int32"}, {"name": "StatefulPartitionedCall/lightnet/lightnet_block/strided_slice_1/stack_2", "shape": [4], "dtype": "int32"}, {"name": "StatefulPartitionedCall/lightnet/lightnet_block/concat/axis", "shape": [], "dtype": "int32"}, {"name": "StatefulPartitionedCall/lightnet/lightnet_block/strided_slice_2/stack", "shape": [4], "dtype": "int32"}, {"name": "StatefulPartitionedCall/lightnet/lightnet_block/strided_slice_2/stack_1", "shape": [4], "dtype": "int32"}, {"name": "StatefulPartitionedCall/lightnet/lightnet_block/strided_slice_2/stack_2", "shape": [4], "dtype": "int32"}, {"name": "StatefulPartitionedCall/Const", "shape": [3], "dtype": "float32"}, {"name": "ConstantFolding/StatefulPartitionedCall/truediv_recip", "shape": [3], "dtype": "float32"}, {"name": "StatefulPartitionedCall/lightnet/lightnet_block/basic_unit_with_downsampling/sequential_2/separable_conv2d_1/separable_conv2d/ReadVariableOp", "shape": [3, 3, 16, 1], "dtype": "float32"}, {"name": "StatefulPartitionedCall/lightnet/lightnet_block/strided_slice_3/stack", "shape": [4], "dtype": "int32"}, {"name": "StatefulPartitionedCall/lightnet/lightnet_block/strided_slice_3/stack_1", "shape": [4], "dtype": "int32"}, {"name": "StatefulPartitionedCall/lightnet/lightnet_block/strided_slice_3/stack_2", "shape": [4], "dtype": "int32"}, {"name": "StatefulPartitionedCall/lightnet/lightnet_block/concat_2/axis", "shape": [], "dtype": "int32"}, {"name": "StatefulPartitionedCall/lightnet/lightnet_block_1/basic_unit_with_downsampling_1/sequential_5/separable_conv2d_4/separable_conv2d/ReadVariableOp", "shape": [3, 3, 64, 1], "dtype": "float32"}, {"name": "StatefulPartitionedCall/lightnet/lightnet_block_1/strided_slice_3/stack", "shape": [4], "dtype": "int32"}, {"name": "StatefulPartitionedCall/lightnet/lightnet_block_1/strided_slice_3/stack_1", "shape": [4], "dtype": "int32"}, {"name": "StatefulPartitionedCall/lightnet/lightnet_block_1/strided_slice_3/stack_2", "shape": [4], "dtype": "int32"}, {"name": "StatefulPartitionedCall/lightnet/lightnet_block_1/concat_1/axis", "shape": [], "dtype": "int32"}, {"name": "StatefulPartitionedCall/lightnet/lightnet_block_1/strided_slice_7/stack", "shape": [4], "dtype": "int32"}, {"name": "StatefulPartitionedCall/lightnet/lightnet_block_1/strided_slice_7/stack_1", "shape": [4], "dtype": "int32"}, {"name": "StatefulPartitionedCall/lightnet/lightnet_block_1/strided_slice_7/stack_2", "shape": [4], "dtype": "int32"}, {"name": "StatefulPartitionedCall/lightnet/lightnet_block_1/concat_3/axis", "shape": [], "dtype": "int32"}, {"name": "StatefulPartitionedCall/lightnet/lightnet_block_1/strided_slice_11/stack", "shape": [4], "dtype": "int32"}, {"name": "StatefulPartitionedCall/lightnet/lightnet_block_1/strided_slice_11/stack_1", "shape": [4], "dtype": "int32"}, {"name": "StatefulPartitionedCall/lightnet/lightnet_block_1/strided_slice_11/stack_2", "shape": [4], "dtype": "int32"}, {"name": "StatefulPartitionedCall/lightnet/lightnet_block_1/concat_6/axis", "shape": [], "dtype": "int32"}, {"name": "StatefulPartitionedCall/lightnet/lightnet_block_2/basic_unit_with_downsampling_2/sequential_10/separable_conv2d_9/separable_conv2d/ReadVariableOp", "shape": [3, 3, 128, 1], "dtype": "float32"}, {"name": "StatefulPartitionedCall/lightnet/lightnet_block_2/strided_slice_3/stack", "shape": [4], "dtype": "int32"}, {"name": "StatefulPartitionedCall/lightnet/lightnet_block_2/strided_slice_3/stack_1", "shape": [4], "dtype": "int32"}, {"name": "StatefulPartitionedCall/lightnet/lightnet_block_2/strided_slice_3/stack_2", "shape": [4], "dtype": "int32"}, {"name": "StatefulPartitionedCall/lightnet/lightnet_block_2/concat_2/axis", "shape": [], "dtype": "int32"}, {"name": "StatefulPartitionedCall/conv2d_9/Conv2D/ReadVariableOp", "shape": [1, 1, 128, 128], "dtype": "float32"}, {"name": "StatefulPartitionedCall/conv2d_9/BiasAdd/ReadVariableOp", "shape": [128], "dtype": "float32"}, {"name": "StatefulPartitionedCall/cpm_2/sequential_16/separable_conv2d_15/separable_conv2d/strided_slice_1/stack", "shape": [1], "dtype": "int32"}, {"name": "StatefulPartitionedCall/cpm_2/sequential_16/separable_conv2d_15/separable_conv2d/strided_slice_1/stack_1", "shape": [1], "dtype": "int32"}, {"name": "StatefulPartitionedCall/cpm_2/sequential_16/separable_conv2d_15/separable_conv2d/strided_slice_1/stack_2", "shape": [1], "dtype": "int32"}, {"name": "StatefulPartitionedCall/cpm_2/sequential_16/separable_conv2d_15/separable_conv2d/required_space_to_batch_paddings/add", "shape": [2], "dtype": "int32"}, {"name": "StatefulPartitionedCall/cpm_2/sequential_16/separable_conv2d_15/separable_conv2d/dilation_rate", "shape": [2], "dtype": "int32"}, {"name": "StatefulPartitionedCall/cpm_2/sequential_16/separable_conv2d_15/separable_conv2d/required_space_to_batch_paddings/strided_slice_7/stack", "shape": [1], "dtype": "int32"}, {"name": "StatefulPartitionedCall/cpm_2/sequential_16/separable_conv2d_15/separable_conv2d/required_space_to_batch_paddings/strided_slice_7/stack_1", "shape": [1], "dtype": "int32"}, {"name": "StatefulPartitionedCall/cpm_2/sequential_16/separable_conv2d_15/separable_conv2d/required_space_to_batch_paddings/strided_slice_7/stack_2", "shape": [1], "dtype": "int32"}, {"name": "StatefulPartitionedCall/cpm_2/sequential_17/separable_conv2d_16/separable_conv2d/strided_slice_1/stack", "shape": [1], "dtype": "int32"}, {"name": "StatefulPartitionedCall/cpm_2/sequential_17/separable_conv2d_16/separable_conv2d/strided_slice_1/stack_1", "shape": [1], "dtype": "int32"}, {"name": "StatefulPartitionedCall/cpm_2/sequential_17/separable_conv2d_16/separable_conv2d/strided_slice_1/stack_2", "shape": [1], "dtype": "int32"}, {"name": "StatefulPartitionedCall/cpm_2/sequential_17/separable_conv2d_16/separable_conv2d/required_space_to_batch_paddings/add", "shape": [2], "dtype": "int32"}, {"name": "StatefulPartitionedCall/cpm_2/sequential_17/separable_conv2d_16/separable_conv2d/dilation_rate", "shape": [2], "dtype": "int32"}, {"name": "StatefulPartitionedCall/cpm_2/sequential_17/separable_conv2d_16/separable_conv2d/required_space_to_batch_paddings/strided_slice_7/stack", "shape": [1], "dtype": "int32"}, {"name": "StatefulPartitionedCall/cpm_2/sequential_17/separable_conv2d_16/separable_conv2d/required_space_to_batch_paddings/strided_slice_7/stack_1", "shape": [1], "dtype": "int32"}, {"name": "StatefulPartitionedCall/cpm_2/sequential_17/separable_conv2d_16/separable_conv2d/required_space_to_batch_paddings/strided_slice_7/stack_2", "shape": [1], "dtype": "int32"}, {"name": "StatefulPartitionedCall/cpm_2/concat/axis", "shape": [], "dtype": "int32"}, {"name": "StatefulPartitionedCall/ssd_head/strided_slice_5/stack", "shape": [1], "dtype": "int32"}, {"name": "StatefulPartitionedCall/ssd_head/strided_slice_5/stack_1", "shape": [1], "dtype": "int32"}, {"name": "StatefulPartitionedCall/ssd_head/strided_slice_5/stack_2", "shape": [1], "dtype": "int32"}, {"name": "StatefulPartitionedCall/ssd_head/Reshape_11/shape/2", "shape": [], "dtype": "int32"}, {"name": "StatefulPartitionedCall/ssd_head/concat_1/axis", "shape": [], "dtype": "int32"}, {"name": "StatefulPartitionedCall/postprocessing/strided_slice_2/stack", "shape": [3], "dtype": "int32"}, {"name": "StatefulPartitionedCall/postprocessing/strided_slice_2/stack_1", "shape": [3], "dtype": "int32"}, {"name": "StatefulPartitionedCall/postprocessing/strided_slice_2/stack_2", "shape": [3], "dtype": "int32"}, {"name": "StatefulPartitionedCall/postprocessing/Max/reduction_indices", "shape": [], "dtype": "int32"}, {"name": "StatefulPartitionedCall/postprocessing/ExpandDims_1/dim", "shape": [], "dtype": "int32"}, {"name": "StatefulPartitionedCall/postprocessing/concat/axis", "shape": [], "dtype": "int32"}, {"name": "StatefulPartitionedCall/lightnet/sequential/conv2d/Conv2D_weights", "shape": [3, 3, 3, 16], "dtype": "float32"}, {"name": "StatefulPartitionedCall/lightnet/sequential/conv2d/Conv2D_bn_offset", "shape": [16], "dtype": "float32"}, {"name": "StatefulPartitionedCall/lightnet/lightnet_block/basic_unit_with_downsampling/sequential_1/conv2d_1/Conv2D_weights", "shape": [1, 1, 16, 32], "dtype": "float32"}, {"name": "StatefulPartitionedCall/lightnet/lightnet_block/basic_unit_with_downsampling/sequential_1/conv2d_1/Conv2D_bn_offset", "shape": [32], "dtype": "float32"}, {"name": "StatefulPartitionedCall/lightnet/lightnet_block/basic_unit_with_downsampling/sequential_2/separable_conv2d_1/separable_conv2d_weights", "shape": [1, 1, 16, 32], "dtype": "float32"}, {"name": "StatefulPartitionedCall/lightnet/lightnet_block/basic_unit_with_downsampling/sequential_2/separable_conv2d_1/separable_conv2d_bn_offset", "shape": [32], "dtype": "float32"}, {"name": "StatefulPartitionedCall/lightnet/lightnet_block/basic_unit_with_downsampling/sequential_1/separable_conv2d/separable_conv2d_weights", "shape": [1, 1, 32, 32], "dtype": "float32"}, {"name": "StatefulPartitionedCall/lightnet/lightnet_block/basic_unit_with_downsampling/sequential_1/separable_conv2d/separable_conv2d_bn_offset", "shape": [32], "dtype": "float32"}, {"name": "StatefulPartitionedCall/lightnet/lightnet_block/basic_unit/sequential_3/conv2d_2/Conv2D_weights", "shape": [1, 1, 32, 32], "dtype": "float32"}, {"name": "StatefulPartitionedCall/lightnet/lightnet_block/basic_unit/sequential_3/conv2d_2/Conv2D_bn_offset", "shape": [32], "dtype": "float32"}, {"name": "StatefulPartitionedCall/lightnet/lightnet_block/basic_unit/sequential_3/separable_conv2d_2/separable_conv2d_weights", "shape": [1, 1, 32, 32], "dtype": "float32"}, {"name": "StatefulPartitionedCall/lightnet/lightnet_block/basic_unit/sequential_3/separable_conv2d_2/separable_conv2d_bn_offset", "shape": [32], "dtype": "float32"}, {"name": "StatefulPartitionedCall/lightnet/lightnet_block_1/basic_unit_with_downsampling_1/sequential_4/conv2d_3/Conv2D_weights", "shape": [1, 1, 64, 64], "dtype": "float32"}, {"name": "StatefulPartitionedCall/lightnet/lightnet_block_1/basic_unit_with_downsampling_1/sequential_4/conv2d_3/Conv2D_bn_offset", "shape": [64], "dtype": "float32"}, {"name": "StatefulPartitionedCall/lightnet/lightnet_block_1/basic_unit_with_downsampling_1/sequential_5/separable_conv2d_4/separable_conv2d_weights", "shape": [1, 1, 64, 64], "dtype": "float32"}, {"name": "StatefulPartitionedCall/lightnet/lightnet_block_1/basic_unit_with_downsampling_1/sequential_5/separable_conv2d_4/separable_conv2d_bn_offset", "shape": [64], "dtype": "float32"}, {"name": "StatefulPartitionedCall/lightnet/lightnet_block_1/basic_unit_with_downsampling_1/sequential_4/separable_conv2d_3/separable_conv2d_weights", "shape": [1, 1, 64, 64], "dtype": "float32"}, {"name": "StatefulPartitionedCall/lightnet/lightnet_block_1/basic_unit_with_downsampling_1/sequential_4/separable_conv2d_3/separable_conv2d_bn_offset", "shape": [64], "dtype": "float32"}, {"name": "StatefulPartitionedCall/lightnet/lightnet_block_1/basic_unit_1/sequential_6/conv2d_4/Conv2D_weights", "shape": [1, 1, 64, 64], "dtype": "float32"}, {"name": "StatefulPartitionedCall/lightnet/lightnet_block_1/basic_unit_1/sequential_6/conv2d_4/Conv2D_bn_offset", "shape": [64], "dtype": "float32"}, {"name": "StatefulPartitionedCall/lightnet/lightnet_block_1/basic_unit_1/sequential_6/separable_conv2d_5/separable_conv2d_weights", "shape": [1, 1, 64, 64], "dtype": "float32"}, {"name": "StatefulPartitionedCall/lightnet/lightnet_block_1/basic_unit_1/sequential_6/separable_conv2d_5/separable_conv2d_bn_offset", "shape": [64], "dtype": "float32"}, {"name": "StatefulPartitionedCall/lightnet/lightnet_block_1/basic_unit_2/sequential_7/conv2d_5/Conv2D_weights", "shape": [1, 1, 64, 64], "dtype": "float32"}, {"name": "StatefulPartitionedCall/lightnet/lightnet_block_1/basic_unit_2/sequential_7/conv2d_5/Conv2D_bn_offset", "shape": [64], "dtype": "float32"}, {"name": "StatefulPartitionedCall/lightnet/lightnet_block_1/basic_unit_2/sequential_7/separable_conv2d_6/separable_conv2d_weights", "shape": [1, 1, 64, 64], "dtype": "float32"}, {"name": "StatefulPartitionedCall/lightnet/lightnet_block_1/basic_unit_2/sequential_7/separable_conv2d_6/separable_conv2d_bn_offset", "shape": [64], "dtype": "float32"}, {"name": "StatefulPartitionedCall/lightnet/lightnet_block_1/basic_unit_3/sequential_8/conv2d_6/Conv2D_weights", "shape": [1, 1, 64, 64], "dtype": "float32"}, {"name": "StatefulPartitionedCall/lightnet/lightnet_block_1/basic_unit_3/sequential_8/conv2d_6/Conv2D_bn_offset", "shape": [64], "dtype": "float32"}, {"name": "StatefulPartitionedCall/lightnet/lightnet_block_1/basic_unit_3/sequential_8/separable_conv2d_7/separable_conv2d_weights", "shape": [1, 1, 64, 64], "dtype": "float32"}, {"name": "StatefulPartitionedCall/lightnet/lightnet_block_1/basic_unit_3/sequential_8/separable_conv2d_7/separable_conv2d_bn_offset", "shape": [64], "dtype": "float32"}, {"name": "StatefulPartitionedCall/lightnet/lightnet_block_2/basic_unit_with_downsampling_2/sequential_9/conv2d_7/Conv2D_weights", "shape": [1, 1, 128, 64], "dtype": "float32"}, {"name": "StatefulPartitionedCall/lightnet/lightnet_block_2/basic_unit_with_downsampling_2/sequential_9/conv2d_7/Conv2D_bn_offset", "shape": [64], "dtype": "float32"}, {"name": "StatefulPartitionedCall/lightnet/lightnet_block_2/basic_unit_with_downsampling_2/sequential_10/separable_conv2d_9/separable_conv2d_weights", "shape": [1, 1, 128, 64], "dtype": "float32"}, {"name": "StatefulPartitionedCall/lightnet/lightnet_block_2/basic_unit_with_downsampling_2/sequential_10/separable_conv2d_9/separable_conv2d_bn_offset", "shape": [64], "dtype": "float32"}, {"name": "StatefulPartitionedCall/lightnet/lightnet_block_2/basic_unit_with_downsampling_2/sequential_9/separable_conv2d_8/separable_conv2d_weights", "shape": [1, 1, 64, 64], "dtype": "float32"}, {"name": "StatefulPartitionedCall/lightnet/lightnet_block_2/basic_unit_with_downsampling_2/sequential_9/separable_conv2d_8/separable_conv2d_bn_offset", "shape": [64], "dtype": "float32"}, {"name": "StatefulPartitionedCall/lightnet/lightnet_block_2/basic_unit_4/sequential_11/conv2d_8/Conv2D_weights", "shape": [1, 1, 64, 64], "dtype": "float32"}, {"name": "StatefulPartitionedCall/lightnet/lightnet_block_2/basic_unit_4/sequential_11/conv2d_8/Conv2D_bn_offset", "shape": [64], "dtype": "float32"}, {"name": "StatefulPartitionedCall/lightnet/lightnet_block_2/basic_unit_4/sequential_11/separable_conv2d_10/separable_conv2d_weights", "shape": [1, 1, 64, 64], "dtype": "float32"}, {"name": "StatefulPartitionedCall/lightnet/lightnet_block_2/basic_unit_4/sequential_11/separable_conv2d_10/separable_conv2d_bn_offset", "shape": [64], "dtype": "float32"}, {"name": "StatefulPartitionedCall/cpm_2/sequential_16/separable_conv2d_15/separable_conv2d_weights", "shape": [1, 1, 128, 32], "dtype": "float32"}, {"name": "StatefulPartitionedCall/cpm_2/sequential_16/separable_conv2d_15/separable_conv2d_bn_offset", "shape": [32], "dtype": "float32"}, {"name": "StatefulPartitionedCall/cpm_1/sequential_14/separable_conv2d_13/separable_conv2d_weights", "shape": [1, 1, 128, 32], "dtype": "float32"}, {"name": "StatefulPartitionedCall/cpm_1/sequential_14/separable_conv2d_13/separable_conv2d_bn_offset", "shape": [32], "dtype": "float32"}, {"name": "StatefulPartitionedCall/cpm/sequential_12/separable_conv2d_11/separable_conv2d_weights", "shape": [1, 1, 128, 32], "dtype": "float32"}, {"name": "StatefulPartitionedCall/cpm/sequential_12/separable_conv2d_11/separable_conv2d_bn_offset", "shape": [32], "dtype": "float32"}, {"name": "StatefulPartitionedCall/cpm_2/sequential_17/separable_conv2d_16/separable_conv2d_weights", "shape": [1, 1, 32, 32], "dtype": "float32"}, {"name": "StatefulPartitionedCall/cpm_2/sequential_17/separable_conv2d_16/separable_conv2d_bn_offset", "shape": [32], "dtype": "float32"}, {"name": "StatefulPartitionedCall/cpm_1/sequential_15/separable_conv2d_14/separable_conv2d_weights", "shape": [1, 1, 32, 32], "dtype": "float32"}, {"name": "StatefulPartitionedCall/cpm_1/sequential_15/separable_conv2d_14/separable_conv2d_bn_offset", "shape": [32], "dtype": "float32"}, {"name": "StatefulPartitionedCall/cpm/sequential_13/separable_conv2d_12/separable_conv2d_weights", "shape": [1, 1, 32, 32], "dtype": "float32"}, {"name": "StatefulPartitionedCall/cpm/sequential_13/separable_conv2d_12/separable_conv2d_bn_offset", "shape": [32], "dtype": "float32"}]}]}